models/checkpoints/checkpoint.pth (torch_old, 84894 bytes, 8 tensors)

fc0.weight f4 [100, 4]
000000 7c ce 78 3d b9 32 f8 3c 0b e4 ae be 72 10 3d be
       0.060743794 0.030297624 -0.34158358 -0.18463305
000010 20 83 16 be 54 40 49 3e a2 14 f6 3d 00 aa 4f 3e
       -0.14698458 0.19653445 0.12015654 0.20279694
000020 49 76 28 bc 38 70 fa 3d 2c 81 0b be 92 5f a1 bd
       -0.010282108 0.12228435 -0.13623494 -0.07879557
000030 b9 32 64 bd 96 81 66 be 4e ad 94 be 3b 99 9d bd
       -0.055712435 -0.2251037 -0.2903847 -0.07695242
000040 3d 49 06 3e 3b 6a 5d 3b a1 18 3a be 67 01 c3 bb
       0.13113876 0.0033785242 -0.18173458 -0.005951095
000050 13 db 7c 3e ef a0 11 3f 5d 5d 23 3e d7 4a a5 3e
       0.24692945 0.5688619 0.15953584 0.3228366
000060 88 6d ad 3c 50 a0 86 bd 09 1b 9f 3e 08 f0 b7 be
       0.021170393 -0.06573546 0.31075314 -0.35925317
000070 6c bf 2e 3b ce 92 e0 bb 86 be 09 be b5 33 58 3e
       0.002666439 -0.006853438 -0.13451585 0.21113475
000080 2f 73 51 be 0e 28 53 be d1 1e 48 bf ed e8 4e be
       -0.20454095 -0.20620748 -0.7817202 -0.20206042
000090 32 f3 74 be 4c 59 bb 3e 6a 71 96 3e d1 9f 7f 3e
       -0.23920897 0.36591566 0.29383403 0.24963309
0000a0 b7 fa c2 bd 27 7e 93 be b4 f3 c2 be d4 7a 77 be
       -0.09520476 -0.28807184 -0.38076556 -0.24167949
0000b0 08 40 4f 3c ee 69 3a be f8 af 22 3e 54 9f f7 3d
       0.012649544 -0.18204471 0.15887439 0.12090936
0000c0 3d b4 66 bd 20 24 b4 3d 49 fd 83 3e 98 95 86 3e
       -0.056324232 0.08795953 0.2577918 0.26286006
0000d0 c9 e6 32 3d 0b 13 19 3d 63 98 c7 3e b5 33 16 be
       0.043677125 0.037371676 0.3898345 -0.14668162
0000e0 9a e8 1a bd 37 8d ba be 57 6d 7e bf f6 09 b1 be
       -0.037819482 -0.36435863 -0.9938559 -0.34577912
0000f0 c8 6c 0f 3e 78 64 93 3e e2 db 00 3e 97 72 58 3e
       0.1400634 0.2878759 0.12583879 0.21137463
000100 e3 fc 29 bd b8 64 4d bd 38 ce a1 be 66 2b 12 3e
       -0.041500937 -0.05014488 -0.31602645 0.14274368
000110 65 9b 86 bc 6f 62 3d 3e c1 93 41 be 90 bf fe bd
       -0.01643152 0.1849458 -0.1890402 -0.124388814
000120 3e 29 14 bd 11 ad c9 3e d2 73 56 3f d7 eb c4 3e
       -0.036172144 0.39389852 0.8377048 0.38461182
000130 71 8f 65 3e a4 6d c7 be 7e 34 8f bd a6 32 ae be
       0.22418 -0.38950837 -0.06992434 -0.34023017
000140 2f d5 a7 3b df 11 42 3e af 19 28 ba d1 5f 9c be
       0.005121849 0.1895213 -0.00064125186 -0.30541852
000150 13 11 47 3b 93 7c 14 3e 03 09 3a bc 79 a2 4e be
       0.0030375167 0.14500646 -0.011354688 -0.20179166
000160 ab 55 31 3b 8b 45 0c be 71 6c 23 3d 2c d4 da 3d
       0.0027059119 -0.13698404 0.03989834 0.10685
000170 eb 64 db 3d 9c 94 82 bd 15 79 75 be 7c 03 3f be
       0.10712608 -0.06376001 -0.2397197 -0.18653673
000180 04 67 0a 3e 33 dc c6 bd b2 e7 72 be ed 92 2b be
       0.1351586 -0.097099684 -0.23721197 -0.16755266
000190 38 cc 2a bd a8 8b 8f 3e 47 77 a0 be 48 09 db be
       -0.041698664 0.28036237 -0.31341 -0.4278052
0001a0 4f 95 90 be 17 73 93 bd 4f af 00 bf ba 98 28 be
       -0.28238913 -0.07199686 -0.502675 -0.1646451
0001b0 45 de e0 3d 4d b1 79 bd f0 cc 19 be 55 1b 8a 3e
       0.109798945 -0.060960103 -0.15019584 0.26973978
0001c0 bb bd 9b 3c 3b 4e 05 3e f8 56 1a 3e ea 75 90 be
       0.019011369 0.13018124 0.15072238 -0.2821496
0001d0 20 5e 6d 3d 46 03 34 3d c1 e1 36 3e e2 5c b1 3d
       0.057951093 0.043948434 0.17859556 0.08660294
0001e0 bc 89 9b bd fd 8f c7 bd 5d 9a 8b 3e d6 9d 31 3e
       -0.0759463 -0.097442605 0.27266207 0.17345366
0001f0 b9 d2 42 be 9c 3c 7a be 63 c0 6e be cc 56 4d be
       -0.19025697 -0.24437183 -0.23315577 -0.20052642
000200 f4 ce 12 3e da 6d 7e be 64 cb 21 be a3 c2 56 bd
       0.14336759 -0.24846593 -0.15800244 -0.052431714
000210 14 f7 9c be 66 e0 93 bd fc 95 fa 3e 4d 23 ec bc
       -0.30657256 -0.07220535 0.48942554 -0.028825426
000220 79 cb ec 3e a1 cc 86 3e ed 34 23 be af 22 20 3e
       0.46248987 0.26327994 -0.15938158 0.1563823
000230 4d a6 97 bb 8a b8 59 3e 9a 77 c6 bd f6 06 90 be
       -0.004627979 0.21261802 -0.09690781 -0.2813031
000240 c6 d8 4c be 46 fb 14 be 70 ca b0 3e ce ca b2 bd
       -0.20004568 -0.14548978 0.34529448 -0.08730088
000250 52 b6 c4 be 01 26 a1 be af 24 2d bf a3 1f 6d be
       -0.3842035 -0.31474307 -0.676341 -0.231566
000260 f3 58 4c bd 10 82 ac 3c d9 9b 6e 3e 90 07 61 be
       -0.049889516 0.021058112 0.23301639 -0.21975541
000270 10 0a a2 3e a7 16 c0 be 22 dc cc bd 84 0d 5b be
       0.31648302 -0.37517282 -0.100029245 -0.21391875
000280 f4 05 14 bc 12 00 8d bd 13 11 52 bd 73 58 98 be
       -0.009034622 -0.06884779 -0.051285814 -0.2975498
000290 1d 34 13 bd 48 20 82 3c f3 e5 52 be dd b1 54 3e
       -0.03593837 0.015884534 -0.20595531 0.20770974
0002a0 e2 97 ac be 16 d8 9a bd d7 b4 9d 3e e5 16 ea bd
       -0.33709627 -0.07560746 0.30802032 -0.11430148
0002b0 6c ee 95 3e 10 8d 0f 3e a8 5e 2a bd 39 b6 8c 3d
       0.29283464 0.14018655 -0.041594177 0.06870694
0002c0 18 ce 53 3c 9d ee ba 3d 7b a4 d9 3d af cb a3 be
       0.012927555 0.09127543 0.10627075 -0.31991336
0002d0 e6 fa 0f 3e c2 fd b7 bd e7 2d 88 3e 58 46 31 bb
       0.14060554 -0.08983947 0.2659752 -0.0027049985
0002e0 ba 6b 76 bc cb 7b 98 3c ed f5 1b be 00 d7 d8 bd
       -0.015040332 0.018613717 -0.15230532 -0.10587883
0002f0 75 05 a8 be 12 a3 8e 3e f3 47 fb 3e 00 b8 84 3e
       -0.32816663 0.27858788 0.4907833 0.2592163
000300 aa a9 94 be dd 51 bc bd c0 74 48 be 2a 54 13 be
       -0.29035693 -0.09195302 -0.19575787 -0.14387575
000310 15 61 8e be e8 dd eb 3c cd ed 67 3e ad cb 15 be
       -0.27808443 0.028792337 0.22649308 -0.14628477
000320 b6 05 be 3d ce 34 cd 3d 87 45 81 be 54 16 30 be
       0.09278433 0.10019837 -0.25248358 -0.17196018
000330 74 91 92 be 74 b5 b9 3e ea c4 fd 3d fb d3 9b 3e
       -0.28626597 0.3627125 0.12391074 0.30435166
000340 28 cb 3b 3e d5 39 28 3d 43 b5 22 bd 7a de d2 bd
       0.18339217 0.041070778 -0.039723646 -0.1029634
000350 00 b6 1e 3e eb 92 e0 bd f6 c9 91 bd 0c 39 9b bd
       0.15499115 -0.109655224 -0.07118599 -0.0757924
000360 b3 9d 36 bd 40 e6 c0 bd 02 a6 93 3e 3a 05 9d bd
       -0.044583987 -0.09418917 0.2883759 -0.076670125
000370 3f 30 b7 bd 98 64 97 3e 81 a0 40 3e 32 61 a6 3d
       -0.08944749 0.29568934 0.18811227 0.08124007
000380 27 5e 99 bc 39 6c 01 3e e7 ed 40 be de 7d a0 bd
       -0.018721653 0.1263894 -0.18840753 -0.07836507
000390 c5 70 1d be fb 31 6d 3d c9 79 89 bd 9a 4a 6b 3e
       -0.1537505 0.057908993 -0.06712682 0.22977677
0003a0 22 a2 4d bd fc c3 8c 3e b6 e9 26 3f 0a e7 19 be
       -0.05020345 0.27493274 0.65200365 -0.1502954
0003b0 86 29 e8 3c 97 a0 4a be 7b 87 2b 3e e1 00 0b 3d
       0.028340112 -0.19787823 0.167509 0.033936385
0003c0 29 4f 23 bc 3f dc 98 3e 51 bf 0e be 59 ee a4 be
       -0.009967604 0.29855534 -0.13940169 -0.32213095
0003d0 dd 89 4d 3e 7a c2 f6 be 76 53 10 bf a0 d6 cd be
       0.20072122 -0.4819525 -0.5637735 -0.40202808
0003e0 29 59 54 3d bc b7 c3 bd 5f 5e 37 be 59 a9 4a bd
       0.051842842 -0.09556529 -0.17907093 -0.04947791
0003f0 92 87 7c bc 40 4b 17 3e 54 f3 b2 bd f0 3f 8d be
       -0.015413182 0.147748 -0.087378174 -0.27587843

fc0.bias f4 [100]
000000 a1 89 c4 3e 0f aa f1 3d 46 77 34 3e a3 ea 02 3f
       0.38386253 0.11800014 0.17623624 0.5113928
000010 e6 a1 98 3e d9 79 ac be f6 d8 0e 3f 4a b9 f4 3e
       0.2981102 -0.33686712 0.55799806 0.47797614
000020 df 30 5c be f2 03 96 3e e8 a8 d0 be ec b3 b8 bd
       -0.21503018 0.29299885 -0.40753865 -0.090186924
000030 c0 a7 06 3f 72 c4 28 3e 68 b5 f9 bd 31 98 69 bd
       0.52599716 0.16481188 -0.121928036 -0.057029907
000040 6d 8f 2c be 09 89 93 3d 6c cc d4 3a 9f 75 08 3f
       -0.16851588 0.07203872 0.0016235239 0.53304476
000050 16 6c f5 3d a7 88 b3 3d 98 48 8e bd ae 28 d5 3e
       0.119835064 0.08766299 -0.0694744 0.416326
000060 32 7c ae 3e f1 07 c4 3d c5 7c e0 3d ac 06 f7 be
       0.34079129 0.09571827 0.10961298 -0.48247278
000070 38 30 c3 3d 90 11 92 3e 10 8e fb be ea 5f 91 3e
       0.09530681 0.28529024 -0.49131823 0.2839349
000080 fa 78 f9 3e 0e 2f 40 3e c8 f0 de be eb dd f6 3d
       0.4872511 0.1876795 -0.43543077 0.12054046
000090 19 3b 38 3e a0 1f c7 be b2 c9 b3 3e dd 3a f2 be
       0.17991294 -0.38891315 0.3511482 -0.47310534
0000a0 f8 ce 2d bf e6 01 01 bf df d1 cf 3d 21 bd d7 3e
       -0.67893934 -0.5039352 0.101474516 0.4213648
0000b0 2b 40 96 3d 75 f0 02 3f f3 3b 4b 3e 56 9d 68 3e
       0.07336458 0.5114816 0.19847088 0.22716269
0000c0 f8 98 e2 3d b8 0b fc be 30 fa 03 3f 77 e1 a4 3e
       0.11064333 -0.4922769 0.5155363 0.32203266
0000d0 94 c6 0f 3f b3 d2 a7 3e cd 25 14 bc 06 2d f2 3e
       0.5616238 0.32777938 -0.0090422155 0.47299975
0000e0 61 0c 33 3e e0 0f b9 3e a4 f8 f8 be 15 35 b3 bd
       0.17485191 0.36144924 -0.48627198 -0.08750359
0000f0 10 15 25 3e e9 f9 bf bc f3 b5 4c 3e 7b cf 57 3d
       0.16121316 -0.023434596 0.19991283 0.052688103
000100 44 df a3 3e a5 c0 a9 3e b7 c9 32 3e 02 21 9b 3d
       0.32006276 0.3315479 0.1745976 0.07574655
000110 9c 0e f8 be 5b 63 c8 bd e0 08 9a 3e 85 3c 19 3f
       -0.48448646 -0.097845756 0.30084896 0.5985797
000120 27 cc cd 3e 04 31 c4 3d 26 a4 9e 3e 20 3b ab be
       0.40194818 0.095796615 0.3098461 -0.33443546
000130 d8 8d c4 be e2 3b a9 3e 1b 7c b3 be 5b 57 9c 3e
       -0.38389468 0.330535 -0.35055622 0.30535397
000140 f8 b7 b4 be 0d c5 5c 3d ce c8 2d be 84 25 a0 3e
       -0.35296607 0.05389886 -0.16971132 0.31278622
000150 a5 7a fd bd cc d9 e3 3e c9 ae cc 3e ff 70 c4 3e
       -0.12376908 0.44502103 0.399771 0.3836746
000160 c9 cc 26 3e 83 fa 8f be 28 30 11 be b1 4b 5c 3e
       0.16289057 -0.28120813 -0.14178526 0.21513249
000170 32 95 ae 3e b1 f5 a5 bc 01 00 f8 3e 4d e9 63 be
       0.34098202 -0.020258756 0.48437503 -0.22256966
000180 47 30 c4 be 9d 1e 7a 3e 43 47 01 3f 93 ca 03 3f
       -0.38318083 0.2442574 0.5049936 0.5148098

fc1.weight f4 [100, 100]
000000 01 20 14 be 1e 2b 7e 3d 1b 39 80 be 03 07 b7 3c
       -0.14465334 0.06205284 -0.25043568 0.02234221
000010 24 8d fe 3c 96 18 c7 3d 1a 44 a1 bc c5 aa 6b 3c
       0.03107316 0.09721486 -0.019685794 0.014383976
000020 fe 85 fa bb 0c b0 30 bc 4b 16 6d 3d 75 2c 5b 3d
       -0.0076453676 -0.01078416 0.05788259 0.053509194
000030 d5 e2 5f bd dc a6 24 be e1 fe 45 3d 01 8f b1 3d
       -0.054659683 -0.16079277 0.048338775 0.08669854
000040 94 40 01 3c 16 05 c6 bd f0 a5 49 3d 1d 34 3c bd
       0.007888932 -0.09668939 0.049230516 -0.045948137
000050 a3 bc d6 bd 9a 06 46 3e 11 7b fa 3c 43 41 ec bd
       -0.10485198 0.19338456 0.03057626 -0.11535885
000060 7c e8 cb bd ba e8 4f bd f2 a9 88 bd d8 ff 4f 3d
       -0.09956452 -0.050759055 -0.066730395 0.0507811
000070 d5 9e 1c be 1a 8b a2 bd d0 07 f7 3d cb c0 4c 3d
       -0.15294965 -0.07936688 0.12062037 0.04998855
000080 48 53 d4 bd a9 58 01 be 59 91 73 bd 4a 05 9b be
       -0.10367447 -0.12631477 -0.059464786 -0.30277473
000090 cb 83 75 bd 0d 2b a0 bd 8f 24 06 be ac c5 9a 3c
       -0.05994014 -0.07820711 -0.13099883 0.018893085
0000a0 72 35 03 3e 38 85 b5 3c 56 97 26 bd 92 3a 89 bd
       0.12813357 0.02215825 -0.04067167 -0.067006245
0000b0 b0 82 db 3d f4 28 55 3d c2 a5 05 bf b4 f0 20 bd
       0.10718286 0.05204101 -0.5220605 -0.039292052
0000c0 4a 8e 9a bd b7 f8 c8 3d 28 9f 15 be b7 8c 0a be
       -0.07546671 0.098130636 -0.14611495 -0.13530241
0000d0 ad 1c 85 3d a2 ff bc bd cc c8 57 3d 4b d1 60 bd
       0.0649961 -0.092284456 0.05268173 -0.054887097
0000e0 d4 67 e7 bd c1 0b 52 bd 00 34 bf 3d 42 a5 06 3c
       -0.112991005 -0.05128074 0.0933609 0.0082181115
0000f0 46 46 3d 3d 02 1d eb bd 3a fa 83 bd 1c 4b 3c 3e
       0.046209596 -0.11480142 -0.06444211 0.18388027
000100 46 e1 21 be 07 6e 87 3d c7 57 a4 bc fa d6 69 3c
       -0.15808591 0.06612783 -0.020061387 0.014272446
000110 5f 12 76 3e 08 b0 81 3d c5 2d 8c 3d ea dc b0 3c
       0.24030446 0.063324034 0.06844667 0.021589715
000120 65 ab 89 bd e7 0f 8b bd 99 9e f3 bc 0b 80 a9 3d
       -0.06722144 -0.067901425 -0.029738711 0.082763754
000130 b6 91 a3 bd 87 c0 f3 bd 38 7c 8d 3c 75 3f 6b 3d
       -0.079867765 -0.11901956 0.017271146 0.057433564
000140 68 36 e9 bc dd d7 9a be e0 f7 dc 3d f9 ae db ba
       -0.028468326 -0.30242816 0.10789466 -0.001676052
000150 32 86 29 bd f0 84 a8 bd aa 07 a6 bc 40 6f 28 3a
       -0.041387744 -0.08228481 -0.020267326 0.0006425269
000160 cb a7 6b 3d 86 9c 73 3d ce 9c cb bc 32 e1 57 be
       0.057533067 0.059475444 -0.024855044 -0.21081999
000170 a3 06 fc bd f9 b6 cf 3d 01 b0 9e 3c 94 78 66 3d
       -0.12305953 0.10142321 0.019371035 0.056267336
000180 cd 22 33 be 0b ac f4 be 36 ac 83 3d 81 dd 92 3d
       -0.17493744 -0.47787508 0.06429331 0.07171155
000190 84 e9 ec 3c 6d b6 50 3c 32 db 13 bd 5a 20 36 3e
       0.028919943 0.012738806 -0.036097713 0.17785779
0001a0 b5 ee 9d 3d 1c 1e c4 3d d3 e8 24 3e 37 26 0c 3d
       0.077115454 0.095760554 0.1610444 0.034216132
0001b0 73 4c e1 3c 89 ab bd 3d a7 ec 9b bd 9c e9 c8 bd
       0.027502274 0.09261233 -0.07613497 -0.098101825
0001c0 c4 57 27 3e 50 51 92 3d 3e 32 00 3e a5 7f 5a 3d
       0.16342074 0.071444154 0.12519166 0.053344388
0001d0 d4 ad e8 bd da fa 45 3d 60 2f 3b 3d 0a 3d dc 3d
       -0.1136128 0.048334934 0.045699477 0.1075383
0001e0 62 e7 8a 3c d4 fe 91 ba 45 9e 29 3d 4a 47 96 3c
       0.016956035 -0.0011138567 0.041410703 0.01834454
0001f0 f4 b0 ac 3d 00 d9 78 bc cb 8d 02 3e d4 11 4e bd
       0.08432189 -0.015188456 0.12749402 -0.05030997
000200 b3 27 69 bc 47 d7 b7 3d 4e fd 65 bd d5 a3 06 3e
       -0.014230656 0.08976608 -0.056149773 0.13148434
000210 75 22 e9 3d 83 49 2c 3e 8e be 41 3c 68 0d 04 3d
       0.11383525 0.16824917 0.011825217 0.032239348
000220 7e 5f 43 3d fb 3b c3 3d bf 93 09 3d f2 9c 39 3d
       0.04769849 0.09532925 0.033588167 0.04531569
000230 69 4a 6b bd 71 f7 6c 3d c1 27 10 3e 7f fa c9 3d
       -0.05744401 0.057853166 0.14077665 0.098622315
000240 8b f2 20 bd bb 74 3f 3e e6 76 dc 3c 9f 4b 38 3e
       -0.039293807 0.18696873 0.026912164 0.17997597
000250 5c 88 65 3d 8d eb 31 be ce 6f 2a 3e 77 e0 54 3d
       0.056038246 -0.17375012 0.16644213 0.05197188
000260 a7 f7 41 3e ea 82 d8 3c 8b e5 51 3b 2a 0c 80 3d
       0.18942128 0.026429612 0.0032027687 0.0625232
000270 94 2b eb 3d de 22 2c 3e 7c 56 d5 3c cd ea bf ba
       0.11482921 0.16810176 0.026042216 -0.001464212
000280 4d 40 81 3d 4a 43 02 3e 3c 49 2c 3e 6f f7 97 bd
       0.063110925 0.12720981 0.16824812 -0.07420241
000290 d3 97 e1 3d 01 8f 39 3e 0b 0a 8c 3d 1d 61 95 3d
       0.11015286 0.18120958 0.06837853 0.072939135
0002a0 63 07 92 bd 74 17 a7 bc bb 89 e0 bc 4c 39 be 3d
       -0.07130315 -0.020396926 -0.027409425 0.09288272
0002b0 65 2c 9c 3d 9a d9 ec 3d 5b 8b 06 3e 8f d0 85 bd
       0.07625655 0.11564942 0.13139097 -0.0653392
0002c0 7d 40 fb bc a6 53 b4 3d ee a9 24 bc 15 86 90 3d
       -0.030670399 0.08805017 -0.01005028 0.07056824
0002d0 d9 88 b3 3d b0 8e 03 bc 31 06 26 3c 89 62 f6 3d
       0.08766336 -0.008029625 0.010133312 0.12030513
0002e0 c9 ee fa 3c bd 79 16 3e 6b bd ae 3d 34 61 a8 3b
       0.03063144 0.14694877 0.08532222 0.0051385406
0002f0 ef f5 15 3e 14 03 07 be de 6f d3 3b 3f c9 14 3d
       0.14644597 -0.13184768 0.0064525446 0.036324736
000300 a9 c2 15 3e bc ef 52 3d 72 39 d0 3d aa 81 95 bd
       0.14625038 0.05149816 0.10167207 -0.07300122
000310 c0 66 a0 bc ad 8c 0b bc 21 1a d3 3d e3 c5 cd 3d
       -0.019580245 -0.008517426 0.10307718 0.100475095
000320 d6 c0 c8 3c f7 92 5e 3d 53 7a e0 bd a6 e1 a9 3d
       0.024506014 0.054339375 -0.109608315 0.08294992
000330 01 c1 93 3c cd 21 ff 3d 16 d3 83 3d 4d 08 17 3e
       0.018036367 0.12457619 0.06436746 0.1474926
000340 cc ad 31 3b c2 c5 00 3e 8c 53 ce 3c 5a 4f e6 bc
       0.0027111648 0.12575439 0.025186323 -0.02811401
000350 83 e7 f4 bc e9 f4 7f bd d0 85 d2 3d 1b dc 8b 3d
       -0.02989555 -0.062489424 0.10279429 0.06829091
000360 d8 d1 e5 bd 9f 76 a4 3d ec 1a 71 3c fd 58 0d 3e
       -0.11221665 0.08030438 0.014715891 0.13803478
000370 52 1e bf 3d 24 c8 8d bc 8b 3a e4 bc 66 37 80 3c
       0.09331955 -0.017307349 -0.027859947 0.015651416
000380 ad f4 a5 3c 6e 0d f4 3d d4 64 03 3e 60 63 3b be
       0.020258272 0.11916624 0.12831432 -0.18299627
000390 18 e5 8c bb b7 17 23 3c 1b 55 db 3d e5 40 16 3e
       -0.004299771 0.0099543845 0.10709592 0.14673193
0003a0 7e f5 0d 3d 39 92 cb 3d c7 31 87 3e 02 7d a0 3c
       0.034657948 0.09939999 0.26405165 0.019590858
0003b0 e9 fe c3 3c 75 5d 3b 3d d5 ef 8f 3d c1 69 8b bd
       0.023925262 0.045743424 0.07028166 -0.0680728
0003c0 a8 e4 51 bd d8 f5 99 3c c9 39 f3 3c 87 ab 61 3d
       -0.051243454 0.018793985 0.02969064 0.05509522
0003d0 59 93 f3 ba 3a 32 0d 3e 4f d0 89 3d 32 e1 80 3c
       -0.0018583342 0.13788691 0.06729185 0.015732381
0003e0 84 ef 50 3d 30 04 7b bd 10 91 8e bb 9c cc 9e 3d
       0.05100967 -0.06128329 -0.004350789 0.0775387
0003f0 69 b8 0c 3e 34 09 15 3e 28 cb da 3b 5c 4c b1 3d
       0.13742222 0.14554292 0.00667705 0.086571425

fc1.bias f4 [100]
000000 b1 04 3b 3d a4 25 25 3b 78 6d ba 3d a3 6f 19 3e
       0.04565877 0.0025199438 0.09102911 0.14983992
000010 91 14 06 bd 8b bb c1 bd 6e fb a5 bd de 94 34 3d
       -0.032734457 -0.09459599 -0.08104597 0.044087283
000020 9e 65 0a 3d 39 32 50 3d 13 df c8 3d c7 ba c2 3b
       0.033788316 0.050829146 0.09808173 0.0059426758
000030 0c 37 20 3d 45 92 d5 bd 49 0c bc 3c 15 fb c0 3d
       0.039114997 -0.10428289 0.022955077 0.0942289
000040 a7 b9 89 bd a8 7e 99 3c a1 b0 95 bc f9 ae e6 bd
       -0.067248635 0.018737152 -0.0182727 -0.11263842
000050 22 01 d7 3d 21 f9 21 3d c2 29 05 3e 04 db 60 bc
       0.10498263 0.03954423 0.1300421 -0.013724092
000060 94 7e 07 bd fb 7b 3b bd 59 0a d7 3d 12 50 1b bd
       -0.0330797 -0.045772534 0.105000205 -0.037918158
000070 90 99 29 bc 85 b8 a7 3d db be 2b 3e 40 c8 11 3e
       -0.010351554 0.08189491 0.16772024 0.14236546
000080 d7 91 61 3d 35 aa 04 3e ff 77 a7 bd cd 1b 4e 3d
       0.055070724 0.12955554 -0.08177184 0.05031948
000090 f9 ca 35 3e 43 2b ca bc 9e 5e f8 3d e1 06 8a 3d
       0.17753209 -0.024678832 0.12127422 0.06739593
0000a0 70 4b 8d bd 3d 4e 26 bb e8 f2 89 bb ad 0f f8 3d
       -0.06899154 -0.0025376223 -0.004209865 0.12112365
0000b0 4d ac a2 bd aa 01 aa bd d9 37 24 bd 34 d2 df 3c
       -0.0794302 -0.08301099 -0.040092323 0.027321912
0000c0 b2 e9 0e 3d fc 80 cd bd 57 68 72 3d b3 ee 03 3e
       0.034890838 -0.100343674 0.059181537 0.12884025
0000d0 87 91 d9 bd 41 ba 29 3e 85 24 3b 3d 37 b8 9d bc
       -0.1062346 0.16574956 0.045689125 -0.01925288
0000e0 f0 ee d7 3d dd 8c c5 bd 4f 6d 0a 3d 02 77 ec 3d
       0.105436206 -0.09646008 0.03379565 0.115461364
0000f0 c9 83 59 3d 4f 4b 22 bd ea 00 07 bb 3b 39 4b 3d
       0.053104196 -0.0396226 -0.002059991 0.049615126
000100 e9 63 b8 bd 4a 75 61 3d 58 2b 54 3d 14 35 e4 3d
       -0.09003431 0.055043496 0.05179915 0.11142936
000110 ca 03 a0 bd 52 64 49 bd 17 0a 93 3d eb a8 3b bb
       -0.07813223 -0.04916794 0.07179659 -0.0028634619
000120 4c d2 2e 3d 3f 50 d5 3c 91 ac 1f 3e a7 3d 33 bd
       0.042681023 0.02603924 0.15593173 -0.043759968
000130 7c 57 e6 bc 4b de 38 3e 0a cd e3 bb b6 36 f5 3c
       -0.028117888 0.18053548 -0.006951933 0.029933315
000140 36 8d 16 3e 81 ce 00 bd a3 fe b4 bd a1 57 c5 bd
       0.14702305 -0.031446937 -0.088376306 -0.096358545
000150 c0 40 37 3d dc 62 4c 3d bf 97 c4 bd 92 5f 0a 3e
       0.044739485 0.049898967 -0.09599256 0.1351302
000160 cb 71 53 3d 76 41 84 3c 6c e7 51 bc fb c1 bf bd
       0.051622193 0.016144495 -0.012811523 -0.09363171
000170 fd fb 76 3d 47 11 28 bd 73 2d 18 bd 56 a8 8b 3d
       0.06029891 -0.041032102 -0.03715272 0.06819217
000180 5e 4d 79 3d fd 87 21 bd 6f 63 1b 3e 06 7b 67 3d
       0.0608648 -0.03943633 0.1517465 0.05651381

l_action0.weight f4 [51, 100]
000000 ec 9c c5 3c c7 31 d5 bd ad 4e c6 bd 9d c2 1d be
       0.024122678 -0.10409885 -0.09682975 -0.1540627
000010 f1 49 9e bd 61 77 cb 3d 1d 92 85 bd 9d c1 9a bc
       -0.07728947 0.09934879 -0.065220095 -0.01889115
000020 c3 c5 ce 3b 7c 8f 75 3d 9c 7b 19 bb aa 2c 0a 3c
       0.006310196 0.05995129 -0.0023419624 0.0084335
000030 89 ad 2d bc a3 89 2c 3c 20 ab 33 3e 79 9c 5e be
       -0.010600456 0.010530862 0.17545748 -0.21739377
000040 b5 5e 31 3d 57 7e f1 3d 12 f0 94 3c 10 07 bb bc
       0.04330321 0.117916755 0.01818088 -0.022830516
000050 b6 95 12 bd e9 9d d1 bc 51 ac 21 bb 52 89 4c 3d
       -0.035787307 -0.025587993 -0.002466936 0.049935646
000060 b9 93 6c 3d 4a dc ae bc e9 e2 46 3c ef f9 90 bd
       0.057758067 -0.021345276 0.012139061 -0.07078921
000070 00 d2 14 3c 0f a6 9e 3d 41 cd dc bd 92 cb 87 bd
       0.009083271 0.07746517 -0.107813366 -0.06630625
000080 d7 0e c9 bd 49 8c ec 3c 2a a0 80 3d 34 5a 0a be
       -0.098172836 0.028875487 0.06280549 -0.13510972
000090 db d9 fa bd 19 ee e1 bd 74 8b c9 bd 09 e0 31 be
       -0.12248584 -0.11031742 -0.09841052 -0.17370619
0000a0 30 70 d7 3c 8f a0 93 bd 84 25 7b 3d cd 5d af bd
       0.026298612 -0.072083585 0.061315075 -0.08562813
0000b0 51 2a ad bb 00 e3 ba b9 e6 0a e5 bd 41 2f a1 bd
       -0.0052845855 -0.00035645813 -0.11183719 -0.07870341
0000c0 13 ab ee bd f3 e1 2c bd 06 9b 9b 3b f5 0c d1 bc
       -0.116537236 -0.04220767 0.004748705 -0.025518874
0000d0 98 24 c5 3c 1d ed 01 3c 56 6f d4 bd df 3a ce bd
       0.0240653 0.007930067 -0.10372798 -0.100698225
0000e0 fa a8 0c be ff 39 82 3d 6c 5d 92 3d de 8c bc bd
       -0.13736334 0.06358718 0.07146725 -0.09206556
0000f0 d2 f2 57 bd 23 a8 e1 bd 2c d9 38 be 67 99 2e be
       -0.052721806 -0.11018398 -0.18051594 -0.17050706
000100 9d c6 bd 3d 9e 27 04 3d 6d d6 94 bc e3 a0 f0 3b
       0.09266398 0.032264344 -0.018168652 0.007343398
000110 a7 84 b3 bc c4 8b 6e 3d 26 e2 cc bd 04 a5 b7 bd
       -0.02191384 0.05823876 -0.10004072 -0.08967021
000120 75 f1 7f bc 17 d8 df bc 9a 6c 84 b9 39 40 07 be
       -0.015621533 -0.02732472 -0.00025257916 -0.13208093
000130 1f 47 c8 3d e0 17 a3 bd 0f 55 b4 bb ba a4 41 3d
       0.0977919 -0.07963538 -0.005503304 0.047276236
000140 e5 6b ef bd 58 b8 e0 bd bf 56 bc 3c 7c 65 1d bd
       -0.11690501 -0.10972661 0.022990583 -0.03842686
000150 7f 7a 9a bc 1c a4 db bc 78 5a 25 bb d0 0f a8 bc
       -0.018857239 -0.026811652 -0.0025230926 -0.020515352
000160 ec f2 1a be 88 17 2b 3d 34 77 5b bd bb 7a 22 bd
       -0.1513173 0.041770488 -0.053580478 -0.039667826
000170 10 aa 03 be 6e 0f 20 3d c7 93 88 bd 66 a6 fd 3c
       -0.12857842 0.039077215 -0.06668811 0.030963134
000180 da 5b f3 bd d6 42 5f 3d 33 44 a5 bd a7 58 b1 bd
       -0.11882754 0.0545071 -0.080696486 -0.08659487
000190 d4 4d 7c 3d 3a 1b 39 3b c1 9b bd bb 27 d8 01 bd
       0.06159766 0.0028244988 -0.0057863896 -0.03170028
0001a0 c8 1d a8 bd 5a fc 71 3d 03 92 39 bd 01 05 33 3d
       -0.08208805 0.05907855 -0.045305263 0.043705944
0001b0 27 d3 75 3d 11 e2 97 3d e6 cb 3d 3c 93 41 0e 3d
       0.060015824 0.074161656 0.011584258 0.034730505
0001c0 cf bb 67 bd 09 8d 86 3b a4 b7 0f 3e f6 ab 30 3c
       -0.056575593 0.004106168 0.14034897 0.010783186
0001d0 d4 3c 37 3d d1 55 c2 3d 61 68 bc bd cb c9 b9 bd
       0.044735745 0.094890244 -0.09199596 -0.09071692
0001e0 00 2e c3 bd b9 7b c0 3d b3 e3 9b 3d 08 59 3d bd
       -0.09530258 0.09398598 0.076117896 -0.046227485
0001f0 73 4c 68 3c cc 0a d5 3d 77 ea 6c 3d f9 5f 50 bd
       0.014178383 0.1040245 0.05784079 -0.050872777
000200 45 e6 2d 3c 06 87 7c 3d a9 83 38 3d 92 c9 5a 3c
       0.010613983 0.061652206 0.045047436 0.013353722
000210 93 f4 9d bc 3f d7 34 bc f3 a1 7c bc d3 86 9c bd
       -0.019281661 -0.011037647 -0.015419471 -0.07642903
000220 52 c7 9d bd 3a 81 aa 3d 0d 3f 42 bd 6a 00 a2 ba
       -0.07704033 0.08325429 -0.04742341 -0.0012359743
000230 6c 0e 89 bd 56 ed dc bc c5 0a c2 3d aa 0b 93 3d
       -0.06692204 -0.02696864 0.094747104 0.07179959
000240 e0 ab 90 bb c7 8f 3c bd 36 04 28 3d a1 fc e0 bc
       -0.0044150203 -0.046035554 0.04101964 -0.027464213
000250 b2 c1 be bc 80 d3 9c 3b da c9 9a bd 59 8c c0 3a
       -0.02328572 0.004785955 -0.075580314 0.0014690264
000260 ed d9 97 bc 38 1f 30 bd 8b 02 90 bd 9f bc 89 bd
       -0.018536532 -0.042998523 -0.07031735 -0.0672543
000270 25 5c fd bd 4a 3f 19 3d 0c be d0 3c 0a 57 d5 bd
       -0.12371091 0.037413873 0.025481246 -0.10416992
000280 21 43 7c 3d 2d c8 9e 3c 1c ac ee bd 4d 46 68 bd
       0.061587457 0.01938256 -0.11653921 -0.05670767
000290 ad b0 1a 3d 73 77 78 3d 47 1c 04 bd 3f cd d5 bc
       0.037766147 0.06066079 -0.03225353 -0.026098846
0002a0 78 a3 60 3c b3 97 2b 3d f0 34 88 3d 3a 19 6e 3b
       0.013710849 0.04189272 0.06650722 0.0036330954
0002b0 44 08 35 bd 1a a7 04 3c 6c e9 4b bd d5 d9 5f bc
       -0.044197336 0.008096481 -0.049783155 -0.013662775
0002c0 7b 05 97 3b f9 66 b1 3c 63 df cc 3d 3e da 84 bc
       0.0046088076 0.021655547 0.10003545 -0.016217347
0002d0 e3 f5 35 3d 71 4d 8f 3d 7b 64 8c bd 21 97 51 bd
       0.04442395 0.06997193 -0.06855103 -0.05116952
0002e0 94 fc 2d 3d db 6f 84 bd 9f a9 96 3d 86 5d ba 3d
       0.042477205 -0.06466647 0.073565714 0.090998694
0002f0 23 ca f0 bd 54 d8 3f 3d 90 8b c6 3c 42 95 d0 bd
       -0.117573045 0.046837166 0.02423647 -0.10184719
000300 e1 a0 18 be 46 1a 0d 3d 63 6b 24 bd 2d 06 da bd
       -0.1490512 0.034448884 -0.040141474 -0.10645709
000310 94 d8 ea bb c2 3b 70 3d 14 15 d4 bd 2b 80 a4 3d
       -0.0071669314 0.05865074 -0.10355583 0.080322586
000320 d3 39 57 3d 76 1e 44 3d 1f 80 2e 3d 35 29 ec 3b
       0.05254538 0.047880612 0.042602655 0.0072070607
000330 51 18 db 3c b4 a0 93 bc 00 5c 7c b9 e1 fd 45 bd
       0.026744993 -0.018020965 -0.00024066865 -0.04833782
000340 a4 c2 ac 3d b3 4b 5d bd 4e 6a 34 3c bc 63 b8 bc
       0.08435562 -0.05402727 0.011011673 -0.022508495
000350 37 a2 8c bb cd 2d b2 3b aa 17 de 3d ba 03 69 bd
       -0.0042917985 0.005437589 0.10844357 -0.05688832
000360 4b 70 54 3d 5b 1d 1f bc 5c ec 3e bd 03 0d 40 3c
       0.051864903 -0.009711589 -0.04661213 0.011721852
000370 ad 42 13 bd dc 39 d2 bc 24 9b 3f 3c 6d a7 9d 3d
       -0.03595226 -0.025662355 0.011694703 0.076979496
000380 b5 45 90 3c d1 38 51 bd 0b ae 5f 3d 95 a2 76 bb
       0.017611364 -0.051079575 0.05460934 -0.0037633528
000390 97 e6 1b bd be 34 07 3d 66 dd 33 bd a7 ae db 3d
       -0.038061704 0.033009283 -0.043912314 0.10726672
0003a0 f2 e7 c9 3b ea 38 23 3d f7 6c 10 bd 0c 78 41 3d
       0.0061616832 0.0398492 -0.035260167 0.047233626
0003b0 1f eb fc 3c 1e 09 19 bc 4f f6 63 3d f9 cc 9e bd
       0.030873833 -0.009340553 0.05565482 -0.07753939
0003c0 04 ee 89 bd 52 da 8b bc b5 72 7b bc 55 c8 b1 3a
       -0.06734851 -0.017071877 -0.0153471725 0.0013563732
0003d0 75 8d 60 3d 7c 69 d2 3c bb 33 b5 ba 53 2b 1e bb
       0.054822404 0.025685064 -0.0013824621 -0.002413471
0003e0 5e 79 54 3d e3 1e 37 bd a1 28 eb b9 a7 4e 14 3c
       0.051873557 -0.04470719 -0.00044852964 0.009051955
0003f0 c1 d1 24 bd a5 2a ca 3d 3c c4 a8 bc 11 d2 92 bb
       -0.0402391 0.09871415 -0.020601384 -0.0044806083

l_action0.bias f4 [51]
000000 3a f4 08 be 48 82 a9 bb 39 21 c1 3d bd e9 6c 3d
       -0.13374415 -0.0051730014 0.09430165 0.057840098
000010 00 8c de bc 00 c3 00 be c8 38 d1 3d f1 84 6c bc
       -0.027166367 -0.12574387 0.10215908 -0.014435993
000020 3d e1 15 3e 75 b2 7c bc 40 57 26 bd 58 68 f4 3d
       0.14636703 -0.015423407 -0.04061055 0.119339645
000030 b4 2b 28 bc 80 5a 74 bd c8 ae 91 3d b8 1f 96 bd
       -0.010264326 -0.05965662 0.07113415 -0.073302686
000040 e2 66 02 bb dc 04 d2 bd 98 ca a8 bd de 6a 4d bd
       -0.0019897749 -0.10254833 -0.08241767 -0.050150745
000050 08 4f cf bd ba f7 62 be c0 4f 22 be 3d a7 12 be
       -0.10122496 -0.22164813 -0.15850735 -0.14321609
000060 fa a1 53 be 3a 36 8f be 15 39 d8 bd 6b 8a 38 be
       -0.20667258 -0.2797106 -0.105577625 -0.18021552
000070 4b 8f 87 be 0d b6 20 be 97 76 4e be 9f eb 8c be
       -0.2647651 -0.15694447 -0.20162426 -0.27523515
000080 ef ae 32 be b4 8e 8a be e5 fd 79 be 15 08 67 be
       -0.17449544 -0.27062 -0.2441326 -0.22561677
000090 0e 15 41 be e7 7a 0f be c5 34 16 be a8 8a 90 bd
       -0.18855688 -0.14011727 -0.14668567 -0.070576966
0000a0 53 18 bd bd fb 29 cf 3c e0 b8 1a be d4 f7 3b 3d
       -0.09233155 0.025288573 -0.15109587 0.045890644
0000b0 3c 2d b2 bd 10 a5 3d be 6d 30 d8 bd 93 fd 7d bd
       -0.08700034 -0.18519998 -0.105561115 -0.062009405
0000c0 be 69 40 bd 35 be 0b 3d 40 36 60 bc
       -0.046975844 0.034116942 -0.013684809

l_action1.weight f4 [51, 100]
000000 28 cd 5e 3d d4 f7 06 bd 18 fc 06 bd bb 9c be bd
       0.05439487 -0.03295119 -0.03295526 -0.09307238
000010 ee f9 d4 bd 9e d6 3b 3d df ca b0 bd 4c 2b 98 bd
       -0.10399233 0.04585897 -0.086324446 -0.07430133
000020 7c cc 1c bd 66 fc a2 3d 2b 32 37 be ef e2 ca bd
       -0.03828095 0.079582974 -0.17890231 -0.099065654
000030 84 6a e5 3c b4 21 c8 bd 91 df fc 3d 13 ff 79 be
       0.028004892 -0.09772053 0.123473294 -0.2441371
000040 aa 4e 2e bd d2 6d 0e 3e 40 7a 0f 3b c7 a8 6e bd
       -0.04255549 0.1390908 0.0021892935 -0.058266427
000050 65 a5 d2 3a 2f e9 f3 3c 16 35 b6 bd 6a fa a1 bd
       0.001607102 0.029774277 -0.08896844 -0.07909091
000060 9d a5 c4 3c d6 17 1f 3d de cb ea bd 1d 4f 3b bd
       0.024004752 0.03884109 -0.11464666 -0.045729745
000070 c5 5c e9 bd 33 6c bd bd ec 49 e9 bc 38 26 92 bd
       -0.113946475 -0.09249153 -0.028477632 -0.07136196
000080 82 4a bb 3c 5c 1d 0e bc 1a dd 41 3d 83 bb 25 be
       0.022862677 -0.008673992 0.04733 -0.16184811
000090 2b 12 c6 bd d8 f1 95 3d 17 b1 a0 bd 0a ee 0b be
       -0.09671434 0.07321519 -0.07846277 -0.13665023
0000a0 41 e6 a8 3d af 18 bb bc 97 6f d3 bd eb a9 a4 bc
       0.082470424 -0.022838918 -0.103240184 -0.020100554
0000b0 53 3a 3d bd 82 ec 05 3d e9 e4 6b bd f3 60 45 3d
       -0.0461982 0.032696255 -0.057591353 0.04818816
0000c0 92 8c 6f bd a0 7e 8a 3b 9a 61 07 bd a0 f7 00 be
       -0.058483668 0.0042265207 -0.033052064 -0.12594461
0000d0 3a 1f ba 3d b4 32 e7 3b 42 8f 42 be 6b 95 9c bd
       0.09087987 0.007055605 -0.18999961 -0.07645687
0000e0 06 9a e8 bd 18 93 71 3c c7 b0 f6 bc e4 3b 52 be
       -0.11357503 0.014744543 -0.03011359 -0.20530659
0000f0 e2 5e 9d 3d 62 7f bd bd 3e 66 72 be cb e9 2f be
       0.07684113 -0.09252812 -0.23671815 -0.17179029
000100 04 54 11 bd d2 ec 48 bd d6 d3 27 be 9e ea 4a 3d
       -0.035480514 -0.049053974 -0.16389403 0.049540155
000110 0c a1 3f 3d 8f bf 4a 3d 6b f5 a8 bd 7b 9e 81 3d
       0.046784446 0.04949909 -0.08249935 0.06329056
000120 99 3c c2 3d b4 f1 8f 3d e3 15 94 bd 38 6f 9c bd
       0.09484214 0.07028523 -0.07230737 -0.07638401
000130 5f 70 14 bd 0e 6d 0f be 84 25 65 3d aa 57 d8 bc
       -0.036239978 -0.14006445 0.05594398 -0.026408989
000140 c2 c5 c4 bd 80 3c 03 bd d9 99 3e 3d 90 e7 0a 3c
       -0.09608032 -0.03204012 0.04653344 0.00847806
000150 5a 67 e1 ba 5b 5b c8 bd 2c 09 59 3d 88 a1 9a bd
       -0.0017196939 -0.0978305 0.052987263 -0.07550341
000160 fe eb 65 be 27 61 a0 3d e1 2c 36 bd cd 02 36 be
       -0.22453305 0.0783103 -0.044476394 -0.17774506
000170 3d 64 da bd 1d 1b 9a 3d e0 ba ab ba 20 22 03 be
       -0.1066365 0.07524703 -0.0013101958 -0.12805986
000180 42 ed a9 bd 4e fc 23 3d 9c 59 4f bb eb dd c4 bb
       -0.082972065 0.04003554 -0.0031639105 -0.0060079
000190 ea 48 4a 3d d4 4a e2 3c 3a 7a 17 bd 47 22 e7 3c
       0.049385943 0.027623571 -0.0369818 0.028214587
0001a0 bb 6e 7d 3c 94 4e 82 3c 17 3d be 3d b9 da 99 bd
       0.015468295 0.01590661 0.09288996 -0.07512421
0001b0 6a 4f 62 bd 48 cf ea 3d 66 ca 10 bd 29 2e 72 3d
       -0.055251516 0.11465317 -0.035349272 0.059126053
0001c0 46 7d 2d 3c 3b 27 e8 bc 13 94 e7 3d c2 f8 e7 bd
       0.01058895 -0.028339019 0.1130754 -0.11326744
0001d0 99 ff a9 3d 4c 50 ef 3d 8c c6 85 bc 6d 0b 5c bd
       0.083007045 0.11685237 -0.016330026 -0.053721834
0001e0 1d bb 1e 3d 3b 6c f8 bc ba 9d 59 3c 19 ae 9e 3d
       0.038752664 -0.030325046 0.013282234 0.0774805
0001f0 84 70 0b 3c 39 e5 3b 3b 43 f7 a6 3d 55 65 c1 3d
       0.0085107125 0.0028670563 0.0815263 0.09443156
000200 bf c7 ac bc 28 d5 8d 3c 2b e9 15 be 8f 0e aa 3d
       -0.02109134 0.017313555 -0.14639728 0.08303558
000210 61 6f d7 3c 23 bc 69 3d de 3e 29 bd 5c a9 25 3d
       0.026298227 0.057064187 -0.04131972 0.040444717
000220 3a 8f a0 bd 2d 57 76 bd d3 8d ba bd 61 db eb bd
       -0.07839818 -0.06014173 -0.09109082 -0.115164526
000230 fe 98 3a bd 90 ae 84 bd 82 00 c8 bc f5 e0 c9 bc
       -0.04555606 -0.06478608 -0.024414305 -0.0246434
000240 a2 54 4d 3d 50 de 92 bc ef bc 86 bd a2 4f af 3c
       0.05012954 -0.017928272 -0.06579005 0.021400277
000250 5a bb 3e 3c 96 3c 9c bd 0c 7e f4 bc ed 48 9a 3d
       0.011641348 -0.07628743 -0.02984526 0.07533441
000260 18 3e 74 bc e3 ae 05 3d 64 da fa bd 68 d8 62 bc
       -0.014907382 0.032637488 -0.12248686 -0.013845541
000270 95 85 00 be d6 a7 01 3d ab 9d 68 3d 84 80 46 bc
       -0.12550958 0.0316542 0.05679099 -0.012115601
000280 a9 f8 35 3d 8a 64 ca bd 4a 07 99 bd 73 f6 3f 3d
       0.044426594 -0.098824576 -0.074720934 0.04686589
000290 37 4c f1 bc a7 11 83 bd cd 53 8d bd 5d 5d b8 3d
       -0.029455287 -0.06399851 -0.06900749 0.09002183
0002a0 0c 4a 8f 3d 4f 4a 49 bd d7 75 95 bc b2 73 27 3d
       0.06996545 -0.04914313 -0.018244667 0.04088182
0002b0 cc 03 0e bd bf 91 53 3d 14 18 49 3d 36 11 4a bc
       -0.03467159 0.051652666 0.04909523 -0.012333205
0002c0 e3 a9 a6 bd 08 e6 d4 3c 1a 0e f1 3c cc f3 b1 bd
       -0.08137872 0.025988594 0.02942567 -0.08689079
0002d0 e7 ad ca bd e1 70 ac bd 9a 6b 54 bd c4 a4 6c 3b
       -0.098964505 -0.084199674 -0.05186043 0.003610895
0002e0 fd fc a3 3d af 2b ac 3c 95 b7 88 3d ae 37 bb 3c
       0.08007238 0.021016924 0.066756405 0.022853699
0002f0 6b 83 a0 bd c8 e5 85 bd 7f e6 26 bc 17 88 f3 3c
       -0.07837566 -0.06537968 -0.0101867905 0.029727979
000300 32 63 2a bd 22 e0 aa bd 37 7c 73 bc 76 76 cd 3c
       -0.041598506 -0.08343531 -0.014861158 0.0250809
000310 b8 12 15 bd d7 e1 51 bd 51 37 2f 3b 18 c1 e8 bb
       -0.036394805 -0.05124077 0.0026735852 -0.0071030967
000320 55 fe d1 bc 57 d4 0f 3c 95 6b ad bc 12 a4 e7 3d
       -0.02563397 0.008778653 -0.021169463 0.11310591
000330 cf ee 3a bd fa c3 22 3d b4 ae b2 3c 91 19 f4 3b
       -0.045637902 0.03973768 0.02181182 0.007449337
000340 44 e0 b3 bc 61 18 c4 3d 21 e5 b2 3d 02 c9 f7 bc
       -0.021957524 0.095749624 0.08735109 -0.030247215
000350 fc d6 ef 3d ac fd 86 3d cc 2e c8 3d f9 91 34 bc
       0.11710927 0.06591353 0.09774551 -0.011021131
000360 69 1c b5 bd c5 62 e1 3c 10 97 28 3c d5 8d c3 bd
       -0.088433094 0.027512917 0.010289922 -0.09548537
000370 20 e7 7c bd 87 61 56 3d 0a 99 09 3b 49 84 90 3d
       -0.061743855 0.052339103 0.002099576 0.070564814
000380 bf 73 79 bd c2 69 8e bd f0 65 81 bc 87 3a 47 3a
       -0.0609014 -0.069537655 -0.015795678 0.0007599969
000390 fd 35 73 bd b9 82 be 3d 32 8c 28 bd 2a e0 52 3c
       -0.05937766 0.09302277 -0.041149326 0.012870828
0003a0 e1 02 ac 3d f1 5a 32 3d 43 ae 9b bd ca 24 cd 3c
       0.083989866 0.04354376 -0.07601597 0.025041956
0003b0 42 ad 8d bd d5 1c 72 3d 15 a1 a3 bd 02 e8 e4 bb
       -0.06917812 0.059109528 -0.07989708 -0.0069856653
0003c0 69 a7 2e bd d3 d7 91 bd 9b 8d 24 3d 07 76 b4 bc
       -0.042640124 -0.07121243 0.040174108 -0.022028936
0003d0 f4 13 91 3c 20 79 d9 bd 24 36 fe bc c1 7b 10 bd
       0.01770971 -0.10618806 -0.031031676 -0.03527427
0003e0 88 b9 29 3d 05 8d 70 bd b6 42 41 3d cd 66 15 3d
       0.041436702 -0.058728237 0.04718276 0.03647499
0003f0 aa df 97 3d a0 93 c5 3d 96 b6 ea 3d 7c 82 bc 3b
       0.074157074 0.09647298 0.11460607 0.0057528596

l_action1.bias f4 [51]
000000 7e 64 c9 bc fe ab 67 bd fe c7 81 bd c4 9f 47 3d
       -0.024584051 -0.05656051 -0.063369736 0.04873635
000010 16 b8 32 bd 2e 45 59 3d d7 fd e7 3d b7 6d 9a 3d
       -0.04363259 0.05304449 0.11327713 0.07540458
000020 80 ed 5e bc b1 d5 b1 3d cf 86 d1 bc b9 3e 23 3d
       -0.013606429 0.086833365 -0.025576977 0.03985474
000030 34 29 a0 3d 0d 3f f7 3c 0b 9a 96 bd 44 c9 06 bd
       0.07820359 0.030181432 -0.073536 -0.032906786
000040 c6 a7 f8 bd 10 12 89 bd c4 0c 28 be 9b 2c c5 bd
       -0.12141375 -0.06692898 -0.1641112 -0.096276484
000050 46 de 8e bd a5 19 6c be aa 08 86 be 4e 0e 1d be
       -0.06975989 -0.23056658 -0.26178485 -0.15337488
000060 58 0e 37 be 56 43 5f be 7a f4 f6 bd 6a bf 56 be
       -0.17876565 -0.2180303 -0.12058349 -0.20971456
000070 54 0d f3 bd b8 04 88 be 0f dc 4c be 9d 72 18 be
       -0.118677765 -0.265661 -0.2000582 -0.14887471
000080 14 d8 6a be 8a 7d f6 bd 9c 0e 0e be 52 c2 6d be
       -0.2293399 -0.120356634 -0.1387276 -0.23218659
000090 77 86 d1 bd c0 f5 61 be 3f 1a 07 be ca 7e 72 be
       -0.10230725 -0.22066402 -0.13193606 -0.23681179
0000a0 88 1e 18 be d9 19 2d bd 84 d7 82 bd ff a0 aa bd
       -0.14855397 -0.04226098 -0.063887626 -0.08331489
0000b0 b1 93 e8 bd 07 bd c5 bd 59 e7 14 bc 92 b5 33 bd
       -0.11356295 -0.09655195 -0.009088361 -0.04387433
0000c0 e1 82 bd 3c e2 25 39 bd d5 fb 27 be
       0.023133697 -0.045202143 -0.1640466
