models/checkpoints/checkpoint.pth (torch_old, 174142 bytes, 8 tensors)

fc0.weight f4 [128, 4]
000000 dd 8a 39 3e 54 a5 02 3e 6d dc 23 bf d6 8b 18 bf
       0.18119378 0.1275838 -0.6400822 -0.5958837
000010 c6 15 01 bf 16 51 0c 3e ba 8b 96 3e 7a 59 e1 3e
       -0.5042385 0.13702807 0.29403478 0.44013578
000020 dc 98 91 3c f2 aa 0a be d8 10 c5 be ae 58 51 bd
       0.017773084 -0.13541773 -0.38489413 -0.051109962
000030 d6 c8 16 bf 47 45 46 be 3b b0 9f bf dd c1 40 bd
       -0.589002 -0.19362365 -1.2475656 -0.047059882
000040 5e 21 12 3f 32 53 e2 3d 0a 6f 07 bf 7d f8 bf 3d
       0.57082164 0.110510245 -0.5290381 0.09373567
000050 42 ad b0 3b 81 e6 02 3f e7 61 2f 3f f5 be 9e 3e
       0.0053917477 0.5113297 0.6850876 0.31005064
000060 b9 b3 58 bd 17 b9 a9 bd 58 ce 66 3e 9e eb dc be
       -0.052905772 -0.08287256 0.22539651 -0.43148512
000070 2d a1 3e bf 39 1e 0c be 98 88 1f bf 7e a1 1b 3e
       -0.74464685 -0.13683404 -0.623178 0.15198323
000080 55 f0 b6 be 42 2f c9 be e6 5d c2 bf 6a 53 a2 be
       -0.35730234 -0.39293867 -1.5184906 -0.31704265
000090 0d 06 4a bf a8 2f be 3e a8 c2 13 3f 79 88 7e 3e
       -0.7891548 0.37145734 0.57718897 0.24856748
0000a0 86 2c 6f 3e 21 f3 5d be 8b 03 1a bf b3 d7 af be
       0.23356828 -0.21674778 -0.60161656 -0.34344253
0000b0 f5 df 0f bf f6 0b 25 be ef 19 f8 3e 60 9a 35 3e
       -0.56201106 -0.16117844 0.48457286 0.1773467
0000c0 4a 6d 1b bf 10 b8 55 bc f1 1a 22 3f 9e 47 0e 3f
       -0.60713637 -0.013044372 0.6332236 0.5557803
0000d0 96 9c 1d 3f 4b 01 10 3e 73 7e 0f 3f 9c dc a5 3d
       0.61567056 0.14062993 0.5605232 0.080987185
0000e0 2b 35 bc 3e 09 11 00 bf f7 16 5f bf 8c df 77 be
       0.36759314 -0.50025994 -0.87144417 -0.2420637
0000f0 ee 7d 9c 3e 86 87 a5 3e 43 78 b2 be a8 6f a5 3e
       0.30564827 0.3232996 -0.34857377 0.3231175
000100 2d b2 0c 3e 46 34 a3 bd 4b af 21 3f 5d 56 b2 bb
       0.13739844 -0.07968955 0.631581 -0.005442424
000110 b8 e8 1b 3f 2b f9 b5 3e fd 04 b3 be d5 39 44 be
       0.60901976 0.35541663 -0.34964743 -0.19162686
000120 67 74 87 bd ac 05 04 3f 0d 49 60 3f 35 ce e5 3e
       -0.06613999 0.51571155 0.87611467 0.44883886
000130 ee ce d3 3d bf 4b d8 be f7 4f 84 be a6 81 8b be
       0.10342203 -0.4224529 -0.25842258 -0.2724735
000140 7f 3e ad be 06 87 32 3f 0c f5 2e 3f 7c 52 10 bf
       -0.33836743 0.6973728 0.6834266 -0.5637586
000150 60 0a d2 3e b0 4b 80 3d e9 33 af be 9c af 8c be
       0.4102354 0.06264436 -0.34219292 -0.2747773
000160 2d 2a 95 3d 7c 42 82 be ea b5 18 3f ce 37 81 3e
       0.07283435 -0.2544135 0.5965258 0.25237888
000170 b9 8e 3a 3f 61 8e 1b be c1 b9 27 bf 4d cc 25 be
       0.7287403 -0.15191032 -0.6551781 -0.16191216
000180 33 d4 15 3f 65 6f ec bd aa 29 37 bf 1d d0 0d be
       0.58526915 -0.11544684 -0.7154795 -0.1384892
000190 6b f5 63 3f 2e 5e c8 3e 56 52 8d 3d 21 4f 82 3e
       0.89046353 0.39134353 0.0690047 0.25450996
0001a0 3f b6 86 be e0 5c a1 bd 77 f2 a1 bf 82 6a 05 bf
       -0.26310918 -0.078790426 -1.2652119 -0.52115643
0001b0 83 67 c6 be 81 a6 02 3b 9f ce 5d bd 89 46 6b bc
       -0.38750848 0.001993567 -0.054152127 -0.014360079
0001c0 d7 ff 87 be 2a 9a cd 3e e7 79 4e 3e cd 04 e8 be
       -0.26562378 0.4015668 0.2016369 -0.45316163
0001d0 24 e6 17 bf c7 80 a8 bd 89 fe f8 bc b4 17 b3 bd
       -0.5933554 -0.08227687 -0.03039481 -0.087447554
0001e0 12 7f 6b 3e c7 b6 5e 3e 6e 8f 40 3f 4a ea 66 3e
       0.22997692 0.21749412 0.75218856 0.22550312
0001f0 f2 a5 21 bf 39 84 07 bf ab 3f cc bc 7e ae bb be
       -0.6314384 -0.5293613 -0.024932703 -0.36656564
000200 f7 6e b9 be e8 b7 03 bf af b6 a8 bf 83 f3 52 be
       -0.36217472 -0.51452494 -1.3180751 -0.20600705
000210 b5 07 50 bf 15 53 e9 bd 5e 34 fc 3e d6 5a ca bd
       -0.8126176 -0.113928 0.49258703 -0.09880607
000220 27 3a c2 bd b5 c2 c0 3d 01 80 16 3f 3b 43 a7 3e
       -0.09483748 0.094121374 0.5878907 0.3266848
000230 28 02 2d 3f ee dc 60 3e 6c fd 72 3f 8c 18 35 3e
       0.67581415 0.21959278 0.9491794 0.17685145
000240 77 b9 69 bf 57 d4 73 be 34 7b 4d 3e e7 a3 e9 bc
       -0.9129862 -0.2381147 0.2006653 -0.028520538
000250 39 69 97 be dd 31 f1 be dd 10 91 bf 23 9e b2 be
       -0.29572466 -0.47108355 -1.1333271 -0.34886274
000260 fa 16 37 3e bb 75 c7 3e 90 91 26 3e d0 a4 f3 be
       0.17879859 0.3895701 0.16266465 -0.4758668
000270 2e b0 9f 3e 8a 52 c8 be f0 7b d8 bd 1c 9a 4f be
       0.31189102 -0.39125472 -0.10570514 -0.20273632
000280 a8 da 5b 3d cf cc a6 be fa 0f 72 bf ab 14 8b be
       0.053675324 -0.32578132 -0.9455563 -0.27164206
000290 8c c6 8a be 46 b4 aa bc 8b 71 29 be 41 e6 62 3e
       -0.27104604 -0.020837914 -0.1654722 0.22158147
0002a0 4a 93 5d bf c0 41 38 be 00 18 6a 3e 30 25 10 be
       -0.8655287 -0.17993832 0.22860718 -0.14076686
0002b0 3e 9f ab 3e 2f 88 88 3e 86 95 a7 be 79 24 2e 3e
       0.3351993 0.266664 -0.32731265 0.170061
0002c0 57 2f 98 3e c6 d3 37 be 82 0a 4f be e2 a9 00 bf
       0.29723617 -0.17951879 -0.20218852 -0.5025922
0002d0 63 fa 05 3d d6 76 2a 3e 8f c9 82 3f 7f 53 35 3e
       0.03270949 0.16646895 1.0217761 0.17707632
0002e0 58 c2 6d 3e 5b e5 c4 bd 24 f4 05 bf 72 a5 c8 bc
       0.23218668 -0.096140586 -0.52325654 -0.024492953
0002f0 89 2c 64 bf bc eb 8c 3e 3a 07 2f 3f 45 d1 3c 3e
       -0.89130455 0.275236 0.683704 0.18439205
000300 83 c2 a4 be de 0d 09 3e 8a 04 93 bf fe d8 02 bf
       -0.3217965 0.13384196 -1.148576 -0.51112354
000310 d3 42 26 bf 13 e1 ba bd ec 08 b8 bf be 50 28 be
       -0.64945716 -0.09124961 -1.4377723 -0.1643705
000320 1b a3 83 3e 98 9c b5 3d 64 d1 5c bf fe 91 c0 be
       0.25710377 0.088677585 -0.86257005 -0.37611383
000330 5f 85 18 bf 78 38 fd 3e 18 16 30 3e bc 1e ae 3e
       -0.5957851 0.49457145 0.17195928 0.34007823
000340 f5 c0 94 3e 72 e6 24 3e aa 99 8d bd f6 89 97 bd
       0.29053465 0.16103533 -0.06914075 -0.07399361
000350 45 24 5a bd e4 b8 81 be 29 d0 1f be 0f 00 44 3c
       -0.053257246 -0.25336373 -0.1560675 0.011962905
000360 65 48 e9 be c4 8d ef be 9b 22 c5 be 27 0e db be
       -0.45563045 -0.46787846 -0.38502964 -0.42784235
000370 ca c5 4c 3c c4 c5 18 3f 41 f6 5e bd e1 ba 98 3d
       0.012498328 0.59676766 -0.054434065 0.07457519
000380 97 0e 90 be 87 e3 29 3e 62 4a 26 bf 36 ca 84 be
       -0.2813613 0.16590701 -0.6495725 -0.25935525
000390 2b b5 03 bf 2f 9b 4b bd b3 2b cd 3b 19 ad 95 3b
       -0.51448315 -0.04970854 0.006261313 0.004567754
0003a0 66 83 fb 3c 1d c4 51 3e a8 d1 c7 3e 6f 07 14 be
       0.030702304 0.20484968 0.39027143 -0.1445596
0003b0 3d 67 84 3e 07 8b d8 be cd c4 0d bf 04 a2 03 bd
       0.25860015 -0.4229357 -0.5537842 -0.032136932
0003c0 9e 79 24 3f 8f a7 d0 3e c3 3f 4b 3f 44 48 8f 3e
       0.64248073 0.40752837 0.7939417 0.27984822
0003d0 f9 6d 3c 3e 49 10 57 bf 5f c9 ee 3e 3b e3 06 bf
       0.18401326 -0.84009224 0.4663801 -0.52690476
0003e0 d8 16 df bd d9 be 54 be e1 a7 f7 be 4d 44 75 bc
       -0.10893029 -0.20775928 -0.4837027 -0.014969897
0003f0 5c 38 e0 3e 2a 44 be be eb 53 3b bf b6 e0 f8 bd
       0.43793 -0.3716138 -0.73174924 -0.12152235

fc0.bias f4 [128]
000000 c5 09 04 bd 63 6e 7e be 14 32 22 bc ca 73 6e 3e
       -0.03223588 -0.24846797 -0.009899635 0.23286358
000010 99 f7 ea bd a9 f6 42 3c af 0e 6f 3e 1c b7 f3 3c
       -0.11473007 0.011899629 0.23345445 0.0297504
000020 7b a1 da 3d cd 9c 82 bd f7 8e 47 3e 18 dc cd be
       0.10675331 -0.063775636 0.1948813 -0.4020698
000030 de 7d 4c be 55 e0 91 bd 05 e6 b0 3e 31 64 1c 3d
       -0.1996989 -0.07122866 0.3455049 0.038181487
000040 28 9a a6 3d 41 f0 4f bd 27 f9 dc 3e bb a6 ef 3e
       0.08134872 -0.050766233 0.43158838 0.46806893
000050 63 88 6a be ff 4f 61 be 6f 36 e0 be 9f c1 dc 3d
       -0.2290359 -0.22003172 -0.4379153 0.10779118
000060 79 2f 86 be ef db e1 bd e6 98 b1 bc 65 01 14 3e
       -0.26208094 -0.11028277 -0.021679353 0.14453657
000070 97 59 1e bd c7 06 59 bd 00 05 61 3d 02 b5 ad bd
       -0.03865966 -0.05298498 0.05493641 -0.0848179
000080 89 97 4f 3d d1 e7 52 3e 0b bb cb be e0 ac 43 3e
       0.050681625 0.20596243 -0.3979114 0.19108915
000090 a7 33 d0 bc 4f 17 dc 3e 46 70 ef be d2 6a f5 be
       -0.025415255 0.42986533 -0.46765345 -0.4793306
0000a0 b8 7f 07 3f e7 40 e0 be 64 e2 12 3e 58 08 a5 3b
       0.5292926 -0.43799517 0.14344174 0.005036395
0000b0 dd 6d 72 be 52 e0 f2 bd 26 31 8d 3e 39 d0 9b bd
       -0.23674722 -0.11859192 0.2757656 -0.07608075
0000c0 ef 47 cf be 02 8f 96 3d eb e3 9e be 8d 35 ad 3e
       -0.40484568 0.07351495 -0.31033263 0.33829919
0000d0 ab 99 b0 be 67 f1 95 3e 8b b3 3e bd 36 28 9f 3d
       -0.3449224 0.29285738 -0.046557944 0.077713415
0000e0 46 27 89 3e b7 9f 37 3e b0 41 ba 3e ca da 6a 3e
       0.26787776 0.1793202 0.3637824 0.22935024
0000f0 ad 86 02 3d ee 42 6e 3b cb 5c 01 be e6 4a ad 3e
       0.031866718 0.0036355811 -0.12633054 0.33846205
000100 4a c5 92 be 4e 0b 99 be 0e bc 69 3d d2 88 7c 3e
       -0.28666145 -0.29891437 0.05706411 0.24661568
000110 7c 76 61 be 4b 5b 75 be 3b 4f 92 be 46 18 ea 3d
       -0.22017854 -0.23960607 -0.28576073 0.11430411
000120 f5 2d 18 be a8 b6 70 be 7c 2f 55 3c c1 dc 25 bd
       -0.14861281 -0.23507178 0.013011809 -0.04049373
000130 88 5a 96 3e 4f 0c 33 3e 93 41 ed bb f0 11 f0 be
       0.29365945 0.17485164 -0.007240483 -0.46888685
000140 d8 53 e7 be 3c a5 d1 3e e7 d5 37 3e 1c 79 45 3d
       -0.45181155 0.40946376 0.17952691 0.048211202
000150 32 8b 48 be 2b b9 bc 3e 03 dd d1 3e cf 24 94 3e
       -0.19584349 0.36860022 0.4098893 0.28934333
000160 30 f5 d7 be c7 2d 5a be 62 68 0c be 36 6d 99 3e
       -0.4217925 -0.21306525 -0.13711694 0.29966134
000170 4c 44 a6 be ca cc b9 bd b0 0f 99 3e f5 0f 4e be
       -0.3247398 -0.090722635 0.2989478 -0.20123275
000180 97 4f 8d be f2 79 32 3d 48 c9 d5 3d e0 8b 09 bf
       -0.27599785 0.043573327 0.10438782 -0.5372906
000190 83 a5 46 3e 8a ec 6a be f2 90 2d 3d 55 13 d6 3e
       0.19399075 -0.22941795 0.04237456 0.41811624
0001a0 c1 a5 dd 3d 60 50 9f 3d 5f 92 b6 3e f7 ae 6c 3d
       0.10822631 0.07779002 0.35658547 0.057784047
0001b0 89 89 59 be 88 1d e1 3e bb 49 3f 3e db ac 0a bf
       -0.21243872 0.43967843 0.1868047 -0.54170007
0001c0 a1 65 20 be 16 86 c4 bd 9c bb a9 3e 66 ea 36 bc
       -0.15663768 -0.09595887 0.33150947 -0.011164283
0001d0 81 c9 f5 be 9c ba 6a 3c b5 89 33 3e af 10 01 3e
       -0.48005298 0.014326718 0.17533 0.1260402
0001e0 7d 47 05 3e 77 2e 86 3d ee b7 a9 3d 83 fe f3 bd
       0.13015552 0.06551831 0.08287035 -0.11913779
0001f0 f6 c5 25 be 72 5a b8 be f4 2c a2 be b7 40 62 3e
       -0.16188797 -0.36006504 -0.31674922 0.22094999

fc1.weight f4 [128, 128]
000000 d5 16 15 be 69 25 7b 3e e3 a3 a7 3c 1e 13 a2 3d
       -0.14559491 0.2452599 0.02046389 0.079138026
000010 e0 2c b3 bd 4d 24 1d 3e 8e 3c 8b bd c6 26 0e 3e
       -0.087487936 0.15345879 -0.06798659 0.13881978
000020 2b 20 28 3e 11 a2 b7 3e fb 57 16 3e 19 28 3b 3d
       0.16418521 0.35865834 0.14682 0.045692537
000030 86 56 a2 3e ae 73 94 bd 1b 8f 3f be 97 62 5d bd
       0.31706637 -0.07248627 -0.18706934 -0.0540491
000040 25 cc 97 bc a5 4d 41 bc 68 e5 47 be c6 59 f8 bb
       -0.01852996 -0.011798297 -0.19521105 -0.007579061
000050 13 e9 a1 be 42 9b 17 3d 8c 23 48 3e 78 6d 0d be
       -0.31623134 0.0370133 0.1954481 -0.1381129
000060 e9 02 9e bb a3 d4 ec 3d 0f d2 b5 3e e1 de 99 3d
       -0.0048221243 0.11563995 0.35511824 0.07513214
000070 87 59 c2 bd 3e 1a 97 3e 6d 81 00 be 1c bf 2f 3d
       -0.09489732 0.2951221 -0.12549372 0.042906865
000080 7b c6 c1 3d 73 8e 91 3d 29 5b 47 3e 30 83 ab bd
       0.09461685 0.07107248 0.19468369 -0.083746314
000090 bc 3b 60 3e 70 eb 7e 3c 65 2f 39 ba 78 ea c3 bc
       0.21897787 0.015559062 -0.0007064252 -0.023915514
0000a0 69 1c 2a 3c 8a 7c f2 3d b8 2b d2 3d 13 06 db bd
       0.01038275 0.1184016 0.10262245 -0.10694518
0000b0 a5 1e bc 3c 96 2a 8f 3e 83 2c 52 be d6 08 66 3d
       0.022963831 0.27962178 -0.20524792 0.05616077
0000c0 59 88 ae 3e 73 1c a8 3e a9 94 0c be bc ec fd bd
       0.340884 0.32834205 -0.13728584 -0.12398669
0000d0 7f 67 3e 3e fc af 6d 3c c8 1f 3d 3e 14 14 9c be
       0.18594168 0.01450729 0.18469155 -0.30484068
0000e0 52 61 0f 3e ad c1 76 bd 75 75 0b be 69 1a e7 bd
       0.14001969 -0.060243297 -0.13619025 -0.11284334
0000f0 e7 e0 b8 bd d6 fd a1 bd cd 0a 91 3d a6 b8 48 be
       -0.09027272 -0.079097435 0.07082138 -0.19601688
000100 32 39 b7 3d bd 87 bf 3e 6f c8 d2 bd 51 e1 6e bd
       0.08946456 0.37408248 -0.10292136 -0.058320347
000110 c8 99 ac 3d d3 fe b2 3d 13 1d a4 3c 13 e3 54 be
       0.08427769 0.0874001 0.020033395 -0.20789747
000120 b8 a8 35 be f1 7b b9 3c 8a 89 03 bd a2 c4 fd 3d
       -0.17740142 0.022642108 -0.03211359 0.1239102
000130 4d a3 86 bd 1b f7 03 be 8d 18 96 3d c6 87 8b 3d
       -0.06574116 -0.12887232 0.073289014 0.06813006
000140 4f cf 92 3d b6 eb 77 be 39 22 94 3d ea 47 59 be
       0.07168447 -0.2421101 0.0723309 -0.2121884
000150 bd 38 67 3e f3 58 14 bd e3 4c 63 bc 88 12 91 bd
       0.22580238 -0.03621764 -0.013873312 -0.07083613
000160 7e 1b 5b 3d fa 92 2f bd 26 91 8f 3d b7 78 55 bd
       0.053493015 -0.042864777 0.07010107 -0.052117076
000170 77 1f 8d 3d 20 e6 0a 3f ef 2f 62 be b7 4f 44 3e
       0.06890767 0.5425739 -0.22088598 0.19171034
000180 58 2c a4 3e f2 d5 60 be 7c b0 f4 3d 68 ec 9d 3d
       0.32065082 -0.21956614 0.11947724 0.077111065
000190 d7 24 41 be da d4 d2 3d 29 f6 11 3e 1e 99 85 be
       -0.1886171 0.102945045 0.14254059 -0.26093382
0001a0 d4 f0 31 3d d0 bd 8d 3d 30 89 aa bd c0 61 7b 3d
       0.043442562 0.069209695 -0.08326948 0.06137252
0001b0 b4 f9 fe 3d f8 84 0b be c2 aa 2a bc 96 e8 f4 3c
       0.12449971 -0.13624942 -0.010416688 0.029896062
0001c0 be 28 b4 3d bb 37 21 3e de 27 04 be 43 2c 91 3e
       0.087968335 0.15743916 -0.12905833 0.28354082
0001d0 b9 4e df bd 60 94 d7 3d 6c 01 3a be 25 84 5b 3c
       -0.10903687 0.10526347 -0.18164605 0.013398205
0001e0 dc fb 3c 3c eb de 60 3e 66 87 ed bd 0f 11 bb 3d
       0.011534657 0.21960036 -0.11598091 0.09134113
0001f0 86 33 4a 3e 30 14 7c be fb c7 b4 3d 9b 8f 56 3d
       0.19746217 -0.24617076 0.08827206 0.052383047
000200 9e 1e ab bd a5 be f8 3d 23 03 2a 3d bb f1 86 be
       -0.08355449 0.121457376 0.041506898 -0.263563
000210 79 42 25 be a5 b4 5f 3e 8f 5b 3b 3d 3c 86 87 bd
       -0.16138639 0.21846254 0.045741614 -0.066174
000220 16 c0 8e be 08 e1 33 be 69 57 29 be 73 dd 33 be
       -0.27880925 -0.17566311 -0.1653725 -0.17564945
000230 76 b5 30 3d 27 25 32 be bc e3 88 bd df 54 59 3d
       0.043141805 -0.17396985 -0.06684062 0.053059455
000240 0d 47 88 bd e6 ae 99 bd 71 11 f1 3d e0 93 17 be
       -0.06654177 -0.07504062 0.11770905 -0.14802504
000250 90 5c 3a 3d 04 10 51 be 44 5f 81 bd f4 28 0d be
       0.04549843 -0.20416266 -0.063169986 -0.13785154
000260 6d 5e db bc cd b6 8b be f3 47 12 be a4 2e 33 bb
       -0.026778424 -0.27287903 -0.14285259 -0.0027341032
000270 07 ff 8a 3d ab d9 a5 be 21 cd 25 3d 22 82 e3 bd
       0.06786924 -0.3239263 0.04047883 -0.11108805
000280 e8 a3 91 bd ef a9 30 bd f9 da 9e bd 4c d3 12 bd
       -0.07111341 -0.04313081 -0.077566095 -0.03584604
000290 b7 0f 62 bd d7 40 b1 bd 2e f7 15 bd 20 b7 51 bd
       -0.055190768 -0.08654945 -0.036612682 -0.051200032
0002a0 1b cd ce bc af cf 0a bd aa de ba bd e2 ab 4f 3d
       -0.025244286 -0.03388947 -0.09124501 0.05070103
0002b0 d0 6d c7 bd 8d 5d 98 be 73 4f 16 3d 4a 06 f0 3d
       -0.09737742 -0.29758874 0.036696862 0.117199495
0002c0 9e d9 9f be e4 3c a8 be fa 25 4a bd f3 42 2f 3e
       -0.31220716 -0.32858956 -0.049352624 0.17115383
0002d0 2d 27 36 be 24 d9 e0 3c e8 95 9b 3d 31 a6 4b 3d
       -0.17788382 0.02744729 0.07596952 0.04971904
0002e0 3f df 15 3c f5 de 2a 3c 2e fa 71 3d 2d ac 7f bd
       0.009147464 0.010429134 0.05907648 -0.06242006
0002f0 d5 16 a2 bd 55 d2 a1 3e f6 5f 2f 3e ef d9 09 bd
       -0.07914511 0.31605783 0.1712645 -0.033655103
000300 29 82 35 be 45 76 8d be 18 ac 97 bd 3f 5a b2 3c
       -0.17725433 -0.27629295 -0.07405871 0.021771548
000310 42 36 3b be 77 2f 2a 3d 1c 85 ab 3d 44 18 92 3e
       -0.18282416 0.041549172 0.08374998 0.28534138
000320 70 63 90 3e 18 90 0e be 1f c8 0c be 6f bf cb bc
       0.28200865 -0.13922155 -0.13748215 -0.024871556
000330 ea bf d0 3c 54 10 09 bd 3e e1 88 3e 87 94 85 3d
       0.025482137 -0.033462837 0.26734346 0.0652247
000340 90 48 85 3b aa 86 f2 3d d1 2a 87 be 2a fe 9c 3d
       0.004067488 0.118420914 -0.26399854 0.076656654
000350 46 6b b3 be 94 37 f7 bc 20 14 30 3e 27 4a b6 3b
       -0.3504278 -0.030177869 0.17195177 0.005563039
000360 80 bd b9 3a ab 10 4d bd ef a2 1a bd 92 92 29 bd
       0.0014170855 -0.050064724 -0.03775304 -0.041399546
000370 54 70 b9 bc d8 8a cb be b5 72 26 3e 8c 1f 4a bb
       -0.02263657 -0.39754367 0.16254695 -0.0030841557
000380 4d d8 8c be 52 a0 1f 3d 0e 6d eb bd c3 2d dc bd
       -0.27508774 0.038971253 -0.1149541 -0.10750916
000390 46 6c 49 3d e4 cb 8d 3d f4 29 ba 3d 5f 35 9a bc
       0.049175523 0.06923655 0.09090033 -0.018824277
0003a0 52 49 2b bd e0 85 a7 bc ee 06 c1 bd 10 85 99 3d
       -0.04181797 -0.020449579 -0.0942515 0.07496083
0003b0 4e 58 84 be 88 7b bc 3c 30 47 59 be 00 99 b4 bb
       -0.2584862 0.023008123 -0.21218562 -0.005511403
0003c0 3d 23 47 bc 13 10 7f be 0f 0c 5e bd 39 74 7f be
       -0.012154398 -0.24908476 -0.05421072 -0.24946679
0003d0 32 60 76 bd 62 e2 b4 3d f7 d3 cd bc 94 60 8a 3d
       -0.060150333 0.088322416 -0.025125487 0.06756702
0003e0 71 29 e1 bd 43 ce 2d 3e 01 69 42 bd 28 2c 99 3d
       -0.109942324 0.16973214 -0.04746342 0.07479125
0003f0 ea 57 8e 3d c2 b5 7e 3d 2a 1b 7b be a0 77 1c 3e
       0.06950362 0.062185057 -0.24522081 0.15280008

fc1.bias f4 [128]
000000 3f bd 0c be 52 b9 f0 3d cb 1d b0 bd 3b 86 75 bc
       -0.13744067 0.11754097 -0.085994326 -0.014985616
000010 f3 50 90 bc ad c7 f2 bd dc 3a c5 bc 6a 95 01 3d
       -0.017616725 -0.118544914 -0.024075918 0.031636633
000020 23 54 68 3d 5f 5d 3d bd 7b 15 f6 3c 03 d9 6d bd
       0.056720864 -0.046231624 0.03003954 -0.058068287
000030 2a fd 1f 3e 2c eb 57 bd cb bb 0c 3b 4f 1a c6 bd
       0.15623918 -0.05271451 0.0021474238 -0.09672987
000040 76 3f b4 bc 0f 4b 48 bd 02 05 55 bd 64 90 fd 3b
       -0.022002917 -0.048899706 -0.05200673 0.00773816
000050 e8 ff 2d bd b6 24 b9 bd 74 67 62 bd 94 83 e2 bd
       -0.04248038 -0.09040205 -0.05527444 -0.11060253
000060 43 6c 47 bd df bd e8 3d 05 9b fd bc 20 3a 66 3e
       -0.04868723 0.1136434 -0.030957708 0.2248311
000070 ad 02 07 bc 18 3e 86 bd 25 ee 55 bd 7e b5 a3 3b
       -0.008240384 -0.06554812 -0.052229065 0.004996001
000080 e1 70 f3 3d 32 11 b8 bc 8a b1 8e 3d d6 66 0d bc
       0.11886764 -0.022469137 0.06967457 -0.008630475
000090 1c f7 ae bd 6e 65 bc 3d 33 e8 b6 bd 8c ff 03 3e
       -0.08543226 0.09199034 -0.08931007 0.12890452
0000a0 46 77 3e bd 89 2d 85 bd 3a d5 d8 bc 37 eb d6 bc
       -0.046500467 -0.06502826 -0.026468862 -0.026235206
0000b0 54 91 a8 3d 3e 5f c3 3c 6c 06 b7 bc 56 c0 bc bd
       0.08230844 0.023849126 -0.02234193 -0.09216373
0000c0 30 93 c4 bd 9e 51 54 bb bf e5 40 3d f4 bc 73 bd
       -0.09598386 -0.003239728 0.047094103 -0.05950637
0000d0 a1 12 17 bd a2 71 3a 3d 7b c2 2b 3e a5 6c b7 bd
       -0.036883 0.045518525 0.16773407 -0.08956269
0000e0 e0 b2 27 bb e2 24 2f 3c 46 0b 62 bd a1 a8 7b bc
       -0.0025588796 0.010689946 -0.055186532 -0.0153600285
0000f0 4e a6 05 be 72 c0 59 bc 54 44 49 bd 28 b6 e8 3c
       -0.13051721 -0.013290511 -0.04913743 0.028407171
000100 c9 75 8d bd dc 87 00 3d 80 46 a0 bd 9a 24 85 3d
       -0.06907231 0.031379566 -0.07825947 0.06501122
000110 9b 48 a5 3b 1c 09 03 3d 8e aa 88 bc d0 c4 65 bc
       0.0050440556 0.03199111 -0.01668289 -0.014023975
000120 7e a3 9a 3d 59 86 fa 3c fb 19 f0 bd 5f 00 4d 3d
       0.07550715 0.03058164 -0.117237054 0.050049182
000130 63 72 9c 3d 4d 77 4f 3c b8 e7 44 bd 88 08 58 bd
       0.07639005 0.012662721 -0.048072547 -0.05274251
000140 ae c9 07 bd de 0b ca 3d 64 b5 23 bd ae 3e af bd
       -0.03315132 0.09865545 -0.03996791 -0.08556877
000150 d1 a3 93 3d 1a b9 ec 3d 32 4e bd bd 7e bb 9b bc
       0.0720898 0.11558743 -0.0924343 -0.019010302
000160 af af 5d ba 13 ac 88 bd 28 c4 05 be 9e 03 30 bd
       -0.000845666 -0.066734456 -0.13063109 -0.0429722
000170 bc 04 26 bd 7f cb 4f 3c 50 0a ed bd e0 d6 a5 bb
       -0.04053186 0.012682795 -0.115742326 -0.0050610155
000180 79 d5 58 bd 9e 9f 8c bc 52 d5 ad bd ec 31 cb 3d
       -0.05293796 -0.017165955 -0.08487953 0.09921631
000190 e1 d0 c5 bb 6b 07 9f bc 1b 6f 06 bd 9a fd 0e 3e
       -0.006036863 -0.019412717 -0.032820802 0.13963929
0001a0 3f fe a8 3c 50 df 25 bd 34 e0 dc bd 3d 2a 36 3d
       0.020629046 -0.04049617 -0.10784951 0.044473875
0001b0 c0 75 bc bd 51 88 79 3d a0 31 53 bd e0 fa c3 bd
       -0.092021465 0.060921017 -0.051560998 -0.09569335
0001c0 51 77 16 bd b0 f0 09 bd 04 7f 83 38 12 0d 00 3e
       -0.036734883 -0.033676803 6.270225e-05 0.12504986
0001d0 09 02 84 bd a3 55 85 bd fe 5f 71 3d 21 0d b5 bc
       -0.06445701 -0.065104745 0.058929436 -0.022100987
0001e0 50 f9 8c 3d cf f6 ac 3d 42 cb f5 bd d3 78 9e 3d
       0.0688349 0.084455125 -0.12001659 0.07737889
0001f0 26 5e 83 3d 3e a5 d1 bc 13 c9 03 3d 64 7c a4 bd
       0.06414442 -0.025591489 0.03217418 -0.08031538

l_action0.weight f4 [101, 128]
000000 1d ea 6d bc 54 4f 03 bf 2c 4c 58 be 00 0a 36 be
       -0.014521149 -0.5129292 -0.21122807 -0.17777252
000010 6a af 8e be 43 0d e8 bd dc 42 2f be e3 5f 3c be
       -0.27868205 -0.113306545 -0.17115349 -0.18395953
000020 ff c5 6d bd 0e 82 4c bd aa b7 1b 3d d4 d3 9e 3d
       -0.058050152 -0.049928717 0.038016953 0.07755247
000030 bd 04 81 be b6 0d 29 3d 2a 75 9d 3d 92 5a a9 bd
       -0.25198928 0.04127284 0.07688363 -0.08269228
000040 31 2c 0e 3d c0 63 04 bd fb d3 a0 3b 2e 07 3c bf
       0.034710113 -0.03232169 0.0049080825 -0.73448455
000050 f1 ac b7 bd c0 11 98 be e4 bd 81 3c b5 d8 cd bc
       -0.08968533 -0.29701042 0.015837617 -0.025127748
000060 3d fa 59 be 7e a0 7f be ca 3c 9f 3c 7a ac f6 bf
       -0.21286865 -0.24963567 0.019438166 -1.9271386
000070 da da ad bd 62 41 1d bd 72 61 b5 bb c1 bb 81 3d
       -0.08489008 -0.038392432 -0.005535298 0.06334639
000080 f2 92 04 c0 46 a7 24 bc fe 62 0c be d0 19 8b bd
       -2.0714688 -0.010049647 -0.13709638 -0.06792033
000090 b2 41 b1 3c 16 41 16 be 5e 67 3e be 43 9e b7 be
       0.021637771 -0.14673266 -0.18594119 -0.35862932
0000a0 c7 72 1d be 60 48 94 3d bf a0 11 bf f4 03 75 3d
       -0.15375815 0.07240367 -0.56885904 0.059818223
0000b0 87 ee 48 bf f7 58 37 bd 6d b2 87 3c 53 50 18 be
       -0.78488964 -0.044762578 0.016564572 -0.14874391
0000c0 b4 14 a3 3c 91 aa 7f be 68 aa 0a be 9a 18 65 be
       0.019907333 -0.2496741 -0.13541567 -0.22372666
0000d0 d9 84 4d bc a3 4a bf bd ec 06 3a bf fc d7 2b bd
       -0.01254388 -0.09340408 -0.7266681 -0.041954026
0000e0 9a 1f 05 bf f1 e0 47 be f6 78 3e bd 3a 39 6d bd
       -0.52001345 -0.19519402 -0.046502076 -0.057915904
0000f0 72 28 e9 bb 25 80 ce bd f9 bf 6d bd dd 4b 26 bf
       -0.007115417 -0.100830354 -0.058044408 -0.6495951
000100 a6 87 ec bc a4 b0 bb bd 22 96 58 be e1 e9 20 be
       -0.028873276 -0.09164551 -0.21151021 -0.15714218
000110 ca 59 ea be ec dd 11 be 7a 44 67 be 24 ab 8d bd
       -0.4577163 -0.14244813 -0.22584715 -0.06917408
000120 4f d9 e3 be 9d be 54 bd b6 e4 72 3d 8c be 67 bd
       -0.4450173 -0.051939595 0.059300147 -0.056578204
000130 1b a3 d8 bf 1e 45 d1 3c 33 a2 20 be 20 83 6e 3c
       -1.6924776 0.025545653 -0.15686874 0.01455763
000140 ec dc 1b be 17 fa e9 bd 0a 78 f1 bd 83 e7 96 3d
       -0.15220994 -0.11424654 -0.11790474 0.07368376
000150 c9 8a be bf 96 4c 50 bf f3 90 0e 3d 82 61 9c 3c
       -1.4886104 -0.8136686 0.034806203 0.019089464
000160 e6 4f 4c be 04 9a 1e be c2 60 27 be e7 a8 62 bd
       -0.19952354 -0.1548844 -0.16345504 -0.05533686
000170 8f 15 5f be c5 dc da bd 8e ef ae bd dc ba 19 be
       -0.21785568 -0.1068664 -0.08541785 -0.15012687
000180 94 73 66 3c 44 11 8c bd 36 c1 9f bd 2e d9 3d bf
       0.014065642 -0.06839231 -0.07800524 -0.74159515
000190 01 4f 22 be 31 4a 5a be e8 62 14 c0 e8 b4 19 c0
       -0.1585045 -0.21317364 -2.3185368 -2.4016666
0001a0 be 5f 01 bf 55 c9 09 be 5b d0 5a 3d 02 99 6d 3d
       -0.50536716 -0.13455708 0.05342136 0.058007248
0001b0 38 86 a0 bc 2d ce 95 be e6 fc 82 3d 3e 81 47 3d
       -0.01959525 -0.29258862 0.06395893 0.04870724
0001c0 1a 5d 0d bf 0f dc 5a be 59 c0 38 be c0 26 d3 be
       -0.55220187 -0.21373008 -0.18042125 -0.412405
0001d0 95 0e 00 be d7 bd 32 bc 0b 00 a5 bc bf 7c 2e be
       -0.12505563 -0.010909519 -0.020141622 -0.17039774
0001e0 5f ef a8 be ff 99 25 bf d1 0b 7e 3c ae 41 f9 bf
       -0.32995126 -0.64688104 0.015505747 -1.9473169
0001f0 cc bd 67 be 45 b5 62 be 31 94 02 bf 1a 7b a2 3c
       -0.22630996 -0.22139461 -0.5100737 0.01983409
000200 da 30 d4 bd c7 21 f0 be 1c 01 32 be ea 45 10 be
       -0.1036088 -0.4690077 -0.17383236 -0.1408917
000210 a2 f2 8c be 0b 31 03 be d8 6c c8 bd 19 71 0c be
       -0.27528864 -0.12811677 -0.09786385 -0.13715018
000220 a8 a1 98 bd ab 20 15 be 9d c0 4f 3c d9 b0 c1 bb
       -0.074527085 -0.14563243 0.0126802 -0.0059109745
000230 05 22 60 be 7f 2d 5b bd e9 84 85 3d 4c 1a 4e bd
       -0.21887977 -0.053510185 0.06519491 -0.050318047
000240 3c a6 39 3d 1b 17 a5 bd ab 2b 1d bd 9b 69 38 bf
       0.04532455 -0.08061048 -0.038371723 -0.7203614
000250 90 96 37 bd cd f6 c9 be 48 27 a6 3c fc d4 b0 3d
       -0.044821322 -0.39446107 0.020282403 0.086343735
000260 b0 84 c5 bd 3e 5e 81 be 48 42 1e bc cc 65 fa bf
       -0.09644449 -0.25267214 -0.009659357 -1.9562316
000270 1e af 18 be 22 ae 48 bd 25 f7 8c 3c e4 6e 09 bd
       -0.14910552 -0.04899419 0.017207691 -0.03355302
000280 63 db a7 bf 76 5b 4b 3c eb 7c 91 bd 7d 15 f7 bd
       -1.3113827 0.012411943 -0.07103904 -0.120646454
000290 d9 d9 b4 3d 57 36 79 be f9 00 d1 bc 45 5e e0 be
       0.08830614 -0.24337135 -0.02551316 -0.43821922
0002a0 32 a9 68 bc 58 68 bd 3b 13 13 1d bf 1d 32 98 bd
       -0.014200496 0.005780261 -0.6135723 -0.07431433
0002b0 04 47 23 c0 43 8a 87 3b c2 25 90 bd b7 83 c0 bd
       -2.5512094 0.004136355 -0.07038452 -0.094001226
0002c0 40 55 07 bd e0 6a 72 be 75 1e 3d be a5 ec e0 bd
       -0.033040285 -0.23673582 -0.1846865 -0.10982636
0002d0 0b 82 30 3d f6 ac 10 be 6c 43 49 bf 34 6b 09 3d
       0.04309277 -0.1412848 -0.786185 0.033549502
0002e0 ae 85 31 bf 23 1e bb bd 86 aa e3 bc 37 30 8b 3a
       -0.69344604 -0.091366075 -0.027791273 0.0010619228
0002f0 f3 9f 9c 3d 22 b9 31 be e4 68 47 bd 8c 84 51 bf
       0.076476954 -0.17355779 -0.048684016 -0.81842875
000300 38 d3 b0 bd 9f 70 1f bd 66 0c 20 be df a9 2d be
       -0.08634037 -0.038925763 -0.1562973 -0.16959332
000310 1a be d3 be d0 19 3f be 07 e6 e0 bd 18 72 ac 3c
       -0.41355973 -0.1866219 -0.10981374 0.021050498
000320 47 66 ea be 4e a9 0b 3d 73 e4 01 bd ae e5 f0 bc
       -0.45781156 0.03409701 -0.031712007 -0.029406395
000330 8f 24 83 bf d5 0a a6 3d 86 37 52 be 31 d3 8d 3d
       -1.0245532 0.08107535 -0.20528993 0.06925047
000340 13 69 18 be a2 cf f1 bd ff 6d 32 bd 4a 35 17 3d
       -0.14883833 -0.11807181 -0.04356193 0.036916055
000350 d5 ac ad bf b0 a3 5a bf d5 c1 3f 3d fb 06 c2 bd
       -1.3568369 -0.8540602 0.046815712 -0.09473988
000360 cf 67 1c be 9c 98 9b be e6 fb 7d be b6 05 b7 bc
       -0.15273975 -0.3038987 -0.24803123 -0.02234159
000370 2c 40 18 be 47 d5 38 bd 71 70 c9 bb fc f8 04 be
       -0.1486823 -0.045125272 -0.0061474373 -0.12985605
000380 54 43 2b bd cc 3d fb bd 24 c9 30 be 3b b2 43 bf
       -0.041812256 -0.12267646 -0.17264229 -0.76443833
000390 3b 06 6f be fc 46 1e be aa c8 a4 bf 30 59 02 c0
       -0.2334222 -0.15456766 -1.2873738 -2.0366936
0003a0 84 99 0b bf 90 6d 26 be 63 83 db 3c b0 81 92 bd
       -0.5453112 -0.16252732 0.026796049 -0.07153642
0003b0 ae e2 9b bd 98 5d 36 be 4f b3 0f bd 47 82 9a 3d
       -0.07611595 -0.1780914 -0.03508311 0.0754438
0003c0 83 6f 8f be 29 5d 04 be 56 2a 2e be 23 89 a8 be
       -0.28014764 -0.12926163 -0.17008337 -0.32917127
0003d0 4c dc a3 bd d7 e1 d2 3b 32 53 b2 bd 2c 74 9f be
       -0.08001003 0.0064356136 -0.087072745 -0.3114332
0003e0 1d f5 56 be 92 50 8e bf f5 e2 06 bd 8d 2b b2 bf
       -0.20991941 -1.1118338 -0.032931287 -1.3919541
0003f0 f7 4c fb bd 79 dc 1f be 9f d8 db be bc 60 b3 bd
       -0.12270539 -0.15611447 -0.42938706 -0.08758685

l_action0.bias f4 [101]
000000 e3 a0 77 bd 2a 2a a2 be 6d ba a2 be 07 57 94 be
       -0.060456168 -0.31672794 -0.31782857 -0.28972647
000010 32 60 c7 be 4e b6 40 be e5 92 9f be e5 71 93 be
       -0.3894058 -0.18819544 -0.3116676 -0.28797832
000020 fe 68 80 be ff 39 45 be fb 6a 8b be 87 66 93 be
       -0.25080103 -0.19260405 -0.27230057 -0.2878916
000030 5b cd 9c be cf c5 87 be f8 34 54 be 0e 7f 00 be
       -0.30625424 -0.26518103 -0.20723331 -0.12548468
000040 d5 e2 0f be ee 2c 5a be 3e e2 76 be 18 5a 91 be
       -0.14051373 -0.21306202 -0.24109742 -0.2838905
000050 16 50 42 be 60 d6 92 be 7e ac 10 be 90 93 98 be
       -0.18975863 -0.2867918 -0.141283 -0.2980008
000060 69 08 39 be 93 76 85 be cc 33 71 be 3e 02 89 be
       -0.18069614 -0.26067027 -0.23554915 -0.26759523
000070 c1 9d 86 be bc 83 32 be e6 b2 ad be 29 65 5d be
       -0.26292232 -0.17433065 -0.3392555 -0.21620621
000080 af e1 7a be 1c d9 8f be 29 34 a6 be 13 7d 6f be
       -0.24500154 -0.2809533 -0.3246167 -0.23387556
000090 26 fb 85 be 2e 35 98 be 7b 4e 5c be 1b 88 62 be
       -0.26168174 -0.29728073 -0.21514313 -0.22122233
0000a0 4e 3d c8 be 53 8a 97 be 1a 04 aa be cd ba 8d be
       -0.39109272 -0.2959772 -0.33206254 -0.2768158
0000b0 fa 69 8e be ae ea a7 be cb 95 ea be 8c cb cc be
       -0.2781523 -0.32796234 -0.45817408 -0.39999044
0000c0 bb 1f e7 be 45 6c bd be 2e c0 17 3d b3 07 a6 3d
       -0.45141396 -0.36996666 0.03704851 0.08106937
0000d0 ee 7e e3 bc c7 06 72 3b 09 f9 a0 bc cd fd 84 bd
       -0.027770486 0.003693031 -0.01965 -0.06493721
0000e0 71 a8 b2 bd ec ca 0d bd 74 3d 1c 3c 89 ca 9e 3c
       -0.08723534 -0.03461735 0.009536136 0.019383686
0000f0 24 a6 2a 3b cd 74 7a 3d 6b b5 a0 3d 32 03 8d 3d
       0.002603897 0.061146546 0.07847103 0.06885375
000100 53 40 25 3d 09 08 b8 bc 33 bf e8 3c ba 36 7a 3c
       0.040344547 -0.022464769 0.028411483 0.015271837
000110 b2 4e 5a 3c 83 b6 97 bc 40 19 54 3d 34 f9 e3 bc
       0.0133244265 -0.018519646 0.051781893 -0.02782879
000120 cf 26 88 3c c3 e7 17 bd 81 1a 49 3a 14 7d 5d bc
       0.016620068 -0.03708626 0.0007671491 -0.0135185905
000130 28 ea f3 3c a5 31 64 3d 5b aa 8c bd 1a ab da bc
       0.02977474 0.055711407 -0.0686843 -0.026692916
000140 38 3d b7 bc 28 bf 33 bd a2 d6 09 3c 74 71 81 bd
       -0.022368059 -0.043883473 0.008412989 -0.063204676
000150 e8 39 94 3c e7 d7 8c 3d 29 7d b6 3d 76 bd c2 3c
       0.018094018 0.068771176 0.08910591 0.023771983
000160 10 68 34 bd 6e e1 93 3d bf a9 82 bd a0 62 50 3c
       -0.044044554 0.07220732 -0.06380033 0.0127188265
000170 f4 dc f8 3b a1 f3 0f 3d fa 47 99 3b 74 c6 9f 3b
       0.007594699 0.035144452 0.0046777697 0.0048759524
000180 95 e0 1b bc 67 3e 95 3c 45 51 af bd 4c 0d d5 bd
       -0.009513994 0.018218232 -0.08560423 -0.10402927
000190 c3 06 60 3e
       0.2187758

l_action1.weight f4 [101, 128]
000000 5a 45 b5 bd e8 15 cd be ac 18 64 be 1f cb 98 be
       -0.088511184 -0.40055776 -0.22275037 -0.2984247
000010 de ac 76 be 25 ad df bd bd 12 a5 bd 4e e5 b0 bd
       -0.24089381 -0.109216966 -0.08060215 -0.086374864
000020 74 5a 71 be e1 ef c3 bd e4 bc 9c bd 63 70 0d 3d
       -0.23569661 -0.09567238 -0.076532155 0.03453101
000030 d3 b5 da be 7e da 42 3d 32 92 48 3d ec 97 3a be
       -0.42716846 0.04757165 0.048967548 -0.18222016
000040 44 7c 89 bc 48 85 8b bd 01 e8 91 3d 25 42 2c bf
       -0.016782887 -0.06812531 0.07124329 -0.6728843
000050 54 b6 8f bd f4 cc aa be ce 83 4c 3d 32 9d 9f bd
       -0.07017198 -0.33359492 0.049930386 -0.077936545
000060 39 38 d1 bd 72 7b 09 be af e7 f9 bc c6 2d 09 c0
       -0.10215802 -0.13425997 -0.030505983 -2.1434188
000070 f6 f6 80 bd af b8 fb bc 94 fb 0b 3d be 76 1a 3d
       -0.06297104 -0.030727712 0.03417547 0.037710898
000080 72 9b c0 bf f2 c4 95 ba fe 92 64 be 0d 67 5b be
       -1.5047438 -0.0011426492 -0.22321698 -0.2142603
000090 fb 64 68 bd 06 b4 96 be 82 e6 29 bd 65 4b ba be
       -0.056736927 -0.29434222 -0.041479595 -0.36385646
0000a0 7b 3f 21 be d8 01 2f 3c 2b 4c 17 bf a8 14 f6 bb
       -0.15746872 0.010681592 -0.591006 -0.0075097866
0000b0 0f ab 04 c0 b5 bb 10 3d ae a3 3c bc 96 7c 52 be
       -2.0729406 0.03533526 -0.011513634 -0.20555338
0000c0 5b 13 db 3c 45 2a 8e be b4 54 86 bd 6d b1 42 be
       0.026742628 -0.27766624 -0.065591246 -0.19012995
0000d0 61 7c c0 3c b6 7d fc bd 1c e9 11 bf 20 0a 8a bd
       0.023496808 -0.12328665 -0.5699632 -0.067402124
0000e0 a2 96 23 bf 72 6c 21 be a4 17 75 bd e6 18 d3 bd
       -0.6390172 -0.15764025 -0.059837 -0.103074834
0000f0 c5 81 79 bd eb b7 41 be 89 ca be bd 77 1c 45 bf
       -0.060914773 -0.18917815 -0.09315974 -0.7699656
000100 00 d1 24 3b dd 88 a3 be 0a 11 a0 be 13 7b 0c be
       0.0025148988 -0.31940356 -0.31263 -0.13718824
000110 ac 13 f8 be 48 a6 ec bd 2e 59 1f be 06 17 7c 3d
       -0.48452508 -0.11555153 -0.15561363 0.061545394
000120 49 e8 c5 be 13 9f 86 3d 27 49 0c bd 85 97 f1 39
       -0.38653782 0.0657331 -0.03424945 0.00046079993
000130 39 ad 97 bf bf 79 39 bd ee 71 d6 bd 80 79 79 bc
       -1.1849738 -0.04528212 -0.10470949 -0.015226722
000140 41 68 2e be f9 30 13 be 4f 88 89 be 60 fc b1 bc
       -0.17031957 -0.1437415 -0.26861808 -0.021726787
000150 63 17 ad bf b6 c0 68 bf 68 5f 8d bc 01 33 2a bd
       -1.3522762 -0.90919054 -0.017257407 -0.041552547
000160 a6 37 47 be f4 b3 71 be c3 2e 7d bd a4 a6 a4 bc
       -0.19454822 -0.23603803 -0.061812174 -0.020098992
000170 a9 12 f3 bd 7f e8 b9 bd b6 4d 1e 3c f1 e8 41 bd
       -0.118687935 -0.09077548 0.009662082 -0.04734129
000180 73 ea 3c 3d a9 93 0d be 98 d9 39 be af 20 8f bf
       0.046122026 -0.13825859 -0.18149412 -1.1181849
000190 95 62 44 be 9b 3f 49 be 65 7d cf bf 90 0c 25 c0
       -0.19178231 -0.1965317 -1.6210142 -2.5788918
0001a0 fa 48 2c bf f9 93 ea bd 25 4b 28 bd 9b ce 72 3d
       -0.67298853 -0.11454005 -0.04108729 0.059279066
0001b0 e0 71 aa bb 3b 84 8d be 67 aa ba bd f4 f3 e9 bc
       -0.0052015632 -0.27639946 -0.09114533 -0.028558709
0001c0 a5 d6 c8 be f2 2e 01 be 77 66 0e be 82 c0 02 bf
       -0.3922626 -0.12615564 -0.13906275 -0.51074994
0001d0 a3 0e 61 bd 5c 51 9f bd 44 35 70 bd 42 c2 c4 bd
       -0.0549456 -0.0777919 -0.058644548 -0.09607364
0001e0 28 07 16 be 69 16 b1 bf d0 22 96 bd 1e 05 d2 bf
       -0.14651167 -1.3834964 -0.07330859 -1.6407812
0001f0 c7 3a b8 be 7a 8a 34 be 81 a2 98 be 12 1e dd 3c
       -0.35982344 -0.1763095 -0.2981148 0.026991878
000200 c2 c9 b1 bd 2b 51 53 be a3 03 61 be cd 89 3a be
       -0.086810604 -0.20636432 -0.21974044 -0.1821663
000210 04 29 09 be 23 d1 5e be 93 34 03 bd f7 19 01 be
       -0.13394552 -0.21759467 -0.03203256 -0.12607561
000220 b1 0c 72 be a0 98 f5 bd 2b 6a 60 3b d2 64 8d bd
       -0.23637654 -0.119920015 0.0034242969 -0.069039956
000230 23 a0 cd be 52 c2 66 3d 08 96 59 3c b1 99 15 be
       -0.40161237 0.056337662 0.013280399 -0.1460941
000240 a5 b0 ae 3d 0e 89 39 3d de 2b 82 bd 70 e8 f4 be
       0.08529786 0.04529672 -0.06356023 -0.47833586
000250 86 73 7b bd 28 16 e8 be 82 ab 15 3d 70 17 85 bc
       -0.06138947 -0.45329404 0.036540516 -0.016246527
000260 2d 45 07 be 5c 59 b2 be 82 87 8a bd 40 ac c6 bf
       -0.13209982 -0.348338 -0.06764127 -1.5521317
000270 d2 81 85 3c f2 24 2a bd 7b 9c 0c 3d 38 75 99 bc
       0.016297255 -0.04153914 0.03432892 -0.018732652
000280 44 b6 93 bf 8a c5 90 3c a7 13 42 be f5 ca 52 be
       -1.1539998 0.017672319 -0.1895281 -0.20585234
000290 8f 26 88 bd b1 75 a5 be de 8c 00 be 2c 2f 09 bf
       -0.066479795 -0.32316354 -0.12553737 -0.53587604
0002a0 93 53 10 be cf 55 b3 3d e0 15 1e bf 26 91 20 3c
       -0.14094381 0.08756601 -0.6175213 0.009800231
0002b0 88 ee 0e c0 0d aa b6 bd 15 a5 35 bc 3a e4 52 be
       -2.2333088 -0.08919153 -0.011086722 -0.20594874
0002c0 67 15 c9 3b 3c 12 32 be 44 ae 60 be f3 1b 57 be
       0.0061365846 -0.17389768 -0.21941477 -0.21006756
0002d0 22 99 40 3d 7b ea 6d be 24 ed 85 bf bc 72 a4 bd
       0.04702104 -0.23233978 -1.0462995 -0.08029696
0002e0 9d 4c 5e bf 22 2a 0f be 2c 24 b5 bd 19 0e fe bc
       -0.8683565 -0.13980916 -0.0884479 -0.031012582
0002f0 e5 88 9d 3d 82 74 a1 bd df c8 11 be ff 5f 40 bf
       0.07692126 -0.0788355 -0.14236782 -0.7514648
000300 97 fc 90 3d d8 99 82 be 7e d7 57 be 89 db 33 be
       0.07079428 -0.25507998 -0.21078297 -0.17564215
000310 da 95 0b bf 10 3b 38 be 42 79 22 be a3 f9 a5 3d
       -0.5452553 -0.1799128 -0.15866569 0.08104255
000320 1a 91 e2 be 8a e7 16 bd 80 2c 4c 3d d9 4b 5e bd
       -0.4425133 -0.036841907 0.049847126 -0.054271553
000330 9a 71 5c bf d5 0c 9e bd 19 23 77 be 28 83 03 3c
       -0.8611084 -0.07717291 -0.24134482 0.008026876
000340 67 5a 4e be 61 6f 74 be 69 ec 85 be bc 7b 67 3d
       -0.20151673 -0.23870613 -0.2615693 0.056514487
000350 2a 5c 81 bf 6e d0 39 bf c8 c1 41 3d bf 92 c0 bd
       -1.0106251 -0.72583663 0.047303945 -0.094029896
000360 74 78 20 be 48 24 9c be 18 2f 0e be 7f 27 a5 3d
       -0.15670949 -0.3049643 -0.13885152 0.08064174
000370 6d f3 90 be a9 50 40 bd 5f 7c 8a bd f7 d9 eb bd
       -0.2831072 -0.046951924 -0.06762003 -0.11516183
000380 12 5a 9d bd 98 9b ee 3c 23 ea 05 be 8f 43 57 bf
       -0.07683195 0.029126927 -0.13077597 -0.8408746
000390 eb f2 48 be 55 43 3c be 53 c7 97 bf 2f 0c da bf
       -0.19623916 -0.1838506 -1.1857704 -1.7034968
0003a0 a2 5f 25 bf df 96 49 be 37 cc 16 be 84 a5 b9 bc
       -0.6459905 -0.19686459 -0.1472634 -0.022661932
0003b0 ad cc 99 3d c5 90 ae be 88 11 ae bd dc f3 23 bd
       0.07509742 -0.34094825 -0.084994376 -0.040027484
0003c0 58 34 cd be ea b1 25 be ca f6 ab bd 7e 23 8d be
       -0.40078998 -0.1618115 -0.08396681 -0.2756614
0003d0 09 82 4e be d9 b3 1f 3d 5e dc f0 bd 61 8d f6 bd
       -0.20166792 0.038989875 -0.11760782 -0.12038685
0003e0 de 50 36 be 72 bb 91 bf c0 01 93 3a 67 61 8c bf
       -0.17804286 -1.1385329 0.0011215732 -1.0967225
0003f0 76 e7 c2 be bd bb 91 be d6 a7 04 bf ce 28 54 bd
       -0.38067216 -0.28463545 -0.518186 -0.051796727

l_action1.bias f4 [101]
000000 06 f3 58 be 35 98 c7 be 7b 99 8c be 93 bf f9 be
       -0.21186456 -0.38983312 -0.27460846 -0.48778972
000010 32 58 c6 be 2b 42 ed be e2 17 a7 be 28 f7 78 be
       -0.38739163 -0.46339545 -0.3263541 -0.24313033
000020 68 73 b3 be 6f 0d af be c5 99 90 be 64 e6 23 be
       -0.35048985 -0.34189937 -0.28242317 -0.16005856
000030 aa b6 78 be 77 f5 1b be 40 64 6a be a3 f9 85 be
       -0.24288431 -0.15230356 -0.22889805 -0.2616702
000040 e5 76 48 be 0c 7b 09 be 4c 08 15 be 30 1b 4f be
       -0.19576605 -0.13425845 -0.14553946 -0.20225215
000050 71 66 22 be 80 41 66 be 8f b9 8a be af 8f 85 be
       -0.15859391 -0.22485924 -0.27094695 -0.26086184
000060 e8 b9 94 be b9 bc 50 be 95 18 8e be 95 6e 8d be
       -0.29048085 -0.20384492 -0.2775313 -0.2762343
000070 9e 84 8d be fa 47 9b be 4e 74 ac be a7 e1 58 be
       -0.2764024 -0.3032835 -0.33682483 -0.2117983
000080 5e 55 c5 be 37 1d b4 be 5d 81 aa be 62 64 bd be
       -0.38541692 -0.3517854 -0.3330182 -0.36990649
000090 39 5d 96 be 44 24 91 be 2b b1 94 be 2a 12 ae be
       -0.29367998 -0.2834798 -0.29041418 -0.33998233
0000a0 52 5e a4 be da 6b ae be ed d7 e9 be 18 df c4 be
       -0.3210321 -0.3406666 -0.4567255 -0.38451457
0000b0 d3 54 e2 be 34 c5 d7 be 58 e9 c0 be ea 90 dd be
       -0.4420534 -0.42142642 -0.37678027 -0.43274623
0000c0 f8 36 e4 be 47 96 02 bf 37 05 84 bd 13 89 18 3d
       -0.44573188 -0.51010555 -0.06446307 0.0372401
0000d0 15 ee a4 3c 0d 7b 65 bd 61 eb f5 bc bd 40 f7 3b
       0.020133058 -0.056025553 -0.030019464 0.007545559
0000e0 4c 5e b9 3c 35 c8 fd 3c db cb 1e 3d dd 5a 4e 3d
       0.022627972 0.030979255 0.03876863 0.050379623
0000f0 ee f7 00 3e c3 94 73 3d 5b 39 15 3e 89 5e 17 3e
       0.12594578 0.059468042 0.1457266 0.14782156
000100 5f f2 f1 3d e4 94 ef 3d 47 8f 0d 3d 43 28 4a 3d
       0.11813807 0.116983205 0.034560468 0.049354803
000110 bd 0c da 3d e7 8a 5c 3d ef 15 1f 3d e7 f4 b9 3d
       0.10646961 0.053843405 0.038839277 0.090799145
000120 2f 09 92 3d 2f 82 c7 3d 14 2a 0c 3d 3e 58 c9 3c
       0.07130658 0.097416274 0.034219816 0.02457821
000130 51 ba c8 3b aa d4 1e bd 28 e1 85 bc 0f 44 86 bd
       0.0061257263 -0.03877703 -0.016342714 -0.0655595
000140 a3 44 50 bd 07 f1 fc 3b 11 b0 b3 3b 54 ff 7c bd
       -0.050846707 0.0077191624 0.0054836352 -0.061766937
000150 1e 29 c4 bd b2 c6 13 3c cd 56 5c bc b1 2b 2a bd
       -0.09578155 0.009019541 -0.013448429 -0.041545574
000160 b4 d6 6e 3c 27 7d 55 bc 86 3f 9d 3c 0c a9 cb bc
       0.014577556 -0.013030327 0.01919533 -0.024860881
000170 60 cd 8a bd 20 8e 65 3d f2 29 20 bd 2e 24 b0 bd
       -0.067774534 0.056043744 -0.039102502 -0.08600651
000180 45 ef 0b 3c 96 ef 31 3c 35 a3 5b bd 7a a2 0b be
       0.008540933 0.010860344 -0.053622443 -0.13636199
000190 39 78 8a 3e
       0.27044848
