models/checkpoints/checkpoint.pth (torch_old, 173110 bytes, 8 tensors)

fc0.weight f4 [128, 4]
00000000: f180 b43d bea6 a23d 6582 55bf 760e f4be
00000010: 9d02 b4be 6d4d 933e 7fb5 ef3e 388e de3e
00000020: 6df8 efbd be4b a13e 0c7b 80be be53 dfbd
00000030: 6223 1bbf d574 dabe d2b2 40bf 845b 9dbe
00000040: 37b3 cb3e 4cf9 723e be20 31be 1f86 14be
00000050: ffed 3a3e 7cb2 053f 3a78 4a3f 32a5 be3e
00000060: cfc0 3cbe 13c5 cc3b e6dc b63e 2743 c6be
00000070: 1f0e 17bf f5fd 5ebb 43fb b0be 84ba cd3d
00000080: c454 a1be 5fe1 26bf bced 82bf e7cb 9fbe
00000090: 12b0 44bf e759 ca3e d858 063f 1733 803e
000000a0: 360f 923e 9326 babe de13 a2be d679 cbbe
000000b0: f544 02bf 42e6 4bbe 6951 1b3f 4bd5 5b3e
000000c0: e467 15bf 80a1 833d 344f 3d3f 647f b73e
000000d0: 2062 a63e 58f8 f13d b36a e43e 14a6 90be
000000e0: 7eaf 703e b775 b2be a329 2cbf f2f4 46be
000000f0: 1f28 dc3e 58b0 b63e 79c8 d5bb 0b0a 753e
00000100: 6d26 183e e51c 1dbd cae1 3d3f 98f8 6b3e
00000110: a1aa 653f 6a85 cc3e ba39 433f 0b4d 903e
00000120: dfba 2cbe 18e9 ae3e 81cd 6c3f 9ef6 cf3e
00000130: a6f3 223e ce9e cfbe 715b 65bd 734d 80be
00000140: 1490 1abf 4fde 623e 00b8 c63c 6eba ecbe
00000150: 23a1 843d bd84 e8bd 89b4 7bbd 2977 4cbe
00000160: 7ce2 a83e dfbf 0ebe 67ca 2a3f 5a10 9b3e
00000170: 9224 0c3f 6468 58bc 1209 0abf 527e 8dbe
00000180: 389d c73e fc91 86bd 4e04 ffbe 47c3 b7be
00000190: 61f9 0f3f 0826 b43e d917 14bd d469 2abe
000001a0: eb8d 85be a18b d2bd 1802 6cbf b994 c7be
000001b0: f1b3 8cbe fa0e b43d d83a cf3d b623 a83e
000001c0: 62bd 7cbe 7a34 113f d762 513e 1bb3 17bf
000001d0: f039 25bf d5b9 c7bc 4774 423e a71d cabb
000001e0: ba96 d33d 2f38 193c 0aec babe f52b 603e
000001f0: 6541 27bf 4a02 05bf 1708 62bf f2f2 aebe
00000200: 5ed3 48be 4bdf e8be 0b8d 0cbf f38e d5bd
00000210: 95f2 0cbf f0b2 523d 9997 fa3e 65ea 8cbd
00000220: 0787 05be 2666 7bbd 90c3 e93e 36d1 c73e
00000230: 961a 173f 0835 633e 0748 b13f a1aa 353e
00000240: 2521 58bf 9065 d9bd 8982 f53e 0420 93bd
00000250: 95da dd3c 8de4 b9be 2a18 82bf c881 d6be
00000260: 2d65 4ebd d8d5 0b3e 9978 7c3d 1161 e9be
00000270: f122 963e 054a bebe 8ebe b5bd 3e68 63be
00000280: 957f 093e c8d9 6abe fe52 79bf 25b8 9ebe
00000290: 6252 66bd 65d3 383c 94c2 e9bc 3f58 653e
000002a0: 7ac1 3ebf 1b4c 01bd 67e5 423f 6ce6 1ebe
000002b0: f620 ff3e ffbe a63e 450c 76be ad8d 4c3e
000002c0: 74eb 7e3e 8543 6abe dfc1 69bd 4964 eebe
000002d0: 7ad8 70be 4866 08bd 9a2e 453f 51b8 833d
000002e0: 04d3 043e da29 393e ed5c 1dbe 171e 41bd
000002f0: a5fd 57bf 2510 a03e 8dd2 2f3f 35e6 5d3e
00000300: d0e5 34bf 413d d9be 30eb 4bbf b9ea 97be
00000310: aa60 1ebf 051c 56be 0912 31bf f1f2 ebbd
00000320: c657 2e3e 3258 883e bfdc fdbe 9fe8 6abe
00000330: 33ba 10bf d281 f83e 6a9c 8e3d aa13 863e
00000340: b130 893e dd93 f23d aa2e 6a3e a853 573b
00000350: 68de 09be dbd8 41be caa1 e0bd 49ec 9d3d
00000360: 2cf4 f3be 5d16 06bf 3a38 c2be 97b8 dfbe
00000370: 2944 2f3e 68a9 f73e e470 a53f 295b b23e
00000380: 2f66 00bf 3959 953e a51f 30bf fa10 1bbe
00000390: 00c2 a9be d70b a3bd 5dfa 9d3e 0460 a53e
000003a0: e478 5dbe aaf1 b63e 64a3 003f 9cd1 40be
000003b0: ad85 003e bb54 cabe 955e ddbe d266 2e3e
000003c0: 35bd ab3e 2b8f ce3e 0b00 933e a347 a4ba
000003d0: c863 943e e12d 29bf a180 81be 55ff 12bf
000003e0: 2331 b23d 9c25 3fbe 225c f5be 5472 4a3e
000003f0: 1ca8 d83e bf7b 3fbe 883a 10bf f887 ecbd
0.08813656 0.0794196 -0.8340209 -0.47667283 -0.35158244 0.2877001 0.46818158 0.4346788
-0.11717305 0.315031 -0.25093877 -0.109046444 -0.60600865 -0.4266726 -0.7527286 -0.30733883
0.39785168 0.23727912 -0.17297646 -0.14504288 0.18254851 0.5222547 0.790897 0.3723541
-0.18432926 0.006249079 0.35715407 -0.38723108 -0.5900592 -0.0034025882 -0.34566697 0.10045341
-0.31509984 -0.6518764 -1.0228801 -0.31210253 -0.7683116 0.39521715 0.52479315 0.25038978
0.2852723 -0.36357555 -0.31655782 -0.3974139 -0.5088647 -0.19912055 0.606711 0.21468084
-0.5836165 0.06427288 0.7394898 0.3583938 0.32496738 0.11814946 0.44612655 -0.28251708
0.23504445 -0.34855434 -0.6725103 -0.19429377 0.4299936 0.35681415 -0.0065241423 0.23929612
0.14858408 -0.038357634 0.7417265 0.2304405 0.89713484 0.39945537 0.7625996 0.2818378
-0.1686816 0.3416221 0.92501074 0.4061784 0.15913257 -0.40550846 -0.05599541 -0.2505909
-0.60376096 0.22155116 0.02425766 -0.46235985 0.06476047 -0.11353443 -0.06145147 -0.19967331
0.32985294 -0.1394038 0.6671509 0.30285913 0.547433 -0.013208482 -0.5392009 -0.27635437
0.38987136 -0.06570813 -0.49807972 -0.35891172 0.56239897 0.35185266 -0.036155555 -0.16641933
-0.26084837 -0.10280538 -0.92190695 -0.38980654 -0.27481034 0.08791919 0.101186454 0.32839745
-0.24681619 0.567207 0.2044786 -0.5925767 -0.6454153 -0.024380604 0.18989669 -0.0061680856
0.10331483 0.009351774 -0.3650821 0.21891768 -0.6533416 -0.5195662 -0.88293594 -0.34169728
-0.1961188 -0.4548286 -0.54902714 -0.10427656 -0.5505765 0.05144018 0.48943785 -0.06880645
-0.1303979 -0.061376713 0.45657015 0.39026803 0.5902494 0.22188199 1.3850106 0.17740871
-0.84425575 -0.10615075 0.47951153 -0.07183841 0.027081767 -0.36307183 -1.0163624 -0.4189589
-0.050389457 0.13655794 0.06163845 -0.45581868 0.29323533 -0.37165847 -0.08874236 -0.22207734
0.13427575 -0.2293464 -0.9739226 -0.30999866 -0.05623091 0.011280869 -0.028535165 0.22396944
-0.7451397 -0.03156672 0.7613129 -0.15517586 0.49829835 0.32567593 -0.24028118 0.1997592
0.24894506 -0.22877319 -0.057069656 -0.46560887 -0.2352008 -0.033300668 0.77024233 0.0643164
0.12971121 0.18082371 -0.1536748 -0.047147837 -0.84371406 0.31262317 0.6868065 0.21669848
-0.70663166 -0.42429546 -0.7965574 -0.29671267 -0.6186625 -0.20909126 -0.69168144 -0.11520947
0.1702567 0.26629788 -0.49582478 -0.229403 -0.5653412 0.48536545 0.06963427 0.26186877
0.2679496 0.11844609 0.22869363 0.003285626 -0.13463748 -0.1893038 -0.10968359 0.077110834
-0.47647226 -0.52377874 -0.37933522 -0.43695518 0.17115845 0.48371434 1.2925076 0.34835175
-0.5015592 0.29169634 -0.68798286 -0.15143195 -0.33155823 -0.07961243 0.30855075 0.32299817
-0.21628147 0.3573125 0.50249314 -0.1882996 0.12550993 -0.3951777 -0.43236223 0.1703141
0.3354279 0.40343603 0.2871097 -0.0012533556 0.28982377 -0.6608563 -0.2529345 -0.57420856
0.08700778 -0.1866669 -0.47921854 0.19770175 0.42315757 -0.18699549 -0.5633931 -0.115493715

fc0.bias f4 [128]
00000000: 8795 85bd 1417 6ebe c309 103e 11fe bc3c
00000010: 48e5 81be 9bf8 b73c 9f41 c73e 42e7 ce3d
00000020: 1f2c 6d3e f092 65bb f68c 8f3e a553 adbe
00000030: 9c33 73be 1b4e 79be 72ab f83e f7fc e03b
00000040: bc0b 16bc eedb d43a 9567 f53e ee6e ee3e
00000050: e865 02bf 061d debe 265f babe 7a11 a93d
00000060: 97fe 6bbc 2ea2 ddbe e44c 53be 5a5b 1c3e
00000070: c7a8 32be f44e 37bc 99c2 e1bd ba34 4cbd
00000080: 4cc1 eb3c 16dc dd3e 6455 94be 36c8 fa3c
00000090: 3f23 a8bb 83ac f93e a733 2abf 5e67 ffbe
000000a0: 570b 163f 6c67 a3be 02c0 1f3e b96c 023c
000000b0: 4627 e4bd 8c33 0bbe 795a a33e 4250 49ba
000000c0: 95cb 5fbd 225c d2bc 1b11 91be 5380 8f3e
000000d0: 7358 85be 5152 d73e 7cb4 8cbc 7b80 a33c
000000e0: a3b0 d23e 8a6c ba3d 14e7 033f 7a62 483e
000000f0: c259 17be a13c 90bd 7672 12bc 0331 db3e
00000100: 3e2a 0abe 6e34 98be 3cb2 443e 5853 ca3e
00000110: 1601 a03a de80 a0be 9c6a 12bf 17fb bf3d
00000120: 41aa 49bd bb90 9dbd e9c7 ca3d a36a 5a3e
00000130: b881 9f3e 2f7f d83e a8b1 98bc d944 efbe
00000140: d853 e7be 2313 d43e 97d2 853e 65f7 c13d
00000150: fb91 48bc 680c c03e 06a0 b63e 69f9 ec3e
00000160: 30f5 d7be b4d7 f8bd 240a 5ebe 3f96 063f
00000170: 9c30 7bbe 71dd 0abd 2b08 b93d 68a9 05be
00000180: 0cc9 cbbd 6705 923d 65f0 2bbe c1c6 c4be
00000190: 7171 d33e 3683 15be d5ab 823e d983 ff3e
000001a0: dbf7 403e 544f cd3d e3da e03e d7c8 ecbb
000001b0: 81f2 92bc c023 003f 7beb 953e 37d7 d3be
000001c0: 3cf5 0b3e 28ec d2be 449d c63e e8e7 52bc
000001d0: 526b 19bf b692 5ebc 728e a93e 77d2 443e
000001e0: ced5 153e 695d 983c eec7 783d eadd a23d
000001f0: 5fbb 36be fc6e a6be 0368 30be 21d0 673e
-0.06522661 -0.23250991 0.14066224 0.023070367 -0.2537024 0.022457412 0.38917252 0.10102703
0.23161362 -0.0035030209 0.28037232 -0.33852878 -0.23750156 -0.24346201 0.48568302 0.0068660933
-0.009158071 0.001623986 0.4793059 0.46569008 -0.50936747 -0.43381518 -0.36400717 0.082552865
-0.014403961 -0.43287796 -0.206348 0.15269223 -0.17447196 -0.0111882575 -0.11023445 -0.04985497
0.028778695 0.43331975 -0.28971398 0.030613046 -0.005131155 0.48764428 -0.66485065 -0.4988355
0.58611053 -0.31914842 0.15600589 0.007960492 -0.11140303 -0.13593882 0.31904963 -0.0007679501
-0.05463751 -0.025678698 -0.28333363 0.2802759 -0.26044044 0.4205499 -0.017175905 0.019958725
0.41150388 0.091027334 0.5152447 0.19568816 -0.14780334 -0.07042814 -0.008938422 0.4281083
-0.13492677 -0.297275 0.19208616 0.3951671 0.0012207355 -0.31348318 -0.57193923 0.093740635
-0.049234632 -0.07693621 0.09901411 0.21329741 0.31153655 0.42284533 -0.0186394 -0.46732214
-0.45181155 0.4142085 0.2613723 0.09471015 -0.012241836 0.37509465 0.35668963 0.46284035
-0.4217925 -0.12150517 -0.21683556 0.5257301 -0.24530262 -0.03390259 0.09034761 -0.13052905
-0.09950456 0.07129937 -0.16790922 -0.38432887 0.41297486 -0.14600834 0.25521722 0.4990528
0.1884455 0.10024896 0.43916997 -0.0072260904 -0.0179379 0.5005455 0.2928122 -0.41375133
0.13667768 -0.41195798 0.3879186 -0.012872674 -0.5992938 -0.013584783 0.3311649 0.19220911
0.14632341 0.018599229 0.060737543 0.07952483 -0.17844914 -0.3250655 -0.17227177 0.22637989

fc1.weight f4 [128, 128]
00000000: 0208 95be 844c 083e 16ef 113c 7d9f 17bd
00000010: 8527 c8bd 1329 6d3e 233f 383c 6089 cf3d
00000020: 26c5 36bf 14e2 913e 6ab8 86be 221d 1dbc
00000030: f799 413e 14dd ebbd 7695 93be 0976 5cbe
00000040: be28 c03d 81a8 a9bd 7584 523d 3449 21bd
00000050: 035a 92be 6c06 9dbc c079 e93d c091 afbe
00000060: 805f aebe fb2d 233e ea13 9cbe a350 be3d
00000070: 4ed5 08bf 07c8 3a3e 1e70 1ebe 3d85 8abe
00000080: f27a 11bd 78b2 ed3d 9707 aa3d bd6c 603e
00000090: be62 f13d 11d4 bebe f163 2dbd 78ea c3bc
000000a0: 4f48 c1be b4ee abbd 2355 923e 3568 c6bd
000000b0: 170b e0bd 2db1 6a3e 2f2d 16bd 8628 bc3d
000000c0: b795 2cbe 37ad 6ebe d48d 93be 27b4 843c
000000d0: 3cce 363e fdd3 a23d 8883 a0be 4688 713d
000000e0: a044 21bc 975a e6bc bbd3 ce3d b9d8 18bd
000000f0: 2163 4d3b 4195 7d3c a905 79be 6e7d 0cbe
00000100: b32b f5be bd9b a93e ebf0 5ebb dd3b 78bd
00000110: efbc bdbe af12 62be cbae f5bd 3622 a23d
00000120: 6e9b ffbd 4aee 1abe ec86 54bd 3b59 a9bc
00000130: ecc1 213c 3092 c7bd 1326 113e 02b4 13be
00000140: 4fcf 923d 92ed 4b3d d035 b9be 1e7f f7bd
00000150: 51ae ba3d 3da6 8a3d fa0e 3f3e 4f42 2bbd
00000160: 7e1b 5b3d 92c5 bfbd 2ad2 9fbd d37c fa3d
00000170: 59e0 8bbd 2a84 7fbe 68fc 8f3d 2d90 213e
00000180: 85f3 b13e c5a0 6dbe 4afe 23bc c6aa 8ebd
00000190: 91e8 69bd f529 8b3d 532a f33d 90e3 92be
000001a0: 3562 983d 83bc d83d e4bd 43be e757 0bbc
000001b0: 49d8 1a3d 1e0f 55be d3d6 62bd 4848 87be
000001c0: 2332 003e 06b5 f13d 5130 00be f6f0 a9be
000001d0: 295e c1bd 63e3 0c3e 579e 53be 67da 3dba
000001e0: 14b9 9dba 489e a83e 72ef b2bd d3c9 233e
000001f0: 4918 e83d 1da9 b8be 8223 6b3d 81ec 0a3e
00000200: 2605 c6bd 9ca1 d3bc ea84 37bb 9eae b9bd
00000210: e9ab ea3c bdb7 263d dcb5 c73c 147d 89bd
00000220: fec1 703d 439a 56bd 0924 703d f7b8 adbd
00000230: 6548 a1bd 1416 1a3d 0f65 a4bc 1016 a73b
00000240: 4793 57bd 3f75 68bd 898c 5bbd 8521 ecbd
00000250: 3532 69bc 3c0f 803c 00f0 9cb8 2932 52bb
00000260: 98a9 503d f23b d13b 8431 86bd 3cc5 74bd
00000270: 1055 9ebd a183 88bd a039 69bc 3e88 b0bc
00000280: 39fa 073d f29d 8bbd 2d4f 903d f704 a2bd
00000290: 00b6 8339 c25c 4b3d 6bb7 8f3d 20b7 51bd
000002a0: 4648 72bc 580f 2b3c c715 90bd e7d9 1fbd
000002b0: 3046 e0bb c4bf 7bbd 669a 8cbc ffb0 423d
000002c0: 2bab 0ebd b35c 963d eb3a ecbc 8a8b a73c
000002d0: bd43 b33d 024e 65bd f873 9b3c e8ac 36bd
000002e0: 5549 36bd 96d1 1abd 9d8d fabc 8bee 4dbd
000002f0: 7ee5 1b3b 33d3 38ba d708 2f3d 24b5 46bd
00000300: f331 a1bc c5ac 06bd 9e72 bdbd dbe4 953b
00000310: 3d1d b0bc 98fd 10bd 6cd0 f4bc aa66 a73b
00000320: 2fbf e6bc a418 153d 8313 8fbc 652b 533b
00000330: 3172 b03c a5a0 56bd 3453 263d 8794 853d
00000340: 9048 853b f93b 4abc 1f17 debc c10b 0d3d
00000350: ddd9 18bd 65d2 88bd 029d d53b 58cc cebd
00000360: 80bd b93a 947f 26bd ce96 263d 05a0 e4bd
00000370: 0e84 5b3d 424c 873d be59 373c b0f8 c0bb
00000380: b52f b23d c1ae 80bd 4935 f8bc dd89 1ebd
00000390: ab5d 13bd d8d0 b03c ee58 a3bc d0fd 43bd
000003a0: 182c e4bd bf9e bfbb c228 03bd 91fa d43b
000003b0: 1609 443d bc68 653d 6db8 6fbd 0099 b4bb
000003c0: 44e8 35bd efd5 a6bd d749 c4bd 1dd2 543d
000003d0: e477 1a3d da5e 383d 1dd9 993c fe20 c2bd
000003e0: 77cd e8ba 3d25 a53d ff64 8cbd 012f 8e3d
000003f0: fd27 ea3c c2b5 7e3d c817 1bbd b35f 903c
-0.29107672 0.13310438 0.0089071 -0.037017334 -0.09773163 0.231602 0.011245522 0.10133624
-0.71394575 0.28492796 -0.26312572 -0.009589465 0.18906389 -0.11516777 -0.28824967 -0.21529402
0.09382771 -0.08284093 0.051395852 -0.039376453 -0.28584298 -0.019168101 0.11400175 -0.34290886
-0.34057236 0.15935509 -0.30483943 0.09292724 -0.5345048 0.18240367 -0.15472457 -0.27054778
-0.03551764 0.11606306 0.08302229 0.2191648 0.11786412 -0.3727117 -0.04233164 -0.023915514
-0.3775048 -0.083951384 0.2858058 -0.09687845 -0.10939615 0.2291915 -0.036664184 0.09187417
-0.16853987 -0.23308264 -0.28819144 0.016199185 0.1785211 0.0795059 -0.3135035 0.05896785
-0.009843022 -0.028119368 0.10098978 -0.037316058 0.0031339603 0.015477479 -0.24318565 -0.13719723
-0.47884902 0.3312663 -0.003401811 -0.060603965 -0.37058207 -0.2207744 -0.1199623 0.079166815
-0.12480818 -0.15129963 -0.051886484 -0.020672431 0.009872895 -0.0974468 0.1417468 -0.14424136
0.07168447 0.04978711 -0.36173868 -0.120847926 0.091152795 0.06769989 0.18658057 -0.041811284
0.053493015 -0.093638554 -0.078037575 0.122308396 -0.068299 -0.2495276 0.070305645 0.15777655
0.34756103 -0.2320586 -0.010009358 -0.06966166 -0.05710656 0.06795112 0.11873307 -0.2868924
0.074406065 0.10582831 -0.19115406 -0.008504844 0.03780392 -0.20806548 -0.055380654 -0.26422334
0.12519126 0.118021056 -0.12518431 -0.3319165 -0.09441788 0.13758616 -0.2066587 -0.00072423223
-0.0012033307 0.3293326 -0.08737077 0.15994959 0.11332757 -0.36066523 0.05740691 0.13566782
-0.09668951 -0.025833897 -0.0028002807 -0.09066509 0.028646426 0.04070257 0.02437871 -0.0671331
0.058778755 -0.05239321 0.058628116 -0.08482545 -0.07875136 0.03761871 -0.02006772 0.0050990656
-0.05263069 -0.05675244 -0.05360082 -0.11529831 -0.014233162 0.015632264 -7.483363e-05 -0.0032073355
0.050942987 0.00638532 -0.06552413 -0.05975841 -0.07731068 -0.06665731 -0.01423493 -0.02154934
0.033197615 -0.06817235 0.070463516 -0.07911103 0.00025121868 0.049649008 0.07017406 -0.051200032
-0.014787739 0.01044067 -0.07035404 -0.039026167 -0.0068443045 -0.06146218 -0.017163467 0.047532078
-0.034831207 0.073419 -0.028836688 0.02045228 0.087531544 -0.055982597 0.018976197 -0.04459849
-0.04450353 -0.037797533 -0.030585105 -0.05027632 0.002378791 -0.0007050514 0.04273304 -0.048512593
-0.019677138 -0.03287961 -0.09250377 0.004574401 -0.021498317 -0.035398096 -0.02988454 0.005108674
-0.028167335 0.036400452 -0.017465359 0.003222191 0.021538826 -0.052399296 0.040606692 0.0652247
0.004067488 -0.0123434 -0.027110634 0.034435038 -0.037317146 -0.066807546 0.006518961 -0.10097569
0.0014170855 -0.04064901 0.040671162 -0.11163334 0.053592734 0.06606342 0.01119083 -0.005889021
0.08700506 -0.06283332 -0.030298846 -0.038705695 -0.035978 0.02158396 -0.019939866 -0.047849476
-0.11141223 -0.0058477814 -0.03202129 0.0064995964 0.047860228 0.056008086 -0.05852549 -0.005511403
-0.04441096 -0.08146273 -0.09584396 0.051958192 0.037711993 0.045012332 0.018780285 -0.09478949
-0.0017761429 0.08063743 -0.06855201 0.06942559 0.028583521 0.062185057 -0.037864476 0.017623758

fc1.bias f4 [128]
00000000: 5ed9 9ebc 0c9b 5a3d c14e 903b fe7d 953b
00000010: e96c 643c c761 85bd 7a68 793d db0f c53d
00000020: 4911 fc3d 9bd7 853d a2b1 213c e93e 91bd
00000030: e735 0d3d c262 58bd f1c1 ef3a 72e1 b3bc
00000040: 887b a8bc ab71 083e dab8 b73c c507 37bc
00000050: 39ca 063d 79bd 9abd 7467 62bd 2f11 ccbd
00000060: e10f ea3d 98f7 493d 84af 093e 0fcf 553d
00000070: 753e e63b bc5c 8cbd afb7 bdbc 109b 073e
00000080: 289b 9bbc 40d9 94bb 7521 74bd 18db 853d
00000090: 9d21 a9bd 6a5f 99bc d554 a2bd 8f02 213d
000000a0: 211c 203d 37dd 87bd ecba adbd f0cf a1bc
000000b0: 6ef0 d03d ee32 753d 874e 293d 84c9 89bc
000000c0: 9176 d7bd 255d e83c 0351 2b3d 588f 9ebd
000000d0: c3a0 5bbd 7eca 203e a7e7 043e 559a a6bd
000000e0: 123e 3c3c 9110 8f3d d9c0 ad3a 35fa 343e
000000f0: 0a58 39bc 094f 323d 7f4c c0bc d29c 2ebd
00000100: 94a1 76bd 7f59 aa3d a733 aa3d e67d 01bd
00000110: 37d7 22bd 56a7 2f3e deaa f53d d0c4 65bc
00000120: 9d32 843d 56dc f03c 1fa3 19bc b07e 8b3d
00000130: 846d 123d 6d01 083d 9edd 683d 8808 58bd
00000140: cb16 bfbc 0878 133d 3b9e 4fbd a224 ccbd
00000150: af9b debc 8870 083e 5eba aabd 4232 9abc
00000160: 63da c9bb 1d95 87bd e034 cbbd 1f42 87bd
00000170: e52e e73c c118 7abd 8743 d7bd 235f 043e
00000180: 7725 a9bc c938 403d a875 92bd ca10 d03c
00000190: 041f 533d d3f4 a03d 1ed9 94bd 9dac cebc
000001a0: c83f 8bbd 9e83 e23c 6cea c5bd 53ef 863d
000001b0: 7ef7 c5bb 53a8 9f3d 648b 52bd c23b b4bd
000001c0: 2c16 71ba f473 dbbc be83 773d 1d32 9c3d
000001d0: b49b c53c bd27 85bd 6cef 953d 2329 04bb
000001e0: 6dae aebb 31da 753c 08c6 05be 6002 8fbd
000001f0: b0d9 503c f101 7a3b 361f cbbc 315a 833d
-0.019390758 0.05337052 0.0044039194 0.0045621386 0.013941982 -0.0651279 0.060890652 0.09622165
0.123079844 0.06535264 0.009869011 -0.07092077 0.034475233 -0.052828558 0.0018292052 -0.021958087
-0.020566717 0.13324611 0.022427011 -0.011171286 0.0329077 -0.0755567 -0.05527444 -0.09964215
0.1142881 0.04930839 0.1344586 0.05219942 0.0070264884 -0.06853625 -0.023158876 0.13242745
-0.018994883 -0.0045425 -0.05960222 0.065359294 -0.08258364 -0.018722255 -0.07926337 0.03930908
0.039089326 -0.0663399 -0.08482918 -0.019752473 0.10202108 0.059863023 0.041334655 -0.016819723
-0.105206616 0.028364727 0.041825306 -0.077421844 -0.05362011 0.15702245 0.12978993 -0.08134905
0.011489408 0.06985582 0.0013256326 0.17673571 -0.011312494 0.043532405 -0.023473976 -0.042630024
-0.060212687 0.08317851 0.08310633 -0.031614207 -0.039756026 0.17153677 0.11995481 -0.014023975
0.06454966 0.02940194 -0.00937727 0.06811273 0.035748973 0.033204485 0.056851976 -0.05274251
-0.023326298 0.036003143 -0.05068801 -0.09967925 -0.027173845 0.13324177 -0.08336328 -0.018822793
-0.006160067 -0.06620238 -0.099221945 -0.066044085 0.028220603 -0.061058763 -0.10510927 0.12926917
-0.020647747 0.046929155 -0.071513474 0.02539863 0.05154325 0.078591965 -0.07267974 -0.025228793
-0.06799275 0.02765065 -0.09663853 0.06588616 -0.0060414663 0.07795777 -0.051402465 -0.088004604
-0.0009196724 -0.02678869 0.060428374 0.07626746 0.024122097 -0.0650172 0.07321057 -0.002016612
-0.005330852 0.015005634 -0.13063824 -0.06982875 0.012747213 0.003814813 -0.024795156 0.06413687

l_action0.weight f4 [100, 128]
00000000: ad34 963a 9e51 6dbd ba4a 7bbe f8ec 423d
00000010: 2e11 35bc 7a88 82be 9694 39be cf03 1cbe
00000020: 3683 26be 88b0 3dbd aa81 1b3d 89d1 b23d
00000030: 7806 ec3c b1c5 2e3d 0d92 9d3d 0cac 9cbe
00000040: fa3a 133d 65be 52bf 30a2 c7be 2dae 89be
00000050: 0edc babe 1cf1 293d e4bd 813c 08d8 cdbc
00000060: d159 58be 648c 08be f6dc 4abf 3f14 fdbd
00000070: 5134 1f3c 74e7 1bbd e179 2dbc b700 57c0
00000080: 834c f4bd 2057 23bc 6741 9abc 9d8c 51bd
00000090: 2690 b03c b3e9 56bc 7e5d 46be ab18 3ebe
000000a0: a118 24be 883d b33b 9cef 193d a648 753d
000000b0: ccbd 49bd a577 22be ee52 c3bf 9aef bfbd
000000c0: b414 a33c c011 2bbe 43b1 edbd 73e8 07be
000000d0: 903c 24bd af3b d3bc d92c 64be 32d8 2bbd
000000e0: ebb3 92be 2f9d 5fbe 9ccc 4abe 0bb2 88bd
000000f0: 44cc 94bf 4eba a3bd 7e7e 0fbd 9c6e 4dbe
00000100: a687 ecbc a4e4 a2bd ab8b 20bf 7d95 3ebd
00000110: bb0e 43be e501 acbd 675d 16be 24ab 8dbd
00000120: 2d39 57be 9dbe 54bd a96f 11be c283 3cbe
00000130: ff04 1abe 7848 e03c d5a4 c7be 2083 6e3c
00000140: 6eef cabd bf22 bcbd 4906 b3bd f099 cdbc
00000150: d0e9 873d c573 9bbe 9844 2c3d e839 9b3c
00000160: 8068 16be 7bd2 1bbe df92 76bc 5bdd 53bd
00000170: f8ab 1dbe fb50 9abd 0c7e 9dbd d7a0 09be
00000180: bf49 663c b371 cabd 7bf7 2dbd 7440 543d
00000190: 9919 cbbd e15c 52be 7daa 27bf fe82 f0bc
000001a0: a082 443c f39a 36be f870 693d 0299 6d3d
000001b0: 57df 8ebf de2e 26be 2d4d 793d 9dfd 453d
000001c0: debd a33d 3e5b fdbd 3143 1bbe 3fb9 49be
000001d0: 9167 c1bd aefc 2abc 4437 17bc 8f76 77bd
000001e0: b45a 36be ffaa 14bc f046 7f3c fe50 c73c
000001f0: c2c4 5dbd ee16 38be 1d0f 75be bc50 02bf
00000200: 4708 c3bd 3c8e 4cbd a78a 63be 6098 42bd
00000210: 8489 babd 73ab 87be 4d70 ddbd 8efc 13be
00000220: 5841 27be 57f0 14be 01c7 04ba 7bbb 7d3b
00000230: 0bde 2d3d 9bb5 5bbd 9961 853d 1c50 c2be
00000240: e062 f73c 005b 40bf d2e3 0cbf 27bb 82be
00000250: 811a a8be 84ac a2bd 4827 a63c 21d5 b03d
00000260: e1ab 13be d3fc 24be cd80 25bf 7da1 0cbe
00000270: b719 4fbd 4151 46bd 8be0 3a3c 4b47 60c0
00000280: a97b b5bd 9899 413c 3c15 173c 4f6a d1bd
00000290: b5f9 a83d cd5e 0dbe c4cf 05bd 7541 0cbe
000002a0: 47ff b9bc b37d 71bd 08ea 183c 5d1b 98bd
000002b0: 8650 99be 4741 0bbe 9770 b8bf e7d6 32bd
000002c0: 4055 07bd cfe9 42be 00cc 22be f521 73bd
000002d0: 86c9 e2bb 9dff 94bd be87 9abe 486b 093d
000002e0: 69f2 8bbe b388 bdbd ce76 4dbe ae2f cebb
000002f0: d7a9 6abf 305c 1cbe ad73 eabc 1b6c 37be
00000300: 38d3 b0bd d9e7 de3c 15ce 0dbf b824 8dbd
00000310: 848c 26bd 9520 09be 9360 d0bc 1872 ac3c
00000320: 38ca 8abe 4ea9 0b3d 1375 86be fcc0 3bbe
00000330: 4465 52be c42d 763d 89f9 0abf 31d3 8d3d
00000340: c38f c7bd ab08 b8bd 3e28 a73c 20ac 96bd
00000350: ed57 463d c3c0 81be 0620 d53c 1451 c2bd
00000360: 8864 c3bd f1f1 17be d0ce b8bd 68ab 84bc
00000370: 6ed5 a0bd 11c4 febc 8218 003c 342c f3bd
00000380: fa41 2bbd b1c0 1abe 7e07 02be 9cca 48bd
00000390: 53d8 73be deba 2ebe 8667 18bf a0af 03bb
000003a0: 9dc8 5a3d 127c 31be d619 213d b081 92bd
000003b0: bc8c 82bf dae4 8bbd fab9 83bd ccd0 993d
000003c0: e8e4 963d d98d 68bd a0d8 0cbe 1bd1 cdbd
000003d0: 73a4 85bd 7c9e e33b 5554 a8bd 05e3 963d
000003e0: a4c1 b9bd 48e6 013d 4dde 06bd 87b6 edbc
000003f0: 8ce8 583d d990 fcbd d7ab 0fbe ad0d fbbe
0.001145979 -0.057939164 -0.24540225 0.047589272 -0.011051459 -0.25494748 -0.18123087 -0.15235828
-0.1626099 -0.04631093 0.037965454 0.08731372 0.028811678 0.042669002 0.076938726 -0.3060001
0.035944916 -0.8232177 -0.38990927 -0.26890698 -0.36496013 0.041489705 0.015837617 -0.025127426
-0.21128012 -0.13334805 -0.7924341 -0.12357377 0.009717063 -0.038062528 -0.01058814 -3.3594186
-0.11928656 -0.009969503 -0.018830014 -0.05115949 0.02155311 -0.013117242 -0.19371602 -0.18564098
-0.1602502 0.0054699816 0.037582025 0.059883736 -0.04925327 -0.15865953 -1.5259683 -0.09371872
0.019907333 -0.1670599 -0.116060756 -0.13272266 -0.04009682 -0.025785295 -0.22282733 -0.041954227
-0.28652892 -0.21837305 -0.19804615 -0.06674584 -1.1624837 -0.07994519 -0.03503274 -0.20061725
-0.028873276 -0.07953766 -0.62713116 -0.046529282 -0.19048588 -0.08398799 -0.14684068 -0.06917408
-0.21017905 -0.051939595 -0.14202751 -0.18409637 -0.15040968 0.027378306 -0.38992944 0.01455763
-0.09908949 -0.09186315 -0.08741433 -0.025097817 0.06636393 -0.30361763 0.042057604 0.01894851
-0.14688301 -0.1521701 -0.015049665 -0.051724773 -0.15397632 -0.07534977 -0.07690057 -0.13440262
0.014055668 -0.09884968 -0.042472344 0.05181928 -0.09916992 -0.20543243 -0.6549452 -0.029359337
0.011994034 -0.17832546 0.0569925 0.058007248 -1.1161908 -0.16228816 0.060864616 0.048337568
0.07995199 -0.12370919 -0.1516235 -0.19699572 -0.09443582 -0.01043622 -0.009229485 -0.0604158
-0.17808038 -0.009073972 0.015580878 0.024330612 -0.05414272 -0.17977497 -0.23931547 -0.5090444
-0.09523063 -0.049940333 -0.2222086 -0.047508597 -0.0910826 -0.26497993 -0.10812435 -0.1445181
-0.1633352 -0.14544807 -0.0005065054 0.0038716483 0.042448085 -0.05363999 0.06512756 -0.37951744
0.030198514 -0.75138855 -0.55035126 -0.2553341 -0.3283272 -0.07943061 0.020282403 0.08634401
-0.14421035 -0.1611207 -0.6464966 -0.13733478 -0.050561633 -0.048417334 0.011406074 -3.5043514
-0.08861477 0.011816405 0.009221371 -0.10225355 0.08250753 -0.13805695 -0.032668844 -0.13696845
-0.022704734 -0.058957767 0.009333141 -0.07427094 -0.29944247 -0.1359912 -1.440936 -0.043661978
-0.033040285 -0.19034503 -0.15898132 -0.059358556 -0.006920996 -0.07275317 -0.30181688 0.033549577
-0.27333382 -0.09254589 -0.20064852 -0.006292305 -0.91665405 -0.15269542 -0.028619612 -0.17912333
-0.08634037 0.027210163 -0.5539258 -0.06891769 -0.04066135 -0.13391335 -0.025436675 0.021050498
-0.27107406 0.03409701 -0.26261196 -0.18335336 -0.20546442 0.06010224 -0.5428701 0.06925047
-0.09744217 -0.08986028 0.020404931 -0.07357049 0.048423696 -0.25342378 0.026016247 -0.09488121
-0.09540659 -0.14838387 -0.09023821 -0.016195014 -0.078532085 -0.031099351 0.007818343 -0.118736655
-0.041810967 -0.15112568 -0.1269817 -0.04902135 -0.2381299 -0.17063472 -0.59532964 -0.0020093694
0.053413976 -0.17332485 0.03933128 -0.07153642 -1.0199199 -0.06830759 -0.064319566 0.07510528
0.07367879 -0.0567759 -0.13754511 -0.10049649 -0.06525507 0.006946383 -0.0821921 0.07367519
-0.09070137 0.031713754 -0.032926846 -0.0290177 0.05295615 -0.12332315 -0.14030395 -0.4903387

l_action0.bias f4 [100]
00000000: 8d0b 86bd 3726 debc 7221 f1bd d981 82bc
00000010: fcd4 58bd f0fe 26be 0c45 29be 3477 a8bd
00000020: dbef 3bbe d7d7 afbd f2a4 debd e79b 5ebd
00000030: 6c30 1cbd c703 20bd 5ee3 24be fe47 23be
00000040: 90f9 32be fb3c 9bbd 4b4f 05be 23d7 1bbe
00000050: 2dc7 45be 289a a0bc f442 d1bc 94c4 dfbc
00000060: 9df9 d83b 5097 49bd 1a1b 24be cad3 e0bd
00000070: 88e0 e6bd ceee 1fbe 9724 43be 375a eebd
00000080: 98ec eebd 44f9 cbbd 3767 45be b5f2 4abe
00000090: 8808 00be 2e4f 58bd 96c1 b8bd 72c1 5ebd
000000a0: 497a 46be 6c87 3fbe f26d 0abe 6d8c d8bd
000000b0: 5e68 75bd ffae 04be 8950 19be 0b9f 37be
000000c0: 07f4 44bd 4121 98bc 0e51 0e3d 1f71 873c
000000d0: 0cc9 703d 6365 fa3d fda0 113d 3bfd 743d
000000e0: 643c 023d a60c a73c c590 d8bc 4a20 df3c
000000f0: 45b4 a73d b388 063e 3e02 853d d3b8 0d3d
00000100: 09c9 d53c 7478 f1bc 799e 043e 19be 043d
00000110: 1658 053e 3fe1 e83d 2ec5 913d c12d 3c3d
00000120: bc21 283d 49d7 a03d 3196 1d3e bfd2 b83c
00000130: a6af 24be 99ff 38be cf88 36be cb79 5dbe
00000140: c6a1 74be 7e0f 51be 08a1 a2bd d040 1dbe
00000150: cbab debd 5c6e e1bd 0df2 a2bd aa1c 47be
00000160: 4940 1dbd 58c7 c2bd 82f9 c0bd ad32 7dbd
00000170: 84fe eebd eed5 dcbd a6d5 10be 104b 83bd
00000180: 9168 e7bd de10 25be c901 1cbd 8b49 0abd
-0.06545172 -0.027117832 -0.11773957 -0.015931057 -0.052937493 -0.16308188 -0.16530246 -0.08225861
-0.18353216 -0.0858609 -0.108713046 -0.0543479 -0.038132116 -0.039066102 -0.16102359 -0.15945432
-0.17478013 -0.075799905 -0.13018529 -0.15218787 -0.19314261 -0.019604757 -0.025544621 -0.027315415
0.006621553 -0.04921657 -0.16025963 -0.109778956 -0.11273295 -0.1561844 -0.19056927 -0.11638301
-0.116662204 -0.09959653 -0.19277655 -0.19819148 -0.12503254 -0.052809887 -0.090212986 -0.054383703
-0.19382586 -0.18704003 -0.13518503 -0.10573659 -0.059913985 -0.1295738 -0.14972128 -0.17931764
-0.048084285 -0.018570544 0.03474527 0.016533433 0.058785483 0.12226369 0.03555392 0.059811812
0.031795874 0.020391773 -0.026436219 0.027237076 0.081886806 0.13138084 0.06494568 0.03460009
0.026096838 -0.029476382 0.12951078 0.032407854 0.13021883 0.11371087 0.07117687 0.04594207
0.041047797 0.078535624 0.15389325 0.022561429 -0.1608263 -0.18066253 -0.17825626 -0.21628492
-0.23889837 -0.20416066 -0.079408705 -0.15356755 -0.10872611 -0.110073775 -0.07956324 -0.19444528
-0.038391385 -0.09510678 -0.0942259 -0.061815906 -0.11669639 -0.10782991 -0.14144 -0.064108014
-0.11299241 -0.16119716 -0.03808764 -0.033761542

l_action1.weight f4 [100, 128]
00000000: 85f1 50bd 8882 633d a1e8 acbe 70f6 cfbc
00000010: ad99 3cbd 51e7 96be 6b9e 52be 9039 2bbe
00000020: 5b79 84be 058e cfbd cc68 6fbd d1f8 9ebd
00000030: 42de e93c ec7e 9c3c a85a 4e3c 0e26 c6be
00000040: f0bd 783c a337 b4bf 4092 07bf 23e6 68be
00000050: 777a 8fbe 9af6 4bbd 2b44 84bd 021d 9cbc
00000060: 5181 84be a418 3fbe 7463 dabe 4011 c8bd
00000070: 11cf 903d cf48 b2bd a51b 6bbd 1c9c 61c0
00000080: 24f0 c7bd 6a52 133d 5b58 a8bd 52e0 c1bd
00000090: 4c76 0d3d d7c1 cdbc e1aa 08be dcfe 22be
000000a0: 4c20 3bbe 5c0d dfbd bafd adbb cfca 7d3d
000000b0: 7665 61be 0b49 13be ada8 c7bf 78c1 4dbe
000000c0: d86d dc3b 0f2c 78be b294 67bd 58ce 2bbe
000000d0: 76bb 92bd 268d e3bd e7f2 4bbe 4757 30bc
000000e0: 4603 97be 30a4 b6bd 8391 85be 55f5 dabd
000000f0: b240 84bf 5e70 c1bd d085 07be 0575 94bd
00000100: 7184 413d cacf e0bd 516d bfbe a326 7fbc
00000110: 80d5 3abe ff9c 80bd 4196 74bd b095 9c3b
00000120: b827 34be 5369 1d3d 9396 9cbe 48ac 3abe
00000130: 8b80 5abe 08b0 b73b a1bc ecbe 86fa 283d
00000140: 249e 42be 14a1 91bd 0a6e 57bd 1bfa 48be
00000150: d2f7 a4bd 185f 56be 3d7e e239 6b41 a0bc
00000160: 06d8 ebbd d5ba 06be c0f5 e03c c2f1 ea3c
00000170: ab35 d2bd bf9b 1cbe 005f 86bc 9da6 dfbd
00000180: 5004 94bc 176c 3ebe de59 a6bd 89b6 52bd
00000190: c80a ffbd 7bcc 79be bbed 28bf 74fa d3bc
000001a0: 8d86 283d 4b0f c7bd 3843 cfbd 0e25 2bbd
000001b0: 68c1 abbf 2957 38be 1c10 d5bb 4c4f d8bc
000001c0: d0a9 843b 8816 c4bc 4ea0 dcbc ab93 a7bd
000001d0: 3774 13be 81c5 963d 7f4b 47be 491b 883d
000001e0: c61f 19be 125d 223d 1c65 30ba 7625 463d
000001f0: 44a9 11bd 1e78 a7bd 7c4e 5fbe 6338 c4be
00000200: 1bfa b2bd 2660 2a3b 93e3 80be 6042 0c3b
00000210: 8ca8 c1bd 943c 76be e539 e0bd bbf9 24be
00000220: c78e 08be 45f3 42be 7f05 0f3d 0dba 92bd
00000230: 07ee 453d 5c6e dabc 7eda 423d 8380 a6be
00000240: 5ed3 9bbd d496 b6bf 05b3 0bbf 4145 adbd
00000250: 078c 89be e0b9 7bbd c5ba 0cbd a634 4c3d
00000260: dd50 93be f552 90bd 5e16 9ebe 708a 3cbe
00000270: 623a d33c 91c4 043d 1e0e ffbc 111f 39c0
00000280: 4962 0e3c 1eb5 4b3d 64f5 6bbd b4c6 3fbe
00000290: 9830 9abd ec7f ecbd 0972 5abe 3358 b4bd
000002a0: 0c92 babd c798 ddbd 68be 863c f730 c73c
000002b0: 4c86 44bf a1ab 1cbe 49de afbf 8c9d b6bd
000002c0: 5a5d 44bd aac8 88be 98ff 4cbe 1ba3 d13b
000002d0: 96aa a1bd 081c bdbc 368c 57be e385 8b3d
000002e0: b2dd cebe 3afa 50be 3a4f 72be 585e 34be
000002f0: 4041 76bf 7db3 63be c27c 2ebe cec2 ecbd
00000300: 1081 01bd cbed 2dbe f9b5 d4be d997 15be
00000310: b19c a6bd 988d 02be 5c09 98bd 0c8a 9a3c
00000320: ede0 61be 1608 033c 28e8 2bbe 8d9f 37be
00000330: aed9 21be 7113 0e3d 1335 05bf f6ad 7c3d
00000340: 3d03 2bbe b801 0bbe 2005 2fbe b02c 6cbe
00000350: 68a9 13bc 5f1c 97be 8804 90bd cf11 d0bb
00000360: 5777 21be 90d8 5fbe 9094 83bc ecc4 ad3d
00000370: 9805 25be 3721 a33a 8c00 083d 0f19 1fbd
00000380: e739 8f3d 1d7e 99bd 735b 39be 3b05 3ebd
00000390: fa31 81be 153e 4dbe 3152 2cbf 9a71 e83c
000003a0: d39a b5bd d1db 62be 6e04 2a3c fab2 493d
000003b0: f713 b6bf df63 12be ada3 12bd baa6 97bd
000003c0: 7af4 e9bc a70a c7bc cb4e 86bd b734 0fbe
000003d0: 9642 08be 959e 933d ec57 48be 5823 413d
000003e0: 09a2 0ebe 8618 a23d b83a 073d ae21 96bd
000003f0: 7f7d 72bd 1a69 9bbd 8e27 32be dbc8 8dbe
-0.05101158 0.055544406 -0.33771232 -0.025386065 -0.046044994 -0.29473355 -0.20568244 -0.16721177
-0.25873837 -0.1013451 -0.05844955 -0.07762302 0.028548364 0.01910349 0.012594856 -0.38700908
0.015182003 -1.4079479 -0.52957535 -0.2274404 -0.2802312 -0.049795724 -0.064583145 -0.0190568
-0.2587991 -0.18661743 -0.42654002 -0.09768915 0.07070745 -0.087052934 -0.05739941 -3.5251532
-0.097626 0.035967268 -0.082199775 -0.09466614 0.034536645 -0.025116844 -0.13346435 -0.15917534
-0.18274039 -0.1089122 -0.0053097876 0.06196099 -0.2201136 -0.14383332 -1.5598351 -0.20093334
0.0067269616 -0.24235557 -0.05653829 -0.16777933 -0.071646616 -0.11110906 -0.19916879 -0.010762996
-0.29494685 -0.08918035 -0.2608758 -0.106913246 -1.0332243 -0.094452605 -0.13234639 -0.07248882
0.047245447 -0.109771326 -0.3738809 -0.015573177 -0.18245506 -0.06279945 -0.059713606 0.0047785863
-0.17593277 0.038430523 -0.3058363 -0.18229783 -0.21338098 0.0056057014 -0.46237662 0.041254543
-0.19005638 -0.07110801 -0.052595176 -0.19626658 -0.080550805 -0.20934713 0.00043200134 -0.019562444
-0.115158126 -0.13157208 0.027460933 0.028679732 -0.102641426 -0.15293787 -0.016402721 -0.10920451
-0.018068463 -0.1859592 -0.081226096 -0.05144361 -0.12453228 -0.2439441 -0.6598775 -0.025876261
0.041143943 -0.09719714 -0.10120243 -0.041783385 -1.3418398 -0.18001999 -0.0065021645 -0.026405
0.0040485635 -0.023936525 -0.026931908 -0.08182462 -0.14399801 0.0736189 -0.19462393 0.06645829
-0.14953527 0.03963954 -0.00067289337 0.04837557 -0.035561815 -0.081772074 -0.21807283 -0.3832427
-0.0873911 0.002599725 -0.25173625 0.0021401867 -0.09455976 -0.24046546 -0.109485425 -0.1611089
-0.13335715 -0.19038112 0.03491735 -0.071643926 0.048322704 -0.026663952 0.04757165 -0.32519922
-0.076086745 -1.4264779 -0.5457004 -0.08460475 -0.26864645 -0.06145656 -0.034357805 0.049854897
-0.2877263 -0.07047073 -0.3087644 -0.18412185 0.025784675 0.032414023 -0.031134661 -2.8925211
0.008690425 0.049733274 -0.05760707 -0.18728143 -0.075288 -0.11547837 -0.21332563 -0.08805885
-0.091098875 -0.108201556 0.016448215 0.02431534 -0.7676742 -0.15299846 -1.3739711 -0.089167684
-0.04794059 -0.26715595 -0.20019376 0.0063976175 -0.07893865 -0.023084655 -0.2104958 0.06812646
-0.40403515 -0.20407954 -0.23663035 -0.17614114 -0.96193314 -0.22236438 -0.17039779 -0.115605935
-0.031617224 -0.16985242 -0.41545084 -0.14608707 -0.08135355 -0.12749326 -0.0742366 0.018864654
-0.22058459 0.007997533 -0.1678778 -0.17931958 -0.15805694 0.03468651 -0.5203411 0.06168934
-0.16700454 -0.13574874 -0.17091799 -0.23063922 -0.009012558 -0.29513833 -0.07032114 -0.006349779
-0.15768181 -0.21859956 -0.016062051 0.084848255 -0.16115415 0.0012445812 0.033203647 -0.038842257
0.06993466 -0.07494757 -0.18101291 -0.046391707 -0.25233442 -0.20043214 -0.67312914 0.028374482
-0.08867421 -0.22154166 0.010377033 0.04924295 -1.4224843 -0.1429591 -0.035800625 -0.074048474
-0.028558958 -0.024297072 -0.06557997 -0.13984953 -0.1330665 0.072079815 -0.1956479 0.047152847
-0.13928999 0.07914834 0.033014983 -0.07330643 -0.059201714 -0.07588406 -0.17397901 -0.27692303

l_action1.bias f4 [100]
00000000: c60b 20be 93ed 04be db94 c0bd e2d1 55be
00000010: b6a8 3fbe 86b5 5dbd cf9c 00be 60db 4fbd
00000020: 1555 c9bd 3bbb 1dbd 7011 00bd 199c 2abe
00000030: 5600 95bd 782c c2bd d8ad 8abd ef78 acbd
00000040: 8fef 9cbd 94c6 d7bd 33bc d2bd 2132 20be
00000050: 2102 36be f6cb fbbd f7f2 3fbe 2d3e 8cbd
00000060: d2ac d1bd f58a d4bd 281c 28be f762 35be
00000070: b45f 30bd 07fa c0bd d3c3 e2bd b49a 11bd
00000080: f5e7 4cbd a105 32be 0f36 dbbd 3285 b4bd
00000090: e2df bbbc a419 e9bd 7bfb cbbd d58a 10bd
000000a0: 447f 12be 4e42 34be 6979 2dbe e057 40bd
000000b0: ec60 0cbe 0b7a 22be c04f cabd 3b0a 1cbe
000000c0: d729 25be a61f 8dbd 0795 833d 1248 063e
000000d0: 1264 e33d 1331 49bb 70a4 613d bec4 e43d
000000e0: b980 8e3d 83ef ee3d dd09 993c d897 90bc
000000f0: c2d7 b23b 6a23 b43d 4a31 a13d 8d0b f13d
00000100: 0d93 19ba e3df f73d a91e 163d 5e98 e23c
00000110: cb0c 123e a52d 343e 14db 0c3e ecba 163e
00000120: 558c 493d 09d0 a23d aa66 103e c764 5b3e
00000130: 63a1 65bd 1427 13be d38e f7bd ccf0 46be
00000140: d885 c6bd a108 56be f8f0 afbd 3f7c f5bd
00000150: 0ea2 2bbd 9c71 2ebe b73b b9bd 1a0e 94bd
00000160: 54c4 22be cf69 84bd 7c28 e0bd 1430 13be
00000170: da7f f7bd 33b8 12be 84b4 43be 3226 05bd
00000180: 2564 61bd 5453 73bc 77cc 47be 14a7 08be
-0.15629491 -0.12981252 -0.09403392 -0.20880845 -0.18716702 -0.054128192 -0.12559818 -0.05074632
-0.09830681 -0.038508635 -0.03126663 -0.16661109 -0.07275455 -0.09481138 -0.06771439 -0.08421504
-0.0766288 -0.10535923 -0.102898024 -0.15644123 -0.1777425 -0.12294762 -0.18745027 -0.068477966
-0.10238041 -0.103780665 -0.16416991 -0.17713533 -0.04306002 -0.09422689 -0.11072507 -0.035547927
-0.0500259 -0.1738496 -0.1070367 -0.088144675 -0.022933904 -0.11381844 -0.099600755 -0.03528865
-0.1430636 -0.17603418 -0.16940846 -0.046958804 -0.13708848 -0.15866868 -0.09878492 -0.15238278
-0.16129242 -0.06890802 0.06424909 0.1311343 0.11103071 -0.0030699417 0.05508846 0.11170338
0.06958146 0.11666777 0.018681461 -0.01765053 0.0054578492 0.08795817 0.07870729 0.11769781
-0.0005858399 0.1210325 0.036650334 0.027660545 0.14262693 0.17595537 0.13755447 0.14719743
0.049206097 0.07949836 0.14101663 0.21425162 -0.056062113 -0.14370376 -0.120877884 -0.19427794
-0.096934974 -0.20901729 -0.08590883 -0.11986589 -0.041902594 -0.17035526 -0.09044593 -0.07229252
-0.15895206 -0.06465494 -0.10945222 -0.14373809 -0.120849326 -0.14328079 -0.1911183 -0.03250713
-0.055027146 -0.01485141 -0.19511591 -0.13344985
