models/checkpoints/checkpoint.pth (torch_old, 4163 bytes, 6 tensors)

fc0.weight f4 [24, 4]
000000 28 ad 40 be 72 c4 08 3e bc 2f 31 3e 94 ac 9b bd
       -0.18816054 0.13356188 0.17303365 -0.07601276
000010 36 bf d1 bd 00 a6 42 3d 6d 5a e0 be 38 62 d4 3e
       -0.10241549 0.04752159 -0.4381899 0.41481185
000020 b6 8d a5 bd 07 72 b5 3d 04 7b e4 bd fd 5f 62 bd
       -0.0808367 0.088596396 -0.11156276 -0.055267323
000030 f0 61 28 bf 31 69 84 be d5 62 86 3e a7 02 b6 3d
       -0.6577444 -0.25861505 0.26247278 0.08887225
000040 27 06 c2 bd a4 73 a1 3d 98 a8 8a 3c ab 3d 13 be
       -0.0947383 0.07883385 0.016926095 -0.14378993
000050 1c ea 72 be 59 9f c9 3e 87 62 44 3e 1f a9 94 3e
       -0.23722118 0.39379385 0.1917821 0.2903528
000060 0d 07 19 be db 93 9c bd 27 22 1b bf bf 96 1f bf
       -0.14944096 -0.07645389 -0.6059899 -0.62339395
000070 35 82 05 bf 3c 56 d9 3b 46 94 32 3f 65 bd c2 3e
       -0.52151805 0.0066325944 0.697575 0.38035122
000080 3b c4 15 bb a9 a5 58 be c9 26 c4 bf d3 01 0e bf
       -0.0022852558 -0.21156944 -1.5324336 -0.55471534
000090 70 3d c6 be 56 86 e8 3e 33 a2 d8 3f 6a 12 d0 3e
       -0.38718748 0.4541499 1.6924499 0.4063905
0000a0 85 1c aa 3e df 51 9f be 84 86 54 bf 06 e0 cc be
       0.33224884 -0.3111715 -0.83017755 -0.40014666
0000b0 4f aa 20 bf b9 10 19 be 97 f4 85 3f 6c 68 b4 3e
       -0.6275987 -0.14947785 1.0465268 0.35235918
0000c0 42 f3 5b 3e 3b 59 4b 3e 19 5f 09 3f a9 ea ec 3e
       0.21479514 0.19858257 0.5366073 0.46272781
0000d0 cf 9a 76 bd 55 a5 29 3c a4 fa 84 3f 69 1b 9d be
       -0.06020623 0.01035436 1.038899 -0.30684975
0000e0 a8 ee e6 3e 30 0d 9c be 89 7a b6 bf 75 72 7c be
       0.45103955 -0.3047881 -1.4256145 -0.24653037
0000f0 31 eb e0 3c 41 f8 c7 3d ca 0c 31 3c 89 80 e7 3d
       0.027455898 0.097641475 0.010806272 0.11303813
000100 56 9a 8c 3e c2 a5 de bb e8 1e 35 3c 79 bd 3b 3e
       0.274615 -0.006794662 0.011054732 0.18333997
000110 76 2e b4 3b f7 9e 4a 3e 88 20 28 3d 94 f1 46 bd
       0.0054987026 0.19787203 0.04104665 -0.04857023
000120 bd 54 49 be 25 f8 93 3e e6 a8 30 3f 3f 38 bf 3e
       -0.19661231 0.28900257 0.6900772 0.373476
000130 f3 a1 52 3e 7c 9d a6 be 3d 3e 0d 3e e4 85 69 be
       0.20569591 -0.32542026 0.13793273 -0.22804981
000140 94 43 00 bf 07 90 cd 3e 01 a6 4a 3f 21 19 c0 be
       -0.50103116 0.40148947 0.7915955 -0.37519172
000150 a0 b7 f3 bb 2d 74 3d be 10 bc 76 3e 7d 63 42 be
       -0.0074376613 -0.18501349 0.24095178 -0.18983264
000160 90 59 91 3e 4d 20 b0 be 51 3f be be 5f f2 ae 3d
       0.28388643 -0.34399644 -0.37157682 0.08542322
000170 48 d2 a3 3d a5 0f 72 3b 89 4d 1b 3e d1 84 33 be
       0.07999092 0.0036935594 0.15166296 -0.17531134

fc0.bias f4 [24]
000000 41 38 01 3f 56 4e c0 3e 98 b1 dd be 8d 10 bd be
       0.5047646 0.37559766 -0.43299556 -0.3692669
000010 2c af 4e 3f 03 84 db 3e e5 2d 83 be 95 8c 22 bf
       0.8073604 0.42874154 -0.25620952 -0.6349576
000020 3a f8 19 bf ce ae 83 bd f0 44 17 bf 2c b0 24 bf
       -0.6014439 -0.06429826 -0.59089565 -0.64331317
000030 dc 3e 39 be e3 87 52 3e f9 a9 f7 be 04 6b 27 3f
       -0.18090385 0.20559649 -0.48371866 0.6539767
000040 99 06 00 bf 33 f7 4e 3f 93 0b 3f 3f 32 e3 05 bf
       -0.5001007 0.80845946 0.74627036 -0.522998
000050 e0 18 2a be 75 34 c3 3e 02 5f f8 3e 78 9a c8 3e
       -0.16611052 0.3812596 0.48509985 0.3918035

fc1.weight f4 [24, 24]
000000 1a f0 3d 3e 4f 37 0c 3e 85 4f c7 bd c3 ec df bd
       0.18548623 0.13692974 -0.09731964 -0.109338306
000010 8d b8 46 3d 65 ad c0 bd 0e 75 25 be 4c 52 02 bf
       0.048515845 -0.094080724 -0.16157934 -0.50906825
000020 50 38 60 bf bd 05 69 bf b1 17 00 bf bd 56 91 be
       -0.87585926 -0.9102438 -0.5003615 -0.2838649
000030 13 27 8f be 45 6d e9 3d 69 2f a2 bf 6e 1a 53 3e
       -0.279595 0.11397795 -1.2670718 0.20615551
000040 02 61 2a be 51 3f 5d 3e d0 bd 79 3e 02 da b9 3d
       -0.16638568 0.21606185 0.24388814 0.09074785
000050 74 a7 86 3e 6c 8e b1 3e 10 67 d6 3e 8e 73 49 3d
       0.26299632 0.34678972 0.41875505 0.049182467
000060 1d c5 3b be ac 2f c6 bd 30 53 0e 3e 80 70 ad ba
       -0.18336911 -0.096770614 0.13898921 -0.001323238
000070 d3 c9 cf bd 48 2d 20 be 5f 9d 43 be d0 6a 30 be
       -0.10145917 -0.15642273 -0.19103001 -0.17228246
000080 1c 97 29 bd 54 42 e5 3d 54 03 e2 3d ad 96 49 be
       -0.041403875 0.11194292 0.11035791 -0.19686384
000090 88 62 02 3e 05 90 23 be 30 c2 30 bd 9e 81 a9 bd
       0.12732899 -0.15972908 -0.04315394 -0.08276676
0000a0 50 0b 21 bd 20 29 24 bd 20 91 3b be 7e 7a 34 be
       -0.03931743 -0.040078282 -0.1831708 -0.17624852
0000b0 d0 d4 02 bd 00 00 2d 3b 6e e8 bd bd 4c 7a 9d 3d
       -0.031941235 0.0026397705 -0.09272848 0.07689342
0000c0 c6 7f c3 bd 42 c1 1d 3e 86 59 17 3e 6f 75 81 be
       -0.09545855 0.15405753 0.14780244 -0.25284907
0000d0 68 42 d5 3e d3 30 08 3e 68 ac cd be 8b 5b 9a be
       0.41652226 0.13299875 -0.40170598 -0.30147967
0000e0 cd 7e 6a bf c1 87 61 bf d1 e3 c1 be d0 8a ee be
       -0.9159973 -0.8809777 -0.37869123 -0.4659028
0000f0 c5 78 10 be 6e d6 93 3d b6 7c b8 bf 3e 5e 98 3e
       -0.1410857 0.072186336 -1.4413059 0.297594
000100 f5 7a 7f bd da 9b 97 3e 54 9a 6f 3e 46 cd 82 bd
       -0.06237312 0.29611093 0.23398715 -0.06386809
000110 9a 3a 14 be 24 50 9b 3e 4f ff c9 3e a4 3d 27 3e
       -0.1447548 0.3033458 0.39452597 0.16332108
000120 48 18 2d be 38 a0 86 bc f8 58 13 be aa 0a f9 bd
       -0.16903794 -0.01643382 -0.14389408 -0.12160237
000130 8b bc 13 be e3 56 2d 3d 71 4c fe bd c1 2c bd bc
       -0.14427392 0.04231919 -0.12416924 -0.02309263
000140 00 b1 0c 3c 0e 4d aa 3d 39 01 1e be ff 68 1a be
       0.008587122 0.08315478 -0.15430154 -0.15079115
000150 96 5a 10 be 6d 52 de 3d e4 45 96 bd 22 78 14 3e
       -0.14097056 0.10855565 -0.07337549 0.14498952
000160 30 2b 97 3d 93 9b 88 39 d3 4b fc bc b4 47 25 bd
       0.07381284 0.00026055853 -0.030797875 -0.040351585
000170 3f af 0e bc 3f 2b a4 bd e0 21 c9 bc 80 e7 f8 b8
       -0.008708774 -0.08016061 -0.024552286 -0.00011868682
000180 50 41 da bc 66 f5 48 3e e0 c8 28 3e 6b 67 57 3e
       -0.026642472 0.19624862 0.16482878 0.21035545
000190 1a e6 1d 3e 14 19 33 3e 63 df 71 bc 75 75 95 be
       0.15419808 0.17490035 -0.014762732 -0.29191175
0001a0 d8 ad 8e bf 3b a9 d6 be 8e 16 0b bf 18 33 f6 be
       -1.1146803 -0.41925988 -0.5433129 -0.48085856
0001b0 b9 57 c0 be 24 8b 28 3e d9 eb 40 bf 80 99 b4 3e
       -0.37566927 0.16459328 -0.75359875 0.3527336
0001c0 fa 7a cf 3d 7c 4e 93 3e 71 d3 da 3e 2d de 22 be
       0.10130878 0.28770816 0.42739442 -0.15905066
0001d0 17 13 12 3e 1d 82 9c 3e 9a 2c 31 3e 02 dc 68 3d
       0.14265095 0.3056802 0.1730217 0.05685044
0001e0 c9 d6 2c 3e d5 02 83 3e 6f 77 42 bd 33 dd 84 be
       0.16878809 0.25588098 -0.047477182 -0.25950012
0001f0 d1 49 c4 3e 73 9a 18 be da 87 a5 3d 2e 1d 21 bf
       0.38337567 -0.14902668 0.08082552 -0.6293515
000200 ee 9e 3c bf e0 58 53 bf bd 4c 00 bf b1 ae b4 be
       -0.7368001 -0.8255749 -0.50117093 -0.3528953
000210 74 10 3d 3c 56 e7 70 3d c1 a6 ad bf 77 ed 2a 3e
       0.011539567 0.05881437 -1.3566514 0.16692148
000220 69 34 c1 be a3 2c b0 3e 0d 81 d2 3d 8e ee 3a be
       -0.37735298 0.34409055 0.10278521 -0.18255064
000230 cd 95 40 bd 7f a4 b8 3e 5c 0d a7 3e cc 90 54 3e
       -0.04701786 0.36063 0.3262738 0.2075836
000240 94 a2 97 3d 50 9c 8b bd 00 a5 69 bd b8 01 77 3d
       0.07404056 -0.068169236 -0.057042122 0.060304374
000250 04 d3 2b 3e b8 53 63 3d f1 cb c5 bd 9c 83 c4 bd
       0.16779715 0.055499762 -0.09658039 -0.09595415
000260 f9 9f 45 be d8 a2 34 3d aa 99 ea bd 27 5c 3a be
       -0.19299306 0.044100612 -0.1145509 -0.18199216
000270 98 49 37 3e f2 bd 07 be f8 3a be bc 00 89 6f 3d
       0.17899168 -0.13256052 -0.023221478 0.058480263
000280 a0 17 d5 3b d9 a5 0c be 3b f5 28 be d2 9b 26 3e
       0.0065030605 -0.13735141 -0.16499798 0.16270378
000290 f0 25 08 3d 24 69 2d 3e 66 25 8c bd 90 46 76 3d
       0.033239305 0.16934639 -0.06843071 0.060125887
0002a0 ab 32 6b bd ed 20 75 bc ca b3 00 be 34 62 8d 3d
       -0.057421368 -0.014961463 -0.12568584 0.069034964
0002b0 59 4b 68 3d 3c a8 25 bc de 1c 97 bd 1c d9 00 be
       0.056712482 -0.010110911 -0.07378553 -0.1258282
0002c0 6c 39 de 3d 54 94 15 be de e8 6d 3d cc 91 8c bd
       0.10850796 -0.14607364 0.058083408 -0.06863746
0002d0 a7 b1 c9 bd c0 c1 8e 3c c4 c1 09 be 22 24 25 3d
       -0.098483376 0.017426372 -0.13452822 0.040317662
0002e0 4c 31 24 3d 89 99 23 be a4 2c e6 3c e0 0e b2 3d
       0.040086076 -0.15976538 0.028097458 0.086942434
0002f0 42 1c 6b 3d 6a eb 33 bd 5c 5f 31 be e1 03 39 bd
       0.057399996 -0.04392568 -0.17321533 -0.045169715
000300 91 71 30 3e b7 78 0b 3e 6b 39 9c 3d 63 02 d8 bd
       0.17230822 0.13620268 0.07628139 -0.1054733
000310 c1 90 1b 3e 8f bb 20 3e 9f 34 1f bd 30 77 eb be
       0.15191938 0.15696548 -0.038868543 -0.4598937
000320 c5 3f 4d bf e0 64 48 bf 92 4c 24 bf 73 79 a9 be
       -0.8017543 -0.78278923 -0.6417934 -0.3310047
000330 53 30 a9 bc 65 d5 99 3e 9f e0 ac bf 25 f5 a8 3e
       -0.020652926 0.3004562 -1.3506049 0.3299953
000340 e8 4a 97 bd b2 21 12 3e e2 f6 65 3e ad 22 5a be
       -0.07387334 0.14270666 0.2245746 -0.2130229
000350 59 15 86 3e 7c 52 b6 3e 58 7f f7 3d b4 a3 05 3e
       0.26188162 0.35609806 0.12084836 0.13050729
000360 f8 47 52 3e 13 69 b4 3e aa e2 01 3e 95 a9 6d 3c
       0.20535266 0.35236415 0.12684122 0.014505764
000370 b0 4f 0c 3e 56 fc 49 bc 8f 5c 0e be a4 83 a7 be
       0.13702273 -0.012328228 -0.13902496 -0.3271762
000380 2e c9 7b bf 22 e4 02 bf d9 8a b4 be 11 da 2d be
       -0.9835385 -0.51129353 -0.35262182 -0.16977717
000390 66 a9 92 be 67 57 11 3e 5d d4 ba bf 57 9f b8 3e
       -0.28644866 0.14193498 -1.4596058 0.36059067
0003a0 fe bc 3c be c3 4e 8b 3e 25 01 a1 3e f4 39 ae 3d
       -0.1843147 0.27208528 0.31446186 0.085071474
0003b0 fb 09 d2 bd eb bf 59 3e 22 39 4a 3d e3 4d 32 3d
       -0.1025581 0.21264617 0.049370892 0.04353131
0003c0 df a7 ae bd 1c 17 fa bc 2d 5c 62 be 83 06 bb bd
       -0.085281126 -0.030528598 -0.22105475 -0.091321014
0003d0 96 29 bc 3e 4f 6b ac 3e d6 1e 04 be 49 df 2d bf
       0.36750478 0.3367562 -0.12902388 -0.6791883
0003e0 23 79 8a bf 0e 63 78 bf 72 27 4f bf cb 28 5c be
       -1.0818218 -0.97026145 -0.80919564 -0.21499936
0003f0 12 98 9f be 84 c4 ba bc be 65 f5 bf 2b 98 30 3e
       -0.31170708 -0.022798784 -1.9171674 0.17245547

fc1.bias f4 [24]
000000 5d ef d4 3e 00 fb 1a be 1c 03 a4 3e 37 36 be 3b
       0.4158887 -0.15134811 0.32033622 0.0058048028
000010 5b 45 67 3d 89 88 be 3e 06 f5 3a be 26 f5 22 3d
       0.056462627 0.37213543 -0.18257532 0.039784573
000020 63 5d 5d 3e 38 cf 4f 3e 00 e9 b1 3e 25 bc e7 3e
       0.21617655 0.20293891 0.34748077 0.4526073
000030 6b 69 e1 3d 75 b0 d0 3e fe 43 6c bd c4 47 7d 3e
       0.11006435 0.40759626 -0.05768203 0.24734408
000040 f8 46 82 3e 7a 6c 4a be 55 35 81 3e 32 03 59 3e
       0.2544477 -0.19767943 0.25236002 0.21192625
000050 e2 59 4c bc 55 4b 00 3d a9 7f ed 3e b6 1e d4 3e
       -0.012472602 0.031321842 0.4638646 0.4142968

fc2.weight f4 [2, 24]
000000 0a f8 38 3f 99 dc 1a be 5c 97 04 3f 58 d7 d4 bd
       0.7225348 -0.15123214 0.51793456 -0.10392636
000010 ac 34 2a bf c7 6d 0c 3f fa 32 44 3e de 39 21 be
       -0.6648662 0.54855007 0.19160071 -0.15744731
000020 59 92 20 3f 3c 18 a0 3e 89 dc 12 3f d5 a4 06 3f
       0.6272331 0.3126849 0.5736776 0.52595264
000030 c0 fc 09 3e ab cb 00 3f 2d 1d 12 be d2 42 18 3f
       0.13475323 0.5031077 -0.14268942 0.5947696
000040 a9 01 40 3f ba b6 f5 bd a3 bc fe 3d 05 59 e8 3e
       0.75002533 -0.11997743 0.12438323 0.45380417
000050 6c 96 02 bf 80 ba 28 3d a0 f2 27 3f ba c9 d0 3e
       -0.51010776 0.041193485 0.6560459 0.40778905
000060 99 87 fc 3e 36 9e 33 3e 37 0b 15 3f 0a a5 9d bd
       0.49322203 0.17540821 0.5822024 -0.07697494
000070 e3 8e 8c 3e 7c 9d 8d 3e 8e 14 28 be 56 52 98 3b
       0.27452764 0.27659214 -0.16414091 0.004648487
000080 1a cf 00 3f 05 aa ed 3e 94 ab 0d 3f 76 05 a5 3e
       0.5031601 0.46418777 0.5533993 0.3223073
000090 dc c8 a9 bd 4e 80 07 3f 73 07 75 bd f7 ef 62 3e
       -0.08290264 0.5293015 -0.059821557 0.22161852
0000a0 e3 2a 29 3f 4a c1 1d 3e 1b 9a c5 be 72 77 31 3f
       0.66081065 0.15405765 -0.38594136 0.69322884
0000b0 bf 4d 22 3f ea f5 07 be 4a 2c b7 3e dd aa fc 3e
       0.6339988 -0.13277403 0.35775977 0.49349108

fc2.bias f4 [2]
000000 fb ab f6 3d b8 8e a9 3d
       0.120445214 0.082791746
