models/checkpoints/checkpoint.pth (torch_old, 84910 bytes, 8 tensors)

fc0.weight f4 [100, 4]
00000000: d96c 993d cce1 71bb 3d7e 9bbe 607e 02be
00000010: 8ef8 bdbd bb6b 4a3e 8e17 8e3e 81e8 173e
00000020: 40fe 7a3b d8c0 c3bb a631 d03b 43e7 0dbc
00000030: a9df 61be 61ce 63be 3e60 4dbe 6737 b6bd
00000040: 7255 4c3d 331f b93a f739 b8be 135a 02be
00000050: b510 443e 2bad c33e 27ed 8abe bad4 973e
00000060: 3c17 b63d 08b3 e7bd 1110 c33e 8639 a8be
00000070: f7f4 9bbd a754 143d 131b 2bbe 93f6 3e3e
00000080: d0ef 3dbe de3a 85be 3ed3 22bf 3954 67be
00000090: 9a91 c4bd 26b0 af3e 7106 3c3e 5fb6 713e
000000a0: 87fe ff3d 7418 21be 998c b53e 21b9 78be
000000b0: 290e f3bd 51b1 c0bd 25a5 0eba dda9 4abd
000000c0: 5aad abbc 15f7 023e 6d6a 4e3e 620a 823e
000000d0: 0d20 c23d afb2 26be f0fd 9d3e 9a40 eebd
000000e0: 33b5 d43c 27f2 9cbe bf1e 47bf b355 abbe
000000f0: 2f46 0e3d 3db7 1e3e a22f 123e f7a4 113e
00000100: b0e3 bc3d 9e60 b53b 4abe b2bd b7a7 263d
00000110: e463 cf3d 2741 133e 5f18 93be c812 8b3d
00000120: 635a c03c 5a13 553e e138 2b3f 604d 7c3e
00000130: 2232 3d3e 39bf d7be 8e23 213d 1f2f a9be
00000140: b9de a0bc c4cf 103d 3951 c23d 240f f5bc
00000150: abec 273d 5f42 09be 8571 2ebd 6224 3bbe
00000160: c995 0d3d 7b33 69bd 792f 053e 9736 96bc
00000170: 800f 3e3e 4eca f8bd af38 47be 259b 13be
00000180: 6869 4a3e 86f9 b4bd c681 0cbe 86a3 07be
00000190: b9f0 a73e 1627 4a3e 2f35 95be ca3a f63c
000001a0: fb35 a0be 4fd3 17bd 72fc dbbe 7c09 97bd
000001b0: f804 17be f4f9 383e e518 063d 0d23 4c3e
000001c0: 28df a33d b1fc a7bb 27bd c33d 6ff2 75bd
000001d0: f9ac 603d 82f1 7f3c 986d 423d 9598 bd3c
000001e0: 90ee 503e f43c 5d3c 2d5d 3bbe 56d0 743e
000001f0: b78f 6bbe 5dbd aabe 999a abbd d6b2 71be
00000200: 1bf8 603c dfaf 8dbe dd3a 12be 3b37 6cbd
00000210: d1f3 21be e312 65bd 4e07 b33e 980c b4bd
00000220: d5a4 863d 6650 273d 8b2d 1a3b bf2e 5b3e
00000230: a55b 2d3e fbe6 223e d9aa 483f eebc 3c3e
00000240: bfa0 57be 2f4c 2ebe 0bd8 ba3d 12c8 09be
00000250: 6bb6 56be b7f3 a0be 8b3e 12bf 6a49 86be
00000260: 32bf eabd 255e 9dbc 3865 9d3e 0c95 48be
00000270: fdcd 963e 0fe6 d2be c59e a4bd f1a9 6abe
00000280: a433 333d a00f 0fbe e120 33be a2dd 81be
00000290: b4c8 2abd 278b 2a3d 3888 6dbe f965 1d3e
000002a0: 94ca 7abe a4af 7b3d 7b80 873e ecfe be3d
000002b0: 637f a93e d2e5 323e 3e23 c0be 726b a03d
000002c0: ef39 0bbe 54e6 44be 205d ae3e 5de2 84be
000002d0: 681d 313e ec97 5cbd a60a ab3e 72a8 5f3d
000002e0: 42c6 4f3e e1eb 883d 48d8 02be 3b29 28bc
000002f0: dd45 5ebe e4f4 853e bcb9 d93e 4ed3 933e
00000300: 825e 9cbe a8fa e4bd 8b33 b9be f9e6 d8bd
00000310: 3004 87be 5d20 f43d 736f 1c3e 830e c53c
00000320: 3809 29bd 3746 623d 8c1f 2dbe 2997 23be
00000330: 42c2 26be 3e7e a73e 59e4 edbd 0c64 aa3e
00000340: 5596 603e a4c6 ad3b e853 873d 7b6d 52bd
00000350: 9944 1f3e b331 8bbd 94ae 2b3d bd31 82bc
00000360: ded3 a4be 4432 7bbe 7a52 8a3e c013 1abe
00000370: ee4f b5bc cb68 813e d4d3 3e3e aa87 bb3d
00000380: 74de c4bd decb d83d 3d70 6bbe 5c30 283d
00000390: 73af 0fbe 1e01 ab3d 015b d6bd d669 223e
000003a0: a45e c03b 661c 323e ef64 093f a425 13bd
000003b0: 1f90 ab3d 815a cabd c3ea 9dbd 6c83 ccbb
000003c0: 22a7 b83b d679 683e 52df 4abe feeb d13b
000003d0: fc0f 3d3e 777e efbe 7527 06be b36b acbe
000003e0: 54fc d93d c582 12bd 9bdc 31be 6194 0cbd
000003f0: 915e ac3e 52a9 5ebe 0b7d 82be e429 2cbe
0.07491464 -0.0036908267 -0.3036975 -0.1274352 -0.09275924 0.19767658 0.27752346 0.14834787
0.0038298517 -0.0059739165 0.006353575 -0.008661094 -0.22057976 -0.22246696 -0.20056245 -0.08897286
0.049886174 0.0014123678 -0.35981724 -0.12729673 0.19146998 0.38218054 -0.27134058 0.29654485
0.0889115 -0.113134444 0.38098195 -0.32856387 -0.07615083 0.036213543 -0.16709547 0.18648748
-0.18548512 -0.26021475 -0.6360358 -0.22590722 -0.09598084 0.34314078 0.18361832 0.23604725
0.12499719 -0.15731984 0.3545883 -0.24289371 -0.11867935 -0.094088204 -0.00054414786 -0.0494784
-0.020956684 0.12789567 0.20157786 0.25398546 0.094787695 -0.162791 0.308578 -0.116334155
0.025965309 -0.30653498 -0.7778129 -0.3346382 0.0347349 0.15499587 0.14275983 0.14223085
0.092231154 0.0055351993 -0.08727701 0.04068729 0.101264745 0.14380322 -0.2872953 0.067906916
0.0234806 0.20808163 0.66883665 0.24638891 0.18476155 -0.4213808 0.03934055 -0.33043763
-0.019637452 0.03535439 0.09488148 -0.029914446 0.04099719 -0.13404225 -0.04258873 -0.18275598
0.034566674 -0.05693386 0.1300639 -0.018336577 0.185606 -0.121479616 -0.19455217 -0.14414652
0.19766772 -0.08836655 -0.1372138 -0.13245973 0.32800844 0.19741473 -0.29142138 0.03005733
-0.31291184 -0.037066754 -0.42966038 -0.07374856 -0.14747989 0.180641 0.032738585 0.19935246
0.08001548 -0.0051265587 0.09557562 -0.060045656 0.05485246 0.015621545 0.047467798 0.023144046
0.20403504 0.013503302 -0.18297262 0.23907599 -0.23004042 -0.33347598 -0.083790965 -0.23603377
0.013731028 -0.27673241 -0.14280267 -0.05766986 -0.15815665 -0.055926215 0.3496651 -0.087914646
0.06574408 0.04084816 0.002352568 0.21404551 0.16929491 0.15908425 0.7838569 0.18431446
-0.21057414 -0.17021249 0.09123238 -0.13455227 -0.20968024 -0.3143594 -0.57126683 -0.26227885
-0.11462249 -0.01920993 0.30741286 -0.19588107 0.29454032 -0.41191146 -0.080380954 -0.2291639
0.04375042 -0.13970804 -0.17493011 -0.25364405 -0.04169531 0.041636612 -0.23196495 0.1537093
-0.2449134 0.0614468 0.2646521 0.09325966 0.33105 0.17470482 -0.37526888 0.078329936
-0.13596319 -0.19228488 0.34055424 -0.2595395 0.17296374 -0.05385582 0.33406562 0.054604
0.20290473 0.06685615 -0.12777817 -0.010263736 -0.21706338 0.261634 0.42524517 0.2887215
-0.30540854 -0.111806214 -0.36172137 -0.105909295 -0.26370382 0.11920235 0.1527689 0.024054771
-0.041268557 0.055242743 -0.16906565 -0.15975632 -0.16285041 0.32713503 -0.116158195 0.33279455
0.21932347 0.005303221 0.06607801 -0.05137394 0.15553512 -0.06796589 0.041914538 -0.015892858
-0.32192892 -0.24530894 0.2701605 -0.15046597 -0.02213284 0.25275263 0.18635494 0.09156735
-0.09612742 0.105857596 -0.22992034 0.041061744 -0.14031772 0.083498225 -0.10466576 0.15860686
0.005870657 0.17393646 0.5366964 -0.03592457 0.08377098 -0.098805435 -0.07710793 -0.0062412526
0.005635158 0.22702727 -0.19811752 0.0064063063 0.18463129 -0.46776173 -0.13100989 -0.33675918
0.10643831 -0.035769243 -0.1736931 -0.034321193 0.33665898 -0.21744278 -0.25486025 -0.16812855

fc0.bias f4 [100]
00000000: aa15 bc3e 7f5d 43bd c292 72bc 56f9 ec3e
00000010: 0d61 b13e ccea c2be e181 153f a9d2 db3e
00000020: fc96 60be dd0d 983e be76 a7be 0699 40be
00000030: 875f f23e 0b16 1d3e 0aa8 26be 361e 72bd
00000040: 6b08 04be eded 0b3e 15e9 ccbc d704 073f
00000050: 4bee ca3d 7ddd b3be 1b3f fdbc 4069 d03e
00000060: 9806 a33e 4d43 1abf 00ce ae3c bfff cabe
00000070: 9e00 adbe f816 923e 66c6 cdbe 5292 8d3e
00000080: e7d6 ec3e f085 2a3e fb93 e2be a780 78bd
00000090: 5d65 1f3e ce11 c7be 8ed3 b33e 64af e5be
000000a0: 05e7 15bf afcd 04bf e22c 8bbe d1ca cc3e
000000b0: d55d fcbe 01ca f83e df0b 98be 9c34 333e
000000c0: a40a 8b3d 57b5 00bf 0451 fe3e 0818 8a3e
000000d0: 4246 083f e58d 903e 481c cdbe 3c54 f03e
000000e0: 0c5a c13d 0699 8d3e e9ff 10bf 0112 5fbe
000000f0: 2a61 2abf 4493 41bc c301 1a3e 3952 ecbe
00000100: e7bd 8e3e e7d5 a13e 09a4 263e 8c6c 06bf
00000110: 0bd3 73bd 60eb 56be de47 8b3e 8d5e 153f
00000120: a43d b53e 1dab 8a3d c13e 673e 9e34 08bf
00000130: a5a1 07bf e770 ac3e 11d0 d4be b286 913e
00000140: f8b7 b4be a4dc 9cbe c655 6cbe 1805 7c3e
00000150: 2268 2bbe 1691 d93e 9252 c43e cfef a33e
00000160: bdf4 233e 5cbb 063e 0d73 dbbd 7bee 8f3d
00000170: d5d0 aa3e a948 9bbe 1bcf ed3e b119 26be
00000180: efd8 d0be 4252 d8be 8819 fb3e 4615 053f
0.36735278 -0.047696587 -0.014805498 0.46283978 0.34644356 -0.3806976 0.58401304 0.42934158
-0.21932596 0.29698077 -0.3270778 -0.18808374 0.47338507 0.1534044 -0.1627504 -0.059110843
-0.12893836 0.1366498 -0.025013486 0.5274176 0.09908732 -0.3512992 -0.03091388 0.407053
0.31840968 -0.6025894 0.021338463 -0.39648244 -0.33789533 0.2853315 -0.40190428 0.27650696
0.46257707 0.16652656 -0.44253525 -0.060669567 0.15566011 -0.3888077 0.3512234 -0.44860375
-0.5855563 -0.5187635 -0.2718268 0.39998487 -0.49290338 0.48591617 -0.29696557 0.17500538
0.06789139 -0.502767 0.49671185 0.2697146 0.53232205 0.28233257 -0.4006064 0.46939266
0.09441003 0.2765581 -0.5664049 -0.21784212 -0.6655451 -0.011814896 0.15039735 -0.4615648
0.2787926 0.31608507 0.16273512 -0.5250938 -0.059527438 -0.20988226 0.27203268 0.583474
0.3539859 0.067709185 0.22582532 -0.5320529 -0.52981025 0.33679888 -0.41564992 0.28423077
-0.35296607 -0.30637085 -0.23079595 0.24611318 -0.16738942 0.42493504 0.38344246 0.32018897
0.16011329 0.1315741 -0.107153036 0.070279084 0.3336245 -0.30328873 0.4644707 -0.16220738
-0.40790507 -0.42250258 0.49042916 0.51985586

fc1.weight f4 [100, 100]
00000000: f794 cbbd 59ce 543d 7233 19bb d434 193d
00000010: 2a2a 943d efc4 853d c5a1 8e3c 9245 bc3c
00000020: 7871 40bd 7e9a 943c e9f6 c5bd 9704 ed3b
00000030: bc4c 36bd dfc5 2ebe f41e b0bd 1aa3 1abd
00000040: 1c85 8abe 7587 04bf 08d5 353d 7fc0 c8bc
00000050: 4349 99bd 9494 c5bc cb88 293c 155b a4bd
00000060: 3748 abbd 3188 92bd f969 f7bd 1b1a 48bd
00000070: da42 503d 1029 82bd b42c 8a3d 07cb a43d
00000080: 1bed c1bd f6e1 b4bd d7c4 b3bd 38da 31be
00000090: f861 78bd b516 0dbe fc19 82bd acc5 9a3c
000000a0: 3c98 b7bd 3885 b53c d128 c6bc bc06 76bd
000000b0: 2d08 a7bd baa5 8a3d d39c a8bd 7db1 92bc
000000c0: 4f35 42bd 8874 8abc 2c32 d3bd 06f1 e6bd
000000d0: 7d42 b83d 6dda 98bd 9013 893c 25c9 9abc
000000e0: 5caf 90bd 6914 2fbd 0a1c 5b3d e263 6dbd
000000f0: bf34 f8bd ac6b 79be bb95 2cbd 121e 4e3d
00000100: a625 b5bd 0da3 9d3d ecc6 02bd 7f80 acbc
00000110: c1bb 3e3e 0404 373d a86f 903d b3ed 483d
00000120: 5fc6 40bd 6c14 0ebe c95f a7bc 0b80 a93d
00000130: 3b6d 18be 37b9 cbbd 9a5d 15be cf0f a13d
00000140: 6836 e9bc d3c6 10bd 242c 9dbd 569c 133c
00000150: 7694 56bd 9c3d 8dbd 1553 c83b 0892 a33c
00000160: da2d 833d a55c 18bf 132b dcbd 8f07 a9be
00000170: 8a6c dfbd 0298 993d f79f 053d 1c22 8b3c
00000180: 7d3d 213d 0b1f a03d e695 9a3d 253e a53d
00000190: 014d 683c 4b19 70bc ebe4 553a 8eb7 253e
000001a0: 7517 7a3d 1337 29bd 2e10 133e d0ad 713c
000001b0: 34b5 97bd 7ccc 9d3d dd7e 023d c5c0 d7bd
000001c0: 9226 133e 2372 593d 1987 2bbd 1a20 9cbc
000001d0: e285 203e d35a 363d 831d b63d 9114 cb3d
000001e0: aa80 7fbc e2e5 d63d 27d1 b63c 030d 5b3c
000001f0: 8c20 9d3d 63f1 bebd 2641 8f3d adef 8e3d
00000200: c7a6 1ebd 8a08 a03d 29fa db3d 24e3 e13d
00000210: e247 c83d 90cc d03d f4ae 4a3d 4b98 9abd
00000220: bbb6 993c c070 2fbe 65e9 a13c 6499 f5bc
00000230: c616 bfbc 1944 973b 57b6 8a3d 10d8 bc3d
00000240: 197a 37bd 1abb 323e 3454 77bd cc9d 173e
00000250: 0fde 233c 01d1 6fbc 0e7d 1a3e 6eb3 0f3d
00000260: f26e 363e 8c1c 423c cfde f5bd 823e 3e3d
00000270: e07c c63d b6e3 143e 48d8 eebc b804 053c
00000280: 4e9c 95bc 8218 7ebd c713 203e dafd cebb
00000290: 985a cc3d 0d0a 273e 0e05 5c3d 8261 ed3c
000002a0: 82b0 c53c 376f 8ebc b6c2 2bbd a56f a53d
000002b0: 0cf0 803d 908b b13d d87d f23d e3ca 4d3d
000002c0: 33ab c03c eb02 c03d 1a22 aa3d 3081 553d
000002d0: d988 b33d 49bf 353c bf9d 2c3a fe35 a33d
000002e0: 80a0 8cbd 5458 033e c2a4 8c3d 6e63 24bc
000002f0: 067f dd3d 1c53 8cbc 5614 09bc b091 9ebc
00000300: c0db fd3d dc20 7c38 4896 b63d b2fa 98bd
00000310: d978 0b3d 12a3 4cbd 5d7c ab3d 518f ba3d
00000320: 8577 ba3c bfb1 173d 39ad b8bc 8403 ac3d
00000330: 17ba 403c c29e 833d c29f 923d ba05 053e
00000340: d383 b83b bbc7 013e 6726 743d 4929 eebd
00000350: 537e 31bd 6416 30bd 2f9f f63d 2bae 95bb
00000360: 6624 df3c 1e9f db3c d200 273d 6c0f 143e
00000370: d079 e73d d841 42bd 0890 2dbd 102f 483c
00000380: 179f 853c 4c16 5c3d 788f f53d 9eff a4bc
00000390: 42ab 2f3d 3251 053c e233 3cbd 2498 243e
000003a0: 3cf0 fb3c 632e 053e 4b0f 6abd 61f6 cd3c
000003b0: 413e 233d 3317 42bd 32a7 a33d 6b56 82bd
000003c0: ec7c 6e39 d91d 713c 4577 723d 477c a43c
000003d0: 6011 81bd eee5 063e 49ee 953d 81d5 9ebb
000003e0: fae7 943d 11c5 c5ba 13ef 29bc 4e23 813d
000003f0: 1ee4 0a3e 6e6d 073e a51b 6f3b 36a1 b43d
-0.09940522 0.0519546 -0.002337661 0.037403896 0.07234605 0.06531703 0.017411122 0.022982392
-0.046983212 0.018140074 -0.09666235 0.007233213 -0.044506773 -0.1706767 -0.08599654 -0.037753202
-0.2705468 -0.5176919 0.044392616 -0.024505852 -0.07484677 -0.0241187 0.010347555 -0.08025185
-0.08363383 -0.07154883 -0.120807596 -0.04885302 0.050845005 -0.06355488 0.06746808 0.08046537
-0.094690524 -0.08832161 -0.087777786 -0.173684 -0.060640305 -0.13778193 -0.063526124 0.018893085
-0.08964583 0.02215825 -0.024189385 -0.060065016 -0.08155856 0.06769891 -0.08233037 -0.017906899
-0.04741412 -0.01690127 -0.10312304 -0.1127644 0.08997057 -0.074635364 0.016732961 -0.018894741
-0.07064697 -0.042744074 0.053493537 -0.057956584 -0.121194355 -0.2435748 -0.04213498 0.050321646
-0.088450715 0.07697115 -0.031927988 -0.021057365 0.1862631 0.044681564 0.07052547 0.049054813
-0.04706418 -0.13874978 -0.020431416 0.082763754 -0.14885418 -0.09947436 -0.14586487 0.078643434
-0.028468326 -0.035345864 -0.07674435 0.009009441 -0.052387677 -0.06896517 0.00611342 0.019967094
0.0640523 -0.59516364 -0.10750403 -0.3301358 -0.10909374 0.07499696 0.032623257 0.016984038
0.03936528 0.07818421 0.07548122 0.08068494 0.014178515 -0.014654468 0.00081594166 0.16183302
0.061057527 -0.04131229 0.14361641 0.014750913 -0.07407609 0.07705018 0.031859268 -0.10534815
0.14370182 0.053087365 -0.041876886 -0.019058276 0.15676072 0.04452021 0.08892348 0.09916032
-0.015594641 0.104930654 0.022316528 0.013369801 0.076722234 -0.093233846 0.06994848 0.06979308
-0.03873327 0.07814129 0.10741074 0.11029652 0.097793356 0.10195267 0.049483255 -0.07548579
0.01876389 -0.17132854 0.019764611 -0.029980369 -0.023326289 0.004616272 0.0677306 0.09220898
-0.044794176 0.17454186 -0.060383037 0.14806288 0.010001673 -0.014637233 0.15086767 0.035083227
0.1781576 0.011847626 -0.12005388 0.04644633 0.09691787 0.1453999 -0.029155865 0.008118801
-0.018263008 -0.06203509 0.15632544 -0.0063168826 0.09978217 0.16312428 0.053715758 0.02897716
0.024132017 -0.017387016 -0.041933738 0.08077935 0.06295785 0.086691976 0.11840409 0.050242316
0.023519134 0.093755566 0.083072856 0.052125156 0.08766336 0.011092969 0.00065847853 0.079692826
-0.068665504 0.12826663 0.068673626 -0.0100334715 0.108152434 -0.017129473 -0.008366665 -0.019356579
0.123954296 6.0112085e-05 0.089153826 -0.07469691 0.034050796 -0.049960203 0.0837333 0.09109367
0.02276207 0.037034746 -0.022543536 0.08399108 0.011763117 0.06426765 0.07159378 0.12990466
0.005630949 0.12673847 0.059606936 -0.11628968 -0.043333363 -0.042990103 0.120420806 -0.0045678816
0.027239036 0.026809271 0.040772267 0.14459008 0.11302531 -0.047426075 -0.042373687 0.012218252
0.016311212 0.0537322 0.11990255 -0.020141419 0.042887934 0.008137034 -0.045947917 0.16073662
0.030754201 0.13005976 -0.05714349 0.025141897 0.03985429 -0.047385406 0.07990874 -0.06364139
0.00022743986 0.014716589 0.059195776 0.020078791 -0.06302142 0.13173649 0.0732084 -0.004847229
0.072708085 -0.0015088638 -0.010371941 0.06305562 0.13563582 0.13225338 0.0036484983 0.08819811

fc1.bias f4 [100]
00000000: 1cad 863d 3f25 01bc 2e43 c03d 0e66 1e3e
00000010: 19fd ecbc 15d3 e7bd ba8f ddbd ab06 803d
00000020: db20 313d 1cff 0b3d 6189 823d aaf0 a6bd
00000030: 2ad8 8fbb cbe4 c0bd 62aa 9e3b e251 ca3d
00000040: e0d6 3dbd 47ac 06bc 4133 09bd f09e b1bd
00000050: 0e7c c93d 9793 113d 58c4 fb3d 163c 6a3b
00000060: 41d8 a2bc 7534 45bd 7bd2 ef3d 4a4b b83d
00000070: fa51 b9bc 85b8 a73d 4396 2d3e f57c 183e
00000080: 6835 a73c b6a1 063e 8aaa a7bd 3b4b 3a3d
00000090: d499 893d ceca c0bc 641a 25bc d3e2 953d
000000a0: f31d a8bd 4db8 29bd 3cba 72bc 3445 1cbd
000000b0: 844d 99bd 13fc 9bbd 3395 66bd 7945 383d
000000c0: 89ce 0e3d 142d dbbd 4b8e e5bd 84c9 1a3e
000000d0: a88e acbd 61e3 3e3e bfc9 aa3d 9682 13bd
000000e0: 6c25 b73d ca66 a3bd 848e 8d3c 4f86 073e
000000f0: 922b 0b3d c8e4 04bd b4df 173d bcb2 903d
00000100: 6f05 b7bd b119 5e3d a532 6e3d 4383 f73d
00000110: 9285 8abd c474 413d c92a 7a3d 5ace c23b
00000120: e8a7 ea3d c193 d43d e154 243e 01bc 62bd
00000130: be16 c0bc d35b 323e a442 08ba 9d44 783d
00000140: 31ec 283e 09e6 31bc 857a f0bd 7ca3 c7bd
00000150: 731a 273d 991e 323d 12dd eebd 2e26 083e
00000160: c0f4 303d 03d5 ee3c 6685 fcba 2d48 07be
00000170: b21d 7f3d 4711 28bd 07b6 2fbd f464 733d
00000180: 1c00 b1bc fd87 21bd 29eb 103e a774 393d
0.06575987 -0.007882415 0.093878135 0.15468618 -0.02892928 -0.113195576 -0.10818429 0.06251272
0.043244224 0.034178838 0.06373859 -0.08151372 -0.0043897824 -0.09418639 0.0048420886 0.09878899
-0.0463475 -0.008219785 -0.033496145 -0.08672893 0.09838115 0.035541143 0.12293309 0.003574138
-0.019878509 -0.04814573 0.11710068 0.08998735 -0.022622097 0.08189491 0.16951852 0.14891417
0.020411208 0.13147625 -0.081868246 0.0454819 0.067187935 -0.023534205 -0.010077093 0.07318654
-0.08208837 -0.04143553 -0.01481491 -0.038151935 -0.07485488 -0.07616439 -0.05629463 0.04498813
0.034864936 -0.10701957 -0.11208781 0.15115935 -0.08425647 0.18641426 0.08339261 -0.03601321
0.089426845 -0.0797859 0.01727987 0.13234828 0.0339771 -0.032444745 0.037078574 0.07065341
-0.08936583 0.05422372 0.058153767 0.12085583 -0.06763758 0.047230497 0.06107596 0.005945009
0.11457807 0.10379744 0.16048004 -0.055355076 -0.023448344 0.1741784 -0.00051979185 0.06061231
0.1649635 -0.010858067 -0.11742119 -0.09747979 0.04079671 0.04348621 -0.116632596 0.13295814
0.04320216 0.029154306 -0.001926583 -0.13211127 0.06228418 -0.041032102 -0.042898204 0.05942245
-0.021606497 -0.03943633 0.14152206 0.045277264

l_action0.weight f4 [51, 100]
00000000: 19ab 4f3c 8543 17be 22a7 bebd 6ae0 4dbe
00000010: 71cb 9bbd c033 cb3d 9751 85bd 7e96 36bd
00000020: 72e3 06bd a923 0d3e 6cf1 863d e68b c03d
00000030: 59d5 0abd 0f5f 383c 460e 0bbd ade6 82be
00000040: d84f 333d c0ab 273d c865 803c 8800 b9bc
00000050: ba44 533c b151 9dbd dbf6 43bd ae81 c7bb
00000060: a26a 5b3c 6590 8f3b 2992 00bd 0cba 53be
00000070: e557 9cbc 0fa6 9e3d 4f4e 2fbe 46ba d2bd
00000080: 6bdc c03c f629 bcbc d88e 863d 45ad 36be
00000090: f442 01be cfb0 dfbd daa4 77bc 4fb8 29be
000000a0: c2f1 bb3c 5f0e c73c d390 143d 0099 f4bc
000000b0: 5fab 13bc 4d03 90bc 0881 25bd da6f d4bd
000000c0: 805c 1fbe cd22 86bd 29c3 123d b909 3dbd
000000d0: a954 73bc e74a ccbc 5401 adbd 8a46 aebc
000000e0: 9843 f8bd 6122 043e f2ae 9fbc d4fb 0dbe
000000f0: f119 0abe 9cf5 fcbd de57 903d 1017 38be
00000100: d1bf b73d 35c1 0f3d 2c85 55bd f594 25bd
00000110: f416 82bc 32a6 aebd 7d25 01be c49d a4bd
00000120: c415 f4bd b5d1 f3bd a93d 22bd 1b02 f7bd
00000130: 7e10 1fbe 516d bfbd ca18 54bd a15f 803b
00000140: 290d 14be 8e08 0ebe 7304 cf3c aed8 09bd
00000150: 63a2 55bd dea6 d5bc b042 0bbb 7772 77bd
00000160: d50d c3bd 3fae 793c 7493 b1bd 1fdd f83b
00000170: c025 e3bd 6e0f 203d 88fd f7bd c880 9abc
00000180: e41c 69bd d642 5f3d d9a7 c8bd 9279 06be
00000190: 4746 d83d 3cdb 12bd b302 4fbc cbec 2fbd
000001a0: d84b b2bd 75cd 6e3d e8ee 34bd aaeb 473d
000001b0: e7b9 083d a8b8 9d3d 7a52 5f3d 45ce a13c
000001c0: ea9d 12bd 59d8 29b8 9cdf 3c39 eac6 dd3c
000001d0: b919 393d 520c 903c 227a b9bd 503e bcbd
000001e0: f505 9ebd 6e83 3f3d ad4c 293d 816e b8bd
000001f0: 1391 c03b a5eb de3d c472 063d 1d7b 80bb
00000200: 106c 2cbd 0687 7c3d 03fe 5a3d 78cf 33bc
00000210: c2db 88bc 99f9 50bd 7858 2abc dc0f a4bd
00000220: 02d8 9fbd b13f b33d a1fb dc3c 54be 833c
00000230: 1cc1 e5bc 9449 133d 378b 7f3d ea57 603d
00000240: ffe9 e2bb 0e6b 5ebd 8f6f 993d ee55 76bd
00000250: 247e 43bd 4756 bdbc 2b3a 43bd d81f 63bc
00000260: b65b 9a3d 3463 84bd 0b21 5cbd 05f8 b93d
00000270: b7ba cbbd d3fd 983d 9c50 843a eac2 d5bd
00000280: 1fc7 48bd 7e62 0f3d be46 da3d cb70 4fbd
00000290: cc8e 1f3d 764e 703d 71b6 46bd e472 82bd
000002a0: 40ab fa3a 34d1 eebd 1f7e 5b3d 6f6c 283c
000002b0: c9fe 04be a674 c1bc 7c0d a0bd 50ba b6bc
000002c0: 76d3 813c c662 5b3c 957b 523d cabc 1dbd
000002d0: 5837 f43c d1cb 4a3d 4a3c 8dbd d13f 67bd
000002e0: 91ae b0bb 57e0 94bd 189f 963d ec7e 603d
000002f0: fc81 b9bd 89ec 03bc 90f1 d6bb a3da a83c
00000300: bd79 2fbe 461a 0d3d 063d a7bd 6947 e1bd
00000310: c467 bc3d c23b 703d 0faf fbbd 8de1 603d
00000320: 9b1c 743d f9d7 853d 036a 9f3b 1c37 33bb
00000330: 0afa 023d 425c bebc 5cdf 8a3a 9f34 52bd
00000340: ae2f 883d 30f5 863c faf7 b13c 6d52 b5bd
00000350: 1552 18bd 3fdd f73c 421b ac3c 4231 70bd
00000360: 4a96 143d 6eb9 fc3c 7d57 3dbd e8d8 3b3c
00000370: 4706 04bd 9592 48bd 4962 583b 6bde 963d
00000380: b100 2cbc a65a 9fbd c6a3 8f3d 5080 ac3c
00000390: 50ef abbd be34 073d 30f1 59bd 5bdf ab3d
000003a0: 0c18 343d e9d5 d33c 763f 6cbd 3d35 693d
000003b0: ec7a 683c 73ff 543c 64aa 3f3d f380 afbd
000003c0: 5c81 24bd fe48 b1bd f710 18bd 12f5 343d
000003d0: e83c 623d e74e e13c 2799 ec3b 0825 6cbb
000003e0: e17c c33c 3d6b a8bc d509 86bd 420e cebc
000003f0: 48e1 8bba 8c49 a53d 0cc6 a23c 63c5 733d
0.01267507 -0.1477185 -0.09309222 -0.20105138 -0.07607163 0.0992198 -0.06509703 -0.044577114
-0.032931753 0.13783135 0.06589016 0.094016835 -0.03389487 0.0112531325 -0.03394916 -0.25566617
0.043777317 0.040935278 0.015673533 -0.022583261 0.012894804 -0.07681597 -0.04784284 -0.006088457
0.013392122 0.004381227 -0.03138939 -0.2067644 -0.01908488 0.07746517 -0.17119716 -0.10289435
0.023542603 -0.022969227 0.06570214 -0.17839535 -0.12623197 -0.109223954 -0.015114987 -0.16574214
0.022942428 0.024298845 0.036270928 -0.029858112 -0.009013026 -0.017579699 -0.040406257 -0.103728965
-0.1556263 -0.065496065 0.03583065 -0.04615185 -0.0148517275 -0.02493806 -0.08447519 -0.02127387
-0.121222675 0.1290374 -0.0194926 -0.13865596 -0.13486458 -0.12351534 0.07048009 -0.17977548
0.08972133 0.035096366 -0.052128956 -0.04042526 -0.015880086 -0.08527793 -0.12611957 -0.08037904
-0.11918214 -0.11905233 -0.039609585 -0.120609485 -0.15533635 -0.09347022 -0.051781453 0.00391765
-0.14458145 -0.13870451 0.025270676 -0.033653907 -0.052156817 -0.026080545 -0.0021249466 -0.060411897
-0.095241226 0.015239297 -0.086707026 0.007594719 -0.110911846 0.039077215 -0.12108904 -0.018860236
-0.056912318 0.0545071 -0.097976394 -0.13132313 0.10560279 -0.03585361 -0.012634921 -0.042950433
-0.08705872 0.058301408 -0.04417315 0.04880873 0.033380415 0.07701236 0.054522015 0.019751677
-0.03579513 -4.049423e-05 0.00018012378 0.027072389 0.045190547 0.017584 -0.09056498 -0.09191573
-0.0771598 0.0467562 0.04133289 -0.09005452 0.005876669 0.108847894 0.032824293 -0.0039209262
-0.042095244 0.061652206 0.0534649 -0.010974757 -0.016706351 -0.051019285 -0.010397069 -0.080108374
-0.07804872 0.087523825 0.026975455 0.016081966 -0.028046183 0.03595884 0.062388625 0.05477134
-0.006924867 -0.054301314 0.07491981 -0.060140543 -0.04772772 -0.02311243 -0.047662895 -0.013862573
0.07537024 -0.06464234 -0.05374245 0.09080509 -0.099477224 0.07470288 0.0010094824 -0.104375675
-0.04901802 0.03500604 0.10658024 -0.050644677 0.03895454 0.058668576 -0.048513833 -0.0636957
0.0019124523 -0.11660996 0.053587075 0.010279759 -0.12987818 -0.023615193 -0.07815072 -0.022305638
0.015847903 0.013390249 0.05138739 -0.03851012 0.029811546 0.04951078 -0.06896265 -0.056457344
-0.0053919037 -0.07269352 0.073545635 0.054808542 -0.09057996 -0.008052 -0.006559558 0.020612067
-0.17136283 0.034448884 -0.08165936 -0.109999485 0.09199479 0.05865074 -0.12289249 0.054902602
0.059597593 0.06535334 0.0048649325 -0.002734608 0.031976737 -0.023237351 0.0010595131 -0.051319715
0.06649719 0.016474336 0.02172469 -0.08853612 -0.037187655 0.030256866 0.021009091 -0.058640726
0.03627614 0.030850139 -0.046226013 0.011465289 -0.03223255 -0.048967917 0.0033017567 0.073666416
-0.010498212 -0.07780962 0.07013659 0.021057278 -0.083952546 0.033009283 -0.05320853 0.08392211
0.043968245 0.025858836 -0.05767771 0.056935538 0.014189463 0.013000357 0.046793357 -0.08569517
-0.04016243 -0.086565 -0.037125554 0.04417903 0.055233866 0.027503444 0.0072204056 -0.0036032815
0.023863258 -0.020558948 -0.06544844 -0.025153283 -0.0010671997 0.080706686 0.019869827 0.059514415

l_action0.bias f4 [51]
00000000: ab94 38be 7954 cfbc 3de6 a73d 327a 5e3d
00000010: b4d3 b1bc 78c2 05be 0a09 f63d 2e60 4abb
00000020: d16d 1a3e c0bf f1bb ef9d 12bd cf23 f73d
00000030: 07aa 39bc 7eba 87bd 27c4 653d 986b bebd
00000040: 1154 41bd 7da4 0fbe e3f7 15be efc5 f6bd
00000050: a91a 2fbe c4ef 97be 7319 6bbe ecc0 5abe
00000060: 45f7 91be b8dc aabe 7fa2 3abe f52c 6dbe
00000070: 5c73 a2be d21b 4ebe 8fb9 80be 83ba a1be
00000080: 858b 6ebe dede 9fbe 0a82 92be c08f 8abe
00000090: fdac 60be 05ee 47be 5eb1 40be b1d7 06be
000000a0: e1b5 08be f502 20bd 89b8 51be 5a78 753c
000000b0: d663 05be 06bb 69be 50b1 0bbe 64fb f0bd
000000c0: 3530 c6bd a44b 3c3b 9cea 38bd
-0.18025462 -0.025308834 0.08198211 0.054315753 -0.021707393 -0.13062465 0.12013443 -0.0030880081
0.15080954 -0.0073775947 -0.03579515 0.12067377 -0.011332042 -0.066273674 0.05609527 -0.09297866
-0.047199313 -0.14027591 -0.14645343 -0.120494716 -0.17100014 -0.29675114 -0.22958927 -0.21362656
-0.28508964 -0.3337152 -0.1822605 -0.23161681 -0.31728637 -0.201278 -0.2514157 -0.3158761
-0.2329541 -0.31224722 -0.28614837 -0.27062798 -0.2194099 -0.19524391 -0.1881766 -0.13168217
-0.13350631 -0.03906532 -0.20480551 0.014982307 -0.13026366 -0.2282525 -0.13641858 -0.11766699
-0.096771635 0.0028731609 -0.045145616

l_action1.weight f4 [51, 100]
00000000: 5626 af3c 978f 83bd d866 54bd 2283 05be
00000010: 68d5 9abd f109 433d dfca b0bd 7e23 bcbd
00000020: 3f84 d0bd e8de fc3d 0981 d8bd 88e9 5abb
00000030: a3f5 7dbd 24a1 b4bd 7101 d63b aba4 4fbe
00000040: 03c4 c1bc b3ab b9bb 0bbb daba c7a8 6ebd
00000050: babc c93c da61 32bd f9bf 12be 90e1 05be
00000060: 7407 9b3d 1831 433d a3d8 09be 1079 80be
00000070: 0d79 1fbe 336c bdbd 5958 1bbd 8dfe e4bd
00000080: dd34 9d3d 56c8 32bd c730 673d 99d8 39be
00000090: 332b 10be 1783 ae3d d47b de3c e7a0 edbd
000000a0: b0d8 b13d a05f ca3c b970 f2bd 19bf 6aba
000000b0: 533a 3dbd bba2 b53c 1ddd 0bbe a6bc a73c
000000c0: 9759 babd 61a2 ab3c 0e26 b43c 22f6 15be
000000d0: ec78 e23d 9a6c 29bd 6489 05be 18aa 873d
000000e0: 4974 eebd 8a75 cd3d c588 0bbd 037b 3ebe
000000f0: ec2d ec3b f730 52bd 85ae 4e3d 78d4 2abe
00000100: 0bab bbbc 99f1 41bd 475b 41be 14f4 40bc
00000110: 3ed1 843d f034 27be c4c4 c6bd 7b9e 813d
00000120: 6bcc ecbc 7a6d 91bd 7bde 02be 3690 c4bd
00000130: e2e4 2c3d f427 13be e23c 01bd c11b 46bd
00000140: 8d7f fbbd 3e31 96bd eee9 483d dbe9 db3c
00000150: e673 7fbd 6824 e2bd 6c5a 5b3d 23e4 ebbd
00000160: 317e 2fbe d1b3 c3ba 9a3d 8cbd 73cb 193d
00000170: c1f4 e6bd 1d1b 9a3d 0894 1fbd fe1f 0fbe
00000180: 6b9a bc3d 4efc 233d c425 c8bc afa2 68bd
00000190: d702 033d 30b6 1abb 368b 6fbd 0324 b03c
000001a0: 9622 983c 0c3f b23c 173d be3d 93f6 97bd
000001b0: 241d 9fbd ad88 ed3d edf0 ce3c 8030 d93d
000001c0: 92c6 1bbd 2e02 00bd f9a9 413b 6453 a3bd
000001d0: c9a4 b23d 34d1 3e3d 84e8 a8bc 6d0b 5cbd
000001e0: bb55 163b 2407 83bd 97b7 77bc bd1a 2d3d
000001f0: 6887 d23c 8f92 1ebc 0b75 403d 9b4e b3bd
00000200: 393c 55bd 28d5 8d3c 854d 0dbe e0e1 773d
00000210: 2e91 8ebd ab2f 1a3d 6d5f 42bd a2b7 433d
00000220: adbf 98bd 7de0 a5bd 213e 10bd 047d 00be
00000230: 2aee 41bc f9f7 5dbd c8e2 5bbd ab91 bcbc
00000240: a254 4d3d fec4 2cbd ee7b 2fbd 3a9e 37bc
00000250: 9f01 8cbc f0ea 30bd d108 d1bd 6f38 663d
00000260: 864a b83c bec7 9e39 bd96 5abd 2594 e43c
00000270: f308 0bbe 6eb9 6c3d 4e5c 303c 3635 f13b
00000280: 670f 32bd d4e7 b5bd 5177 813d 6528 253d
00000290: 1961 02bd 1289 86bd fbec 95bd 53e1 403d
000002a0: e1ca 823d 13ba babd 930c 44bd b273 273d
000002b0: 7c47 03be befc a0bd cce3 b83c be37 68bc
000002c0: 2e26 b93c 9ffa bc3b 3ad7 bbba dde2 fcbd
000002d0: 56f0 f4bd 8c82 cebd e0f2 57bd 5940 973b
000002e0: b8f3 c23c 8168 c63c cf8e 873d b0e3 d1bb
000002f0: 516d 31bd 9e02 54bd 20ca c4bc 3487 cb3d
00000300: 80a3 a9bd 22e0 aabd cb32 83bd 0d3a 893c
00000310: 6dc8 923d d7e1 51bd 97eb abbb c727 13bd
00000320: 83c8 d03c 0f1d 2fbc 2e60 16bd 3176 d33d
00000330: 1fe0 93bd 95c7 053d b4ae b23c 861a f93b
00000340: 0b81 b0bc 0d0b 013e f68b a73d f206 94bd
00000350: 8e96 b73d 2ca5 813d 5eb3 5dbb 9aca 73bc
00000360: 30fe dcbd 1256 3c3d 5633 c13b d58d c3bd
00000370: 8beb bfbd 3099 7e3d 5b07 9dbc 5353 9d3d
00000380: 5038 5f3b 456a 9ebd 8f87 ccbc ff0d 213d
00000390: 31d6 acbd b982 be3d 1c21 5ebd c719 2bbb
000003a0: 37ec 7e3c 4710 c83c c82b 8ebd 23e5 383c
000003b0: 9feb d9bd 2f91 5d3c 420a c1bd d96d 81bc
000003c0: bc13 83bc e2dd 8c3d ab81 ce3b 06fe 1dbd
000003d0: f413 913c 5a8a c4bd 5170 9bbc 5f05 43bd
000003e0: 627c 16bb 1b81 34bd a6f4 753d 10bc a43c
000003f0: d135 b43c 267a a53d 6a6c 063d 9ba4 0d3c
0.021380585 -0.06423872 -0.051855892 -0.13038304 -0.07560235 0.047616903 -0.086324446 -0.09186457
-0.10181474 0.123472035 -0.105714865 -0.0033403356 -0.062001836 -0.08819798 0.0065309335 -0.2027766
-0.023653036 -0.00566622 -0.0016687823 -0.058266427 0.024626125 -0.04355035 -0.14331044 -0.13074327
0.07569781 0.04765424 -0.13461547 -0.25092363 -0.15573521 -0.09249153 -0.03792605 -0.11181364
0.076760985 -0.043648086 0.056443002 -0.18149032 -0.14078979 0.08521097 0.027158655 -0.11602955
0.08683908 0.0247038 -0.118379064 -0.00089548674 -0.0461982 0.022172322 -0.13658567 0.020475697
-0.09099119 0.020951452 0.021990802 -0.14644673 0.1105822 -0.041363336 -0.13040692 0.0662424
-0.116432734 0.100321844 -0.03406598 -0.18601613 0.0072076228 -0.051316228 0.050459404 -0.16682613
-0.022908708 -0.047349546 -0.18882476 -0.011776943 0.06485222 -0.16328788 -0.09705499 0.06329056
-0.028906068 -0.07100959 -0.12780182 -0.095978186 0.042210467 -0.1437071 -0.031552203 -0.048366312
-0.12280188 -0.07333611 0.049051218 0.02684491 -0.06236639 -0.110421 0.05355303 -0.11518123
-0.17137982 -0.0014930909 -0.06847687 0.03754754 -0.11277152 0.07524703 -0.038959533 -0.13977048
0.092091404 0.04003554 -0.02443207 -0.056795772 0.03198513 -0.0023607127 -0.05848237 0.021501547
0.01857118 0.021758579 0.09288996 -0.07420077 -0.0776923 0.115983345 0.025261367 0.10604954
-0.03803117 -0.03125208 0.0029550774 -0.0797489 0.087228365 0.04658623 -0.020618685 -0.053721834
0.0022939283 -0.06397846 -0.015119455 0.042261828 0.025699332 -0.009678497 0.04698662 -0.08755227
-0.052059386 0.017313555 -0.13799103 0.060518146 -0.069612846 0.037643116 -0.047454286 0.047782548
-0.07458434 -0.08099458 -0.0352155 -0.1254769 -0.011836568 -0.054191563 -0.053683072 -0.023018679
0.05012954 -0.042180054 -0.042842798 -0.011207158 -0.017090617 -0.043192804 -0.1020676 0.056206163
0.022496473 0.00030284928 -0.05336641 0.027902672 -0.13577633 0.057794027 0.010764195 0.0073610796
-0.04347172 -0.08882108 0.06321586 0.040321726 -0.03183088 -0.06569113 -0.07320591 0.047089886
0.06386352 -0.09117522 -0.047863554 0.04088182 -0.12820238 -0.07860707 0.02256956 -0.014173446
0.022601213 0.005767181 -0.001433111 -0.12347958 -0.11959903 -0.100834936 -0.052721858 0.004615825
0.023797855 0.024219753 0.066190355 -0.0064053163 -0.043317143 -0.05176031 -0.024022162 0.09937897
-0.08283138 -0.08343531 -0.06406172 0.016751314 0.071671344 -0.05124077 -0.0052465904 -0.035926607
0.025486236 -0.01068808 -0.036712818 0.103252776 -0.07220482 0.03266104 0.02181182 0.007602039
-0.021545907 0.12601872 0.08180992 -0.07227887 0.08964263 0.06330332 -0.0033828835 -0.014879847
-0.1079067 0.04598052 0.0058960123 -0.09548537 -0.09371098 0.06215781 -0.019168546 0.076819085
0.0034060664 -0.07735113 -0.024966983 0.03931999 -0.08439291 0.09302277 -0.054230794 -0.0026107894
0.015559248 0.024421824 -0.06941944 0.011285099 -0.10640644 0.013523384 -0.09425785 -0.01579945
-0.016000621 0.06878258 0.0063020787 -0.038572334 0.01770971 -0.09596701 -0.018974455 -0.047612544
-0.0022962322 -0.044068437 0.060047768 0.020109206 0.021998318 0.080799386 0.032818235 0.008645202

l_action1.bias f4 [51]
00000000: 46fe 70bd efa1 92bd d630 a6bd 21ed 5f3d
00000010: add3 1dbd af9e 553d 36d8 fd3d 8d4e b23d
00000020: 44fa 0d39 9f7a d23d f779 6bbc 3668 2e3d
00000030: a983 a53d 359b c43c 0c8e b0bd 9233 42bd
00000040: 9459 1ebe d500 e4bd 0b07 5fbe 8e3a 25be
00000050: e197 20be aa2e 9dbe 1192 aabe efc2 5cbe
00000060: 73de 85be e9b8 86be 307d 37be 4400 81be
00000070: a941 2ebe 361e 9ebe 15d1 7dbe ce3d 3fbe
00000080: 5af7 87be f634 13be c8c7 35be bc83 88be
00000090: 0733 04be ba73 85be 175a 26be cb73 8ebe
000000a0: e4a1 27be 9bb9 00be f5c4 e0bd 567c f7bd
000000b0: 48d3 31be 7228 1fbe abcc 6ebd 97cf c9bd
000000c0: 1db6 b5bc c8ad a9bd d084 4abe
-0.058836244 -0.07159793 -0.081147835 0.054669503 -0.038531948 0.052153286 0.123947546 0.087063886
0.00013540039 0.10277294 -0.01437234 0.042579852 0.08081753 0.02399979 -0.08620843 -0.047412463
-0.15463859 -0.11132971 -0.2178003 -0.16135618 -0.15682937 -0.30699664 -0.33314565 -0.21558736
-0.26146278 -0.2631295 -0.17918849 -0.25195515 -0.17017235 -0.30882424 -0.2478679 -0.1867592
-0.26555902 -0.14375672 -0.17751992 -0.26663005 -0.1291009 -0.26064855 -0.16245304 -0.27822718
-0.1637035 -0.12570803 -0.109750666 -0.12084262 -0.17365754 -0.15542772 -0.058300655 -0.09854048
-0.022181565 -0.08285099 -0.19777226
