models/checkpoints/checkpoint.pth (torch_old, 172926 bytes, 6 tensors)

q_network.fc0.weight f4 [128, 4]
000000 e1 97 3c 3e 47 7d 73 3d 6f 4d 37 bf 6f cf fa be
       0.18417312 0.059445646 -0.7160253 -0.48986384
000010 9b ff b4 be 59 65 b8 3e 24 a6 dd 3e cc 62 d7 3e
       -0.35351261 0.36014822 0.43290818 0.42067564
000020 7d a9 33 3e 82 91 b5 3d 81 af 59 be 63 2c 90 3c
       0.17545123 0.08865644 -0.21258356 0.01759929
000030 ea 64 7e bf da 5e 95 be ff d3 90 bf 84 e4 47 be
       -0.9937273 -0.29173928 -1.1314696 -0.19520766
000040 8b 1d 30 3f 77 ee 33 3e c1 70 02 be d0 ee 33 3d
       0.6879508 0.17571436 -0.12738325 0.04392892
000050 5e ae d6 3d fc 58 f1 3e d1 91 29 3f f1 b9 bf 3e
       0.10482477 0.47138202 0.66238123 0.3744655
000060 ef 46 b4 3c 05 ed a0 bd 1d 1c 3a 3f aa 1d ca be
       0.02200648 -0.07857708 0.7269915 -0.39475757
000070 5b a9 20 bf 75 00 a3 bd 95 01 aa be 1c 8e 8d 3e
       -0.62758416 -0.079590715 -0.33204332 0.27647483
000080 8f cc 5d bf b7 a4 00 bf 97 52 af bf 14 7c 9d be
       -0.86640257 -0.50251335 -1.369708 -0.30758727
000090 30 68 2a bf 63 25 e4 3e a8 dc c8 3e 4e 81 a4 3e
       -0.6656523 0.44559774 0.39230847 0.32129902
0000a0 d9 db 4a 3e 9f 9c d1 be 68 cb f9 be bf dd da be
       0.19810428 -0.40939805 -0.48788 -0.42747304
0000b0 67 d1 00 bf 53 45 99 be 5d 50 cf 3e e8 93 70 3e
       -0.5031952 -0.29935703 0.40491 0.23493922
0000c0 f2 f1 92 be c5 18 b4 3d 52 a7 3b 3f f3 09 f4 3e
       -0.28700215 0.08793787 0.73302186 0.4766384
0000d0 6a 0d 35 3f d3 d6 f7 3d a6 d5 ae 3f 77 d7 00 3e
       0.70723593 0.12101521 1.365895 0.12582193
0000e0 f5 be ea bc 1c b5 d3 be d5 3c 2e bf a4 5e 82 be
       -0.028655509 -0.41349113 -0.6806157 -0.2546283
0000f0 86 e2 94 3e 18 4f bc 3e 4b 76 db bd 27 47 90 3e
       0.29079074 0.36779094 -0.10715922 0.28179285
000100 26 50 0f 3f 2a 44 c4 3d 48 67 64 3f f1 56 5e 3d
       0.5598167 0.09583314 0.89220095 0.054282133
000110 31 c7 16 3f 6f ca d5 3e ec ed 80 bd 4a 0d a6 3e
       0.5889769 0.41756007 -0.0629538 0.32432014
000120 92 7c 28 bd 58 e9 a8 3e dc a7 57 3f 6b 42 ea 3e
       -0.041134425 0.32990527 0.8424051 0.45753798
000130 63 0e 75 bc 1b a6 fe be 76 51 94 be 49 98 a3 be
       -0.014957043 -0.49736103 -0.289684 -0.31952122
000140 19 99 91 be 7e 88 34 3f 9b 4d 0b 3f 0d fe fb be
       -0.28437117 0.7052077 0.5441529 -0.49217263
000150 61 ae f2 3d 0a 6f 68 bd 5b 9c 8f be ac a1 92 be
       0.118496664 -0.05674652 -0.28048977 -0.2863897
000160 7b e9 62 3e 3e b8 6b be 15 b8 06 3f 5f 96 6a 3e
       0.22159378 -0.23019502 0.52624637 0.22908925
000170 16 2f 14 3f 30 2d 82 3d 93 f6 cf be 15 32 9d be
       0.5788435 0.06356275 -0.4061781 -0.30702272
000180 6f b7 db 3e 34 ef c7 bd 88 14 22 bf a8 28 c2 be
       0.42913386 -0.09762421 -0.6331258 -0.37921643
000190 26 f2 86 3f 67 36 9a 3e ea 95 b5 3e a4 8d 3a 3e
       1.0542648 0.3011963 0.35465938 0.18218094
0001a0 74 c0 d0 be e2 94 9a be b6 d0 77 bf 0c 78 ad be
       -0.4077183 -0.30191714 -0.9680284 -0.3388065
0001b0 43 c8 a3 bd 24 ff 6f 3e 81 92 ae 3e 6a 3c ea 3e
       -0.07997181 0.23437172 0.3409615 0.45749217
0001c0 a2 48 ee be 16 8d 08 3f 8d 0a d4 3e 16 c9 ed be
       -0.4653979 0.5334028 0.414143 -0.4644248
0001d0 47 21 a0 be 83 d3 6a 3d 20 b3 e7 3e c3 78 0c 3e
       -0.3127539 0.05733062 0.4525385 0.13717942
0001e0 01 5f 14 3e 8d 99 8f 3d e1 7c d2 be 31 92 93 3e
       0.14489366 0.07011709 -0.411109 0.28822473
0001f0 83 e1 93 bf 83 7c d4 be 6d 4b 74 bf 98 19 8f be
       -1.1553196 -0.41501245 -0.9542759 -0.27949214
000200 ed 75 77 be 79 6f c1 be d1 30 62 be bd e5 a4 bd
       -0.24166079 -0.3778036 -0.22088934 -0.080516316
000210 bf ce 09 be 50 63 8a 3d 50 19 88 3f bc 1e dd bc
       -0.13457774 0.067572236 1.0632725 -0.026992194
000220 09 43 1a 3c 5e 3a ad bb 02 67 da 3e 68 e7 9d 3e
       0.0094153965 -0.005286499 0.42656714 0.3084061
000230 dd d8 b8 3e cb ee 3c 3e fd 3c 84 3f d6 91 2e 3e
       0.36102954 0.18450467 1.0331112 0.1704782
000240 c5 4e 67 bf 2a c5 15 be 7a 2d fd bd a7 69 a8 bd
       -0.9035457 -0.14625993 -0.123621896 -0.082232766
000250 2c 0a d4 be 40 67 00 bf 7b a6 91 bf 1b 4f d9 be
       -0.4141401 -0.50157547 -1.1378931 -0.42443165
000260 9a 52 d3 bd b9 6a 9a 3e e7 fb 07 3f 60 4a b1 be
       -0.103184894 0.30159548 0.5311875 -0.34627056
000270 2e b0 9f 3e 8a 52 c8 be f0 7b d8 bd 1c 9a 4f be
       0.31189102 -0.39125472 -0.10570514 -0.20273632
000280 49 a8 38 3e 92 cb 1e be 93 08 58 bf 3f 33 94 be
       0.18032946 -0.15507343 -0.84388083 -0.28945348
000290 73 e6 47 be b1 f8 a5 3c 1c 49 2d bd 14 09 3d 3e
       -0.19521503 0.020260187 -0.04230605 0.18460494
0002a0 b8 5c 42 bf 64 2a 3f bd 7e 95 b4 3e 18 ec 7f bd
       -0.7592273 -0.046671286 0.35270303 -0.062481016
0002b0 0b e6 d3 3e a7 d3 fd 3d f3 df 14 bf cf 67 dc 3e
       0.41386446 0.12393885 -0.5815422 0.4304795
0002c0 06 35 6d bc 71 c5 ae be 3b a1 4c be aa e7 fb be
       -0.014477974 -0.3413501 -0.1998338 -0.49200183
0002d0 3d 01 e2 3d 9f b3 a5 3d 64 25 7a 3f 2f be 16 3e
       0.110353924 0.08090901 0.97713304 0.14720987
0002e0 84 b5 af 3e 26 fb d6 3d 43 1c 1b be 78 37 39 3b
       0.34318173 0.104971215 -0.151475 0.0028261822
0002f0 83 ff 34 bf b9 cf d8 3e 2d 51 0b 3f c3 25 9f 3e
       -0.7070238 0.4234598 0.5442074 0.31083497
000300 b1 1f 12 bf 1e 5c fd bd b9 aa f6 be 96 6d fc be
       -0.5707961 -0.123710856 -0.48177126 -0.49302357
000310 1b 6a cb be b0 b5 30 3e ad ce 1f 3e 1c bf d7 3d
       -0.3972939 0.17256808 0.15606184 0.10534498
000320 95 d4 8b 3e e0 a4 87 3e 6d 33 0d bf bf c0 f4 be
       0.27310625 0.26492977 -0.55156595 -0.47803304
000330 bf 0e f1 be 38 a9 04 3f 8d 72 60 3e ad 7d bc 3e
       -0.47081563 0.5182071 0.21918698 0.36814633
000340 b7 eb 4d 3e 00 aa 84 3d c3 e1 9a bc f7 52 32 be
       0.2010945 0.064777374 -0.01890648 -0.17414461
000350 bb 8d 14 3e bf dd ca bd de 0b cc 3e 72 f3 e2 3d
       0.14507191 -0.09905576 0.39852804 0.1108159
000360 d3 fc 2c bf f1 65 06 bf 11 c5 47 bf 0b 2f af be
       -0.6757328 -0.524993 -0.78035074 -0.34215578
000370 0d 7a 96 bd d8 99 03 3f e9 27 a6 3e 7c d5 12 3e
       -0.07347498 0.5140662 0.32452324 0.1433925
000380 6b 91 6d be 7a a3 9e 3e 44 74 91 bd 6e 3e f1 ba
       -0.23200004 0.30984098 -0.07102254 -0.0018405446
000390 10 d1 93 bc 69 7b 32 3e 90 f0 69 3f dc 30 9e 3e
       -0.018044025 0.1742989 0.91382694 0.30896652
0003a0 ed bd 23 3e 1e 7c a2 3e 0b d7 28 3f d4 4e 20 be
       0.1599042 0.3173532 0.6595313 -0.1565507
0003b0 c5 b7 7f 3e 04 f4 ac be 88 7d da be fe 43 1a 3e
       0.24972446 -0.3377992 -0.42673898 0.15065
0003c0 bd fc 2b 3e 96 23 06 3f 9a b9 66 be 68 17 d8 3c
       0.16795631 0.5239805 -0.22531739 0.026378348
0003d0 78 9d ce 3d 82 bd 31 bf b4 a4 85 3e e3 f8 ed be
       0.100886285 -0.6942979 0.2610222 -0.46478948
0003e0 8e 25 e4 bd 3b 6a a1 bd 65 94 b4 be eb 27 c8 bc
       -0.111399755 -0.0788159 -0.35269466 -0.024433097
0003f0 75 b6 03 3f c9 03 44 be 35 78 f6 be c3 32 1d be
       0.5145028 -0.19142069 -0.48138586 -0.15351395

q_network.fc0.bias f4 [128]
000000 ad 7e 09 be 0b ec 99 bd 95 4e 44 3d d2 79 53 3e
       -0.13427229 -0.07515725 0.047926504 0.2065194
000010 8f e7 d8 bd e4 4c a4 bd 59 46 4a 3e 99 28 bc 3c
       -0.10591041 -0.08022478 0.19753398 0.022968577
000020 2b fb 90 3e f3 54 50 bd 59 7b 47 3e ca cf db be
       0.28316626 -0.050862264 0.19480647 -0.42931968
000030 ea 70 ba be 65 da d9 3c e7 af cf 3e 04 0a 8d bd
       -0.36414272 0.026593396 0.4056389 -0.06886676
000040 e5 ea 28 3d a8 5d c0 bd ce b1 f8 3e 62 30 d1 3e
       0.041239638 -0.093928635 0.48573154 0.40857226
000050 d7 4b a9 be 4a d7 ca be 1c 3d f0 be fe a5 d2 bb
       -0.33065674 -0.39617378 -0.46921623 -0.006428479
000060 6b ac b5 bd 3d f9 49 3d a4 76 04 be 20 25 db 3b
       -0.08870777 0.049309958 -0.12935883 0.0066877753
000070 4b ce b0 bd 74 cd 91 bd ab 07 92 bd 00 3f 6f bd
       -0.08633097 -0.07119265 -0.07130369 -0.05840969
000080 ec 00 15 3e 82 9b a2 3e 99 c8 c5 be 77 6e 15 3e
       0.14551133 0.31759268 -0.38629606 0.1459292
000090 f8 01 62 bd c3 36 e1 3e 93 67 20 bf d2 6a f5 be
       -0.05517766 0.43987092 -0.6265804 -0.4793306
0000a0 c4 6f 03 3f 7e b5 b7 be 76 19 fa 3d c4 29 c3 bd
       0.51342416 -0.35880655 0.122118875 -0.095294505
0000b0 d5 19 3d bc b0 c4 92 bd a1 b8 b0 3e a0 40 5d bd
       -0.011541803 -0.071664214 0.3451586 -0.05401671
0000c0 24 a0 c9 be 77 ac 7f be fd 79 06 bd 45 29 84 3e
       -0.3937999 -0.24968134 -0.03283118 0.25812736
0000d0 d2 91 b0 be cb ad e4 3e b4 12 34 bd d9 0b b6 3d
       -0.34486252 0.44663844 -0.04396315 0.088889785
0000e0 4c 22 41 3e 49 2c 1c 3e 42 8c a9 3e 57 13 21 3e
       0.1886074 0.15251268 0.3311482 0.15730034
0000f0 02 2b d0 bd d1 51 84 bc cf 07 2a 3d 68 9d d5 3e
       -0.10164453 -0.016152294 0.041511353 0.41721654
000100 1c 62 75 bd 85 d5 9d be ac 72 a3 3d 68 30 ae 3e
       -0.059908018 -0.30826965 0.07980856 0.34021306
000110 46 f4 89 be b5 33 d4 be 7b c4 87 be d8 ee 49 3d
       -0.26944178 -0.414457 -0.2651709 0.049300045
000120 2b 58 56 bd e5 70 98 be 67 9a 21 3e 4d a6 01 3e
       -0.052330177 -0.29773632 0.15781556 0.12661095
000130 0b d4 a0 3e ae bb d7 3e 08 74 9f bc 25 fb ed be
       0.31411776 0.42135376 -0.019464508 -0.4648067
000140 d8 53 e7 be bb 87 c2 3e f6 2f af 3e eb a8 29 3e
       -0.45181155 0.3799418 0.3421628 0.16568343
000150 26 80 be bd 81 71 95 3e ac ed a0 3e 1d 6a bd 3e
       -0.09301786 0.2918816 0.3143133 0.3699502
000160 30 f5 d7 be d3 05 40 be 76 31 ba be 96 71 b9 3e
       -0.4217925 -0.18752222 -0.3636586 0.36219472
000170 f9 ee fe bd 0d e2 46 bd b9 fe 5e 3e fc 04 72 bd
       -0.12447924 -0.048555423 0.21776856 -0.059086785
000180 8f 1b b1 bd ae 65 06 3e 27 0a 87 bd 78 fb 3c 3d
       -0.086478345 0.13124725 -0.06593733 0.046138257
000190 2f e8 bc 3e b8 09 44 be 32 dc bb 3d d6 9d f3 3e
       0.36895892 -0.19144332 0.09172858 0.47581357
0001a0 89 0b e3 3d 32 84 0b bd ec f2 b6 3e 46 73 51 bd
       0.110861845 -0.03406162 0.3573221 -0.051135324
0001b0 7a 01 57 3d ee 41 fe 3e 7a c2 12 3e 2a a4 40 be
       0.052491643 0.49659675 0.14332 -0.18812624
0001c0 77 6c 36 bd d5 ce 2f 3d 95 12 86 3e 24 eb 23 3c
       -0.044537034 0.04292186 0.26186052 0.010004792
0001d0 d1 ea ab be ec b2 1d bd 8f e2 5a 3e 9c 9a cd 3d
       -0.33577588 -0.03850071 0.21375488 0.10039255
0001e0 4a 4f dd 3d da 6f a5 bd 86 ee 03 3e 38 f0 87 bd
       0.10806139 -0.080779746 0.12883958 -0.06637615
0001f0 32 4f 46 be 35 d7 bb be 25 94 eb be ec 33 05 3e
       -0.19366148 -0.36687627 -0.46011463 0.13008088

q_network.fc1.weight f4 [128, 128]
000000 de 58 c9 3d d3 75 4d 3e 3a c6 4a 3c f6 0e 9a 3c
       0.09831403 0.20064478 0.012376362 0.018805962
000010 5a e2 e1 3c 31 91 6a 3e f4 24 58 bd 41 8f 2d 3e
       0.027573753 0.22906949 -0.052769616 0.16949178
000020 69 c7 a0 bd 8a c7 a5 3e 76 d8 7f 3d 14 2b 39 3e
       -0.078505345 0.323788 0.062462293 0.18082839
000030 44 0a 3c 3e 06 4b a7 bd 36 ba a4 bd 90 b5 73 bd
       0.18363291 -0.081686065 -0.080433294 -0.059499323
000040 49 8d 1f 3e e1 af d9 3d 47 8f 33 bc e6 ad 09 3d
       0.1558124 0.10629249 -0.010959453 0.033613108
000050 fc ec 06 be 97 57 9c 3d 1f cb e6 3d ae 4b ab 3d
       -0.1317634 0.07633894 0.11269211 0.08364044
000060 bc 6d 64 3e a7 bf 31 3e d0 9c 96 3e 3d 54 14 3e
       0.22307485 0.17358266 0.29416513 0.1448526
000070 46 cb d1 bd 43 1a 4a 3e 38 b5 b4 bd 69 bf 1e bc
       -0.102438495 0.1973658 -0.08823627 -0.00968919
000080 02 27 9d bc 99 b6 28 3d 22 4f b1 3d 7c d9 11 3e
       -0.01918364 0.041189764 0.086576715 0.1424312
000090 b2 0c eb 3d 23 36 8a bd 6a c7 f2 3a 78 ea c3 bc
       0.11477031 -0.06748607 0.0018522565 -0.023915514
0000a0 87 03 40 3d c6 0d 0c bd 2e cc 92 3d 00 57 a2 bd
       0.046878364 -0.034192823 0.071678504 -0.0792675
0000b0 51 73 10 3e 4d 48 7d 3e 7a 5d db bc 8a e9 1d 3e
       0.1410649 0.24734612 -0.026777972 0.1542112
0000c0 4d d9 df 3e ad 92 a1 bd dc 2b 44 3e 89 20 12 bd
       0.43720475 -0.07889304 0.19157356 -0.03567556
0000d0 d7 d4 4f 3e 20 69 97 3d 2f ed 36 3d e0 3e dc bd
       0.20296036 0.07393098 0.04465979 -0.1075418
0000e0 df 01 61 3d d9 25 6f bd 41 db 5c 3d 58 eb fe 39
       0.054933425 -0.058385704 0.053920034 0.00048622
0000f0 99 0a 89 be eb 07 fe be 60 e6 4e bd 03 e4 3c bb
       -0.26765898 -0.49615416 -0.05051267 -0.002882243
000100 29 6b 98 3c c0 9b 6e 3e ad 6c 0a 3a 96 0b a1 3d
       0.018605785 0.23301601 0.0005280476 0.07863538
000110 10 1f 3b 3e 87 65 6b bd 48 8e c5 3c d0 4b c1 3b
       0.18273568 -0.05746987 0.024115697 0.00589893
000120 2b d3 84 bd 0a 51 eb 3d 62 0a 70 3d bd 40 ae bc
       -0.064855896 0.11490066 0.05860365 -0.021271104
000130 dc 6f fd bb 52 6b c0 3a 24 bc 18 3e 7b 1e 58 3d
       -0.007734282 0.0014680421 0.1491552 0.052763443
000140 4f cf 92 3d dc 52 b2 3c 0c 30 af bd b4 1d ab bb
       0.07168447 0.021768026 -0.08554086 -0.0052220467
000150 2c 9b 16 3d 3a 03 a4 3c b9 05 e5 3d 21 24 96 bd
       0.036769077 0.02002107 0.11182732 -0.0733111
000160 7e 1b 5b 3d c3 4c 56 be bd 9e e8 3d c3 d7 d1 3d
       0.053493015 -0.2092772 0.11358402 0.102462314
000170 2d c6 f8 3d f8 06 b7 3e 54 4e 8f 3d 2a f9 3e 3e
       0.12147174 0.35747504 0.06997362 0.18649736
000180 4b 3d 9f 3e f7 cc 4f be 9d 55 0a 3e b4 38 bb bd
       0.3110145 -0.20293032 0.13509221 -0.09141675
000190 b4 e2 8c bd ec 83 16 3d df 67 ac 3d 79 6a a1 bd
       -0.06879178 0.036746904 0.08418249 -0.07881636
0001a0 90 51 fb 3c 66 8b 07 3e a6 88 6a 3d c6 c5 60 3d
       0.03067854 0.1323677 0.057259224 0.05487611
0001b0 99 89 9b 3e ca 48 70 bd f5 8c c4 bc 94 06 df 3c
       0.30378416 -0.058663167 -0.023992995 0.027224816
0001c0 9a 79 16 3e 19 47 9a 3d f1 1a a0 bb 58 69 26 3e
       0.14694825 0.07533092 -0.004886024 0.16251123
0001d0 7f bd ff 3c 93 3f 34 3e af a8 95 bc 16 f5 ba 3c
       0.031218288 0.17602377 -0.018268911 0.022821944
0001e0 67 35 6f 3c 8a 6d 8d 3e e6 dd 9a bd f3 2d 9c 3d
       0.014600134 0.27622634 -0.07561855 0.076259516
0001f0 af 58 49 3e f7 df d3 bd 59 7f 24 3b d2 d7 bf 3d
       0.19662736 -0.10345452 0.002510032 0.09367336
000200 ea 1b 36 be bf e0 cd bd 4f 8b f6 3c f0 29 89 bd
       -0.17784086 -0.100526325 0.030095724 -0.06697452
000210 21 98 60 be d2 90 08 be b6 eb 8f 3d 75 57 a8 bd
       -0.21933033 -0.13336495 0.0702738 -0.08219806
000220 70 2d aa 3d 79 2c e7 be 98 a9 39 3d 39 b4 43 be
       0.08309448 -0.45151117 0.045327753 -0.19111718
000230 61 d0 28 be 98 a7 ae be 81 c5 95 3d b3 42 34 bc
       -0.1648574 -0.3411224 0.073130615 -0.01100223
000240 f3 03 f7 be 05 68 47 be 3c 17 9f 3c da 7a e4 bc
       -0.482452 -0.19473274 0.019420259 -0.027890611
000250 76 56 c8 bb 80 11 81 bd dd 03 bb bd 99 91 49 be
       -0.0061138226 -0.06302166 -0.09131596 -0.19684447
000260 7a 15 45 be a9 f3 e5 be 10 c1 ce be 6f 8d 3a bc
       -0.19246474 -0.4491246 -0.4038167 -0.011386259
000270 f2 d4 80 bd 7e dc bd bd 5c ec 8d bb 26 28 13 be
       -0.06290616 -0.09270571 -0.0043311547 -0.14370784
000280 39 4a 99 3d 8b 31 cf 3b 04 36 aa bc d9 d7 f9 bd
       0.0748486 0.0063230447 -0.02077771 -0.12199373
000290 5b d8 88 be 2e 84 20 3e 62 f1 0b 3d 20 b7 51 bd
       -0.26727566 0.15675423 0.034165747 -0.051200032
0002a0 e4 e9 49 3d d1 28 84 bd 97 0b 83 bd 0f 01 35 3d
       0.04929532 -0.064530976 -0.06398695 0.044190463
0002b0 5a 46 64 bd 34 75 8d be 05 86 b5 3d b3 05 3a be
       -0.055731155 -0.2762848 0.08863453 -0.18166237
0002c0 ae d8 64 be 6c 69 4d 3e ec ec 0b be 42 60 ac 3d
       -0.22348282 0.20059747 -0.13664597 0.08416797
0002d0 cb 8a 7a bd 1f e2 ec 3c f4 12 43 be 0a 94 29 3d
       -0.06116752 0.028916417 -0.19050199 0.041400947
0002e0 b7 1d d6 3c 64 c6 0b b9 13 9b 53 3c d0 a2 b7 3c
       0.026137216 -0.00013329979 0.012915391 0.022416502
0002f0 ec 46 34 3e ef 15 20 3f 0d d5 95 3d 16 bb 9a 3d
       0.1760518 0.6253347 0.07316027 0.07555215
000300 86 41 9f be 3e 2b 94 be d9 7f f9 bc d6 09 92 3d
       -0.31104678 -0.2893924 -0.03045647 0.07130782
000310 4e 3f da bd f0 84 12 bd 04 52 cd 3d ff 47 56 ba
       -0.10656606 -0.03577131 0.10025409 -0.00081741804
000320 d8 66 41 3c e5 93 3a be 5e 48 a8 3d 8c 7a ae 3d
       0.011804305 -0.1822048 0.08216928 0.08519468
000330 9a 7b a7 3d 21 7c 6c 3d ee 61 81 3c b6 3d b4 3d
       0.08177872 0.057735566 0.015793767 0.08800833
000340 90 48 85 3b 3d 88 62 3d 5e 70 6e 3d e8 c6 ca 3d
       0.004067488 0.05530571 0.05821263 0.099012196
000350 74 4f 9e be a7 eb 80 bc c6 dc b8 3d ba f1 e9 bc
       -0.30919993 -0.015737368 0.09026484 -0.028557647
000360 80 bd b9 3a 25 0a ba 3d 10 0f d1 3c 8c bb a8 bd
       0.0014170855 0.09083966 0.025519878 -0.08238897
000370 a8 87 e8 bd ab 20 ed be 5c 06 74 bd 3d a9 ed bd
       -0.113539994 -0.46313986 -0.059576377 -0.11604545
000380 c6 5e c3 be 4f 93 71 3b ab 92 b0 bc 2b ab d0 be
       -0.38158244 0.0036861484 -0.021554312 -0.4075559
000390 6c bc fc 3c ee c5 e5 bb d7 7a c1 3c 06 82 b3 3d
       0.030851565 -0.0070121204 0.023618145 0.087650344
0003a0 fe 6f 7c bd df b9 09 3d 29 77 7c 3d 58 16 7f 3d
       -0.06163024 0.033624526 0.061637077 0.062277168
0003b0 ca c5 1b bf e0 f5 1b 3e f9 2a 84 bd 5e bd e6 3c
       -0.6084868 0.15230513 -0.06453509 0.02816647
0003c0 d1 70 e7 bc a9 0e e8 be 6b a3 c5 bc b4 6d 42 be
       -0.028252037 -0.45323685 -0.024125775 -0.18987161
0003d0 07 7d 3c be 3e 1e 01 3d 74 88 1b 3d a8 2b aa bd
       -0.18407069 0.03152298 0.03797193 -0.08309108
0003e0 1c 95 4d 3d 7d a4 39 be f1 41 01 bc 36 9c e2 3d
       0.05019103 -0.18129154 -0.007889257 0.11064951
0003f0 19 c1 40 bd d4 53 fa 3d 1d 24 0f be f0 be 94 3d
       -0.047059152 0.1222302 -0.1397862 0.07262981

q_network.fc1.bias f4 [128]
000000 11 67 79 bc e8 10 1e 3e 88 40 b6 3b 66 10 0c bc
       -0.015222327 0.15436137 0.005561892 -0.008548832
000010 88 9a 05 3d da 55 43 bd 26 5c 1f 3d af 5c a7 3d
       0.032618076 -0.047689296 0.03890624 0.08171975
000020 b5 f3 05 3e 7c ec 61 3d 49 0e 1b 3d e8 e4 7f bd
       0.13081248 0.05515717 0.03785542 -0.06247416
000030 a9 a8 f0 3c 29 7d 70 3d 30 bd 19 3c 14 59 da bd
       0.029377298 0.058713112 0.009383485 -0.106615216
000040 93 b4 ab bc 0d 39 6e bd 58 6d a1 3b 1c 3a 9d bd
       -0.020960128 -0.058159877 0.004926365 -0.07677099
000050 19 70 51 3d 6e b1 9d bd 74 67 62 bd 39 0b c3 bd
       0.051132295 -0.07699858 -0.05527444 -0.09523625
000060 20 d7 01 3e ee 6d 86 3d aa c9 91 3d d1 25 ce 3d
       0.1267972 0.06563936 0.071185425 0.10065807
000070 5c 67 e1 3b df 56 82 bd ab 11 fe bc 92 19 1f bd
       0.0068787765 -0.063642256 -0.031014284 -0.038842745
000080 2c 63 2a 3b 24 80 13 bd ba 60 07 bc 88 79 5c 3d
       0.0025999052 -0.036010876 -0.0082628075 0.05382684
000090 72 30 a5 bd f3 4f 78 bc fd 63 7b bc 73 55 b1 3d
       -0.08065881 -0.01515578 -0.015343663 0.08658876
0000a0 6d e8 36 3d bc 72 ae bd 64 d6 d3 bd ff a4 22 bd
       0.044655252 -0.085179776 -0.10343626 -0.039708134
0000b0 5b f0 a9 bc 80 67 61 3d 82 14 fc bc 9b 42 89 bd
       -0.020744493 0.055030346 -0.030771498 -0.06702157
0000c0 5b b2 f9 bd 9e c0 86 bc 7e 16 72 3d 02 4e 8b bd
       -0.12192222 -0.016449269 0.05910348 -0.06801988
0000d0 11 0b 80 bc f1 d9 77 3d 50 78 06 3e e2 6e 6e bd
       -0.015630277 0.06051058 0.13131833 -0.058211215
0000e0 61 34 ca bc 58 8e 12 3e 97 ec 86 3c e8 ea 55 3c
       -0.02468318 0.14312112 0.016470237 0.013056494
0000f0 64 e0 bd 3c 69 c1 d3 3c 16 43 82 bc a6 d9 8a bc
       0.023178287 0.025849061 -0.01590113 -0.016949486
000100 c3 df 79 3d 1d 07 61 bb e9 1f 09 bd b8 f6 95 bd
       0.06100441 -0.0034336515 -0.033477698 -0.073224485
000110 8a c8 d2 bc df e9 ae 3d 52 d9 96 bc d0 c4 65 bc
       -0.02573039 0.08540701 -0.018414173 -0.014023975
000120 2c 5d b1 3d e6 07 75 3d 37 60 70 bc ea d8 48 3d
       0.08660349 0.059821986 -0.014671377 0.04903499
000130 85 34 e4 3d b0 c1 06 bb 87 ac 53 3d 88 08 58 bd
       0.1114283 -0.0020562224 0.051678207 -0.05274251
000140 78 ea f2 bb 8c 16 b8 3d 27 40 8f bd d2 8e b0 bd
       -0.0074132048 0.089886755 -0.06994658 -0.08620991
000150 66 6f e2 bc bb ff e1 3d 3f ce e7 bd 87 fd 98 bc
       -0.02764101 0.11035105 -0.11318635 -0.018675579
000160 c4 35 9e 3a 94 fe 30 bd 4a 4d 90 bc d0 4f 28 bd
       0.0012070467 -0.043211535 -0.01761498 -0.04109174
000170 7b 7f 6c bd 38 90 d3 bb 27 bc d4 bd c1 f6 3a bb
       -0.057738762 -0.006456401 -0.1038745 -0.0028528424
000180 84 7d ba bc a8 60 98 3d ba 2c 66 bd dd 9f 07 3e
       -0.022764929 0.07440311 -0.056195 0.13244577
000190 e5 6f 05 bd da 70 d5 3d 8e 4d c7 bd 24 14 db bc
       -0.032577414 0.10421915 -0.09731589 -0.026743002
0001a0 3f 0d bc bc 99 67 87 3b ee 87 e7 bd 53 ef 86 3d
       -0.022955535 0.004132223 -0.113052234 0.06588616
0001b0 89 d7 b4 bd 37 52 da 3d 2f d8 45 bd ac ed ae bd
       -0.088301726 0.106602125 -0.048301872 -0.08541426
0001c0 e4 ab 2d bc 76 e3 af bd 87 3c 7a 3d a0 a8 99 3d
       -0.010600064 -0.085883066 0.06109288 0.07502866
0001d0 57 7c 6c bd 22 43 85 bd 6f de 86 3d 8c 1f b9 3d
       -0.057735767 -0.06506945 0.065853946 0.0903922
0001e0 b3 dd 7b ba b4 c9 15 3d f3 58 fb bd 20 c8 ea 3d
       -0.0009607926 0.036569312 -0.12272825 0.11463952
0001f0 ec 6c 0e 3c 4e b4 a7 bb 4b f5 5c bd f4 b5 96 bd
       0.008692961 -0.0051179295 -0.053944867 -0.073589236

last_layer.weight f4 [200, 128]
000000 90 07 e0 bc 82 9f 50 be 56 43 3e be 35 9b 4c 3d
       -0.027347356 -0.20373347 -0.18580374 0.049952704
000010 7f 69 98 be bb 53 71 be 3a e0 3f be e4 99 1e bf
       -0.29767987 -0.23567097 -0.1873788 -0.6195357
000020 af 95 38 be 8d 27 67 bd b0 cd 1b 3d 8c 82 af 3d
       -0.1802585 -0.056434203 0.038037956 0.08569822
000030 81 b0 ea 3c ac ab 73 c0 3e 91 9c 3d 23 b4 51 be
       0.028648617 -3.807353 0.0764489 -0.20478873
000040 03 1e 13 3d 67 f0 03 bd 6d 5c 8e bf b3 4b 1b 3d
       0.035917293 -0.032211687 -1.1121956 0.03791399
000050 b0 11 1b bf 03 59 2d 3d e4 bd 81 3c e5 f1 cf bc
       -0.60573864 0.042321216 0.015837617 -0.025383899
000060 71 57 4d be 88 66 03 be 2e 4c 20 c0 c7 fa 50 be
       -0.20052887 -0.12832081 -2.5046496 -0.20408164
000070 eb 60 25 3c 50 9a 1b bd 92 0f 2d bc a4 bd 76 3d
       0.010093908 -0.03798896 -0.010562794 0.06023945
000080 76 d3 a1 bf 20 57 23 bc 0a 71 70 bd 47 71 43 bd
       -1.2642658 -0.009969503 -0.058701552 -0.04771545
000090 15 dd ae 3c e7 1a b8 3b 7b 55 5d be 64 76 6a be
       0.021345655 0.0056184414 -0.2161464 -0.22896725
0000a0 40 d4 2e be 46 c4 9b 3d 4b 22 1b 3d a6 48 75 3d
       -0.17073154 0.076057956 0.0378745 0.059883736
0000b0 fd 0e 73 3c c0 55 25 be c0 cb a9 3d 02 20 9c bd
       0.014835116 -0.16145992 0.08290815 -0.076232925
0000c0 a4 b9 49 be 0f 78 03 bd a0 a6 fa bd f6 d9 3c be
       -0.19699723 -0.03209692 -0.122388124 -0.1844252
0000d0 7d e1 98 bd e0 44 3b bd 16 25 61 be fc d7 2b bd
       -0.074648835 -0.04571998 -0.21986803 -0.041954026
0000e0 b3 c9 45 be 91 2c 88 be a0 3c 35 be 84 48 2c bd
       -0.19315223 -0.265965 -0.17698908 -0.042061344
0000f0 54 21 61 c0 ff 41 9f bd c1 e8 b0 bc b3 8f 5f be
       -3.5176592 -0.0777626 -0.02159536 -0.2183216
000100 3f 03 2f c0 1e 9b 39 bd bc cc dc bc 1a e4 34 bd
       -2.7345731 -0.045313947 -0.026953094 -0.044162847
000110 6b cf 52 be 9b 59 ea bd af 57 26 be 24 ab 8d bd
       -0.20586936 -0.11442872 -0.16244386 -0.06917408
000120 3a 2e 84 be 9d be 54 bd b0 33 d3 be 29 a2 37 be
       -0.25816518 -0.051939595 -0.41250372 -0.17932953
000130 8e 3d 06 bf b7 3d e0 3c c0 61 bc be 20 83 6e 3c
       -0.52437675 0.027373178 -0.36793327 0.01455763
000140 c4 36 c7 bd 0b cc b8 bd 3e 4a 66 bd 9f 77 96 3d
       -0.097272426 -0.09023293 -0.056223147 0.07347035
000150 1e 4d 86 3d d3 80 ec be 21 42 2c 3d 95 08 9b 3c
       0.06557678 -0.46192035 0.042055253 0.01892499
000160 4c 42 0d be b0 ec 27 be 28 05 4f be 39 58 5e bd
       -0.13794822 -0.16398883 -0.2021681 -0.054283354
000170 38 56 22 be 6f 6b 8e bd 0e 7e 9d bd ad fd 17 be
       -0.15853202 -0.06954085 -0.07690059 -0.14842863
000180 a3 e5 65 3c 48 70 d3 bd 3d 7f 23 bd 94 83 ca bf
       0.0140318 -0.1032415 -0.039916266 -1.5821404
000190 99 4f 01 3d 6e 60 16 be 35 dc 7a 3b fe 82 f0 bc
       0.03157005 -0.14685223 0.0038278226 -0.029359337
0001a0 25 77 2e bf f2 e4 36 be 23 ac 69 3d 02 99 6d 3d
       -0.6815055 -0.17860773 0.057048928 0.058007248
0001b0 24 43 9a bc e7 18 44 be b1 5d 81 3d 54 14 2b 3d
       -0.018830843 -0.19150124 0.06316698 0.041767433
0001c0 a5 a1 af 3d 2c b0 18 be a7 55 23 be 10 29 53 be
       0.08575753 -0.14910954 -0.15950643 -0.20621133
0001d0 35 11 9e bd d5 47 2e bc 98 74 58 3a d1 e7 fc be
       -0.07718126 -0.010637243 0.000825712 -0.49395612
0001e0 c5 65 41 be fd 97 ce bd 53 76 10 3c ca 53 31 c0
       -0.18886478 -0.10087583 0.008817273 -2.770739
0001f0 14 60 4f bd 85 f6 3a be 91 dd 5f be ea 26 a7 3d
       -0.050628737 -0.18258102 -0.21861865 0.08161719
000200 e6 f7 00 be f7 8a 54 be 1d 38 52 be b5 39 40 bd
       -0.12594566 -0.20756136 -0.20529218 -0.046930034
000210 5d cd a1 be a7 0a 94 be 5b 57 fe bd b3 2e 8f bf
       -0.31601992 -0.28914377 -0.124190055 -1.1186126
000220 23 3b 4e be 47 ed 29 be 87 2e 28 3c 86 48 dc 3a
       -0.20139746 -0.1659442 0.010264999 0.0016806282
000230 49 ec 37 3d 76 1d 3a c0 ac 7c 85 3d eb a0 6d be
       0.044903073 -2.9080482 0.0651792 -0.23205917
000240 02 03 30 3d 9e 98 a4 bd 15 b7 dc bf 65 e7 6a bd
       0.04297162 -0.08036922 -1.7243372 -0.05734958
000250 34 d1 0c bf 68 02 9d bd 48 27 a6 3c 21 e3 b0 3d
       -0.5500672 -0.076664746 0.020282403 0.086370714
000260 26 dc 1d be 32 b9 2d be ce 1a 0f c0 1a 8e 68 be
       -0.15416011 -0.16965178 -2.236011 -0.22710457
000270 d1 1c 4d bd df 2d 46 bd 5f bf 98 3c 1b e3 37 bd
       -0.05007631 -0.04838359 0.01864594 -0.04489432
000280 08 29 87 bf 98 99 41 3c fa 18 fe bc 9d 9c e3 bd
       -1.0559397 0.011816405 -0.03101777 -0.11113856
000290 d8 14 ae 3d ed b9 f6 bd 5e 9d 78 bd 14 5d 50 be
       0.085000694 -0.12047181 -0.060696952 -0.20348006
0002a0 02 c9 25 bd cf 97 43 3c 48 3c bc 3c 5d 1b 98 bd
       -0.0404749 0.011938049 0.022977963 -0.07427094
0002b0 e6 c3 dc bd 4d 7f 11 be 27 0a 69 bc 77 98 16 bd
       -0.10779552 -0.14208718 -0.014223612 -0.036766496
0002c0 22 6c 58 be 5f f9 38 bd 78 b5 34 be 4a ab d1 bd
       -0.21135 -0.045159694 -0.1764735 -0.10237749
0002d0 66 23 49 bd d2 68 c2 bd c2 d1 75 be 34 6b 09 3d
       -0.049106024 -0.09492649 -0.24005798 0.033549502
0002e0 65 b4 4f be 9a 55 07 be a3 da 39 be 95 9d 00 3c
       -0.20283659 -0.13216248 -0.1814981 0.0078500705
0002f0 ba 36 19 c0 05 56 23 be d8 9a dc bc 8d 88 3a be
       -2.3939652 -0.15950783 -0.026929304 -0.18216152
000300 55 9d e8 bf 5c 1a 27 3d 97 12 68 bd aa fe 94 bd
       -1.8173014 0.040796623 -0.056658354 -0.07275136
000310 58 c9 8a bd 4f a2 2b be e0 5d 43 bd 18 72 ac 3c
       -0.067766845 -0.16761135 -0.047696948 0.021050498
000320 39 46 a0 be 4e a9 0b 3d 52 19 d7 bf f3 86 3e be
       -0.31303576 0.03409701 -1.6804602 -0.18606167
000330 30 94 0f bf 62 47 94 3d f0 d4 2d bf 31 d3 8d 3d
       -0.5608549 0.07240178 -0.6790304 0.06925047
000340 7c 9a e0 bd da d1 c9 bd ff c6 7e 3d 7b 20 0c 3d
       -0.109669656 -0.09854479 0.062201496 0.034210663
000350 19 36 44 3d fe fb d4 be 76 b6 28 3d f1 2f c2 bd
       0.047903154 -0.41598505 0.041189633 -0.094818
000360 00 d0 c6 bd 91 00 39 be 9c 8b 9c be f0 bb a5 bc
       -0.097076416 -0.18066622 -0.30575264 -0.020231217
000370 95 2f c3 bd 49 1b 11 bd 2a 18 00 3c 24 b6 0b be
       -0.0953056 -0.03542641 0.007818261 -0.136437
000380 9c 05 2a bd 6b 8d 26 be 4e c7 09 be 7d d0 f6 bf
       -0.041509256 -0.16264884 -0.13454935 -1.9282376
000390 97 19 ce bd 02 05 ee bd 65 55 85 bd a0 af 03 bb
       -0.100634746 -0.11622049 -0.06510428 -0.0020093694
0003a0 78 dc 15 bf 83 d7 31 be d3 fc 20 3d b0 81 92 bd
       -0.58539534 -0.17367367 0.039303612 -0.07153642
0003b0 2e 3e 99 bd 5e 42 d9 bd 25 dd 65 bd 71 48 8a 3d
       -0.07482563 -0.10608362 -0.056119103 0.06752098
0003c0 23 6c a2 3d 8e 3b aa bd 6f 63 1c be 94 c8 f2 bd
       0.07930782 -0.083121404 -0.15272306 -0.118546635
0003d0 41 b9 5a bd cd fd d8 3b 3e f5 aa bd 9b 31 a9 be
       -0.05339933 0.0066220523 -0.083475575 -0.33045658
0003e0 0b 42 e2 bd 00 6b b3 bd 01 31 22 bd b2 53 10 c0
       -0.11047753 -0.08760643 -0.039597515 -2.2551084
0003f0 92 ff 65 3d 4a f1 0f be 62 b9 da bd 2b 82 32 bd
       0.056151934 -0.14056888 -0.1067989 -0.04358117

last_layer.bias f4 [200]
000000 b1 db f2 bb 0f 03 df bd 9f 88 35 be ab 7a 63 be
       -0.007411443 -0.10889255 -0.17727898 -0.22214763
000010 a7 5e 3b be 07 46 37 be 07 5d e1 bd a9 34 2f be
       -0.18297826 -0.17897807 -0.11004072 -0.17109932
000020 39 f8 98 bd 65 40 40 be ea 98 41 be 60 00 48 be
       -0.0746922 -0.18774565 -0.18905988 -0.19531393
000030 5f 19 51 be 06 08 65 be c6 89 7f bd 84 d1 2a be
       -0.20419835 -0.22366342 -0.06238725 -0.16681486
000040 13 9c 2e be b1 4d 74 be 0b 9a a6 be dc ca 9f be
       -0.17051725 -0.23857762 -0.325394 -0.31209457
000050 4f c9 81 be 8a 33 5f be cc 22 3d be bd 13 ad be
       -0.253489 -0.21797004 -0.18470305 -0.33804122
000060 38 d5 69 be 18 e9 96 be 0f 4f 21 be 5a 7b 8d be
       -0.22835243 -0.2947471 -0.15752815 -0.27633172
000070 5f 33 83 be 51 7d 66 be 0a f4 98 be a4 fc 98 be
       -0.2562513 -0.22508742 -0.29873687 -0.2988025
000080 dc 26 94 be 14 63 e4 be 17 7a d3 be 68 54 c7 be
       -0.28935897 -0.4460684 -0.41304085 -0.38931584
000090 be 20 e2 be e6 69 c8 be 5f ea 9d be 1d 37 ce be
       -0.44165605 -0.39143294 -0.30842873 -0.40276423
0000a0 15 3a a7 be 3b 43 c9 be 32 39 b9 be 89 ab 95 be
       -0.326615 -0.39309105 -0.3617645 -0.29232433
0000b0 46 ea cd be 3c 9d d7 be 7d b7 e6 be b3 ce c0 be
       -0.402178 -0.42112148 -0.45061865 -0.376577
0000c0 e1 4d bb be b9 8a c4 3b 6f c9 51 3d 39 35 85 3c
       -0.36582854 0.0059979823 0.051217493 0.01626073
0000d0 a1 1f cc 3b 4d 48 b3 3d a8 e5 34 bc 31 6c 9c 3d
       0.0062293564 0.08754025 -0.011041082 0.076378234
0000e0 9d 2f d7 3c 2c cd c3 3c e2 ca ba 3c 9a 0b bf bc
       0.026267821 0.023901545 0.02280182 -0.023320962
0000f0 fb 88 5c bd 43 c8 95 3d f7 fe 41 3c e4 3f e4 3c
       -0.053841572 0.073135875 0.0118405735 0.027862497
000100 ce 53 ad 3b 76 78 b9 3d 14 78 48 3e 1a ab 59 3e
       0.0052895313 0.09056179 0.19577056 0.21256676
000110 a6 b1 1f 3e 7d f0 c3 3d 57 94 4d 3e 50 c8 e6 3d
       0.15595111 0.09567354 0.20076118 0.11268675
000120 c4 4e 9b 3d 74 8a b4 bd 1c 0d bc 3d 4a 43 64 3d
       0.07583383 -0.0881547 0.09182188 0.055728234
000130 95 98 8b be 36 92 d4 be de cc c1 be 32 4d d8 be
       -0.27264848 -0.415178 -0.37851614 -0.42246395
000140 f1 3d da be 66 2d da be 2a cf 01 bf f9 74 93 be
       -0.42625383 -0.4261276 -0.5070673 -0.2880018
000150 f3 6d bb be 81 45 b1 be 3b 7c ef be 79 b7 b1 be
       -0.36607322 -0.3462334 -0.46774468 -0.3471029
000160 a1 b3 e7 be 0b 0f 9a be 46 57 9a be 5a 6d 90 be
       -0.45254233 -0.30089602 -0.3014471 -0.2820843
000170 9d e0 87 be a0 60 9e be 6c 4f 8b be 43 bc da bd
       -0.26538554 -0.30933094 -0.27209032 -0.10680439
000180 97 dd 1d be 27 ed 18 be 44 cb bb bd a9 3e 27 bd
       -0.15416561 -0.14934216 -0.09169629 -0.04083124
000190 0e ce 3f be 0f e5 45 be 0a e2 23 be 9e ac 8c be
       -0.18730947 -0.1932566 -0.16004196 -0.27475446
0001a0 65 dc a4 be ff 07 16 be ae 14 76 be 6e 04 18 be
       -0.32199398 -0.14651488 -0.24031326 -0.1484544
0001b0 15 91 50 be fe 32 15 be 4d 4f 1e be 72 87 9b be
       -0.20367844 -0.14570233 -0.15459938 -0.30376774
0001c0 b1 cc 4c be 22 ea 6f be 14 cd 8b be 68 99 85 be
       -0.19999959 -0.23429158 -0.273049 -0.26093602
0001d0 28 4d 85 be 84 14 8e be d5 db 9d be 92 55 b0 be
       -0.26035428 -0.27750027 -0.3083178 -0.34440285
0001e0 00 49 c4 be c4 33 ab be c1 38 ca be 40 5a 8b be
       -0.38336945 -0.33437932 -0.39496425 -0.27217293
0001f0 4d c9 97 be df fa af be 86 98 d8 be d6 1c d9 be
       -0.29645768 -0.34371087 -0.42303866 -0.42404813
000200 d1 4f a0 be 51 8d b4 be 37 b3 c4 be 07 f4 a1 be
       -0.31310895 -0.35264066 -0.3841798 -0.3163149
000210 05 a7 a9 be 2b 01 ed be 4a d5 d5 be 3f 3e c3 be
       -0.33135238 -0.46289954 -0.4176429 -0.38133428
000220 d4 2f 9e be 19 94 cd be 22 08 c8 be 7d d3 aa be
       -0.30895865 -0.40152052 -0.39068705 -0.33364478
000230 f1 42 dc be 9e de ec be 8c 0c de be c0 f8 c2 be
       -0.43019822 -0.46263593 -0.43368948 -0.38080406
000240 f2 28 ec be ef 27 e3 be 7f 2d ce be 8f 47 e1 be
       -0.4612499 -0.44366404 -0.40269086 -0.43999907
000250 68 37 ea be 89 eb c2 bd d4 a0 69 3d a2 5a b4 3d
       -0.45745397 -0.09517581 0.057038143 0.08806349
000260 87 2b 9a 3c 03 cb 9c 3b 35 ea 3b 3d dc 3c b2 3d
       0.018819584 0.004784943 0.045877654 0.08703014
000270 c0 58 bd 3d 1f a5 f6 3d ed f8 13 3d b5 a4 44 3d
       0.09245443 0.12043213 0.036126066 0.04800864
000280 f4 b9 75 3c 89 7b c3 3d 10 0d d3 3d 27 e8 4c 3e
       0.014997948 0.09545047 0.10305226 0.20010434
000290 f3 ac d4 3d e7 fd 49 3e 05 b9 0a 3e fa 4d 01 3e
       0.1038455 0.19725762 0.13547142 0.12627402
0002a0 f0 cc 82 3e 9c 3b 6b 3e 68 28 70 3e e3 fb 2c 3e
       0.2554698 0.22971958 0.23452914 0.16892962
0002b0 da 67 9e 3b b9 55 a3 bc 15 46 bb 3d 3c 67 25 3e
       0.0048341574 -0.019938337 0.091442265 0.16152662
0002c0 57 75 78 be 9b cd b0 be c9 05 b4 be a4 3b dc be
       -0.24263512 -0.34531865 -0.35160664 -0.43014252
0002d0 9e 93 be be db fc eb be c9 ef c2 be a6 b7 e6 be
       -0.37221998 -0.4609135 -0.38073567 -0.45061988
0002e0 38 1b b7 be f5 f2 e5 be ec f1 c3 be 76 b0 b7 be
       -0.35762954 -0.44911924 -0.3827051 -0.35876817
0002f0 ee 16 d7 be 43 99 c5 be 6f 45 c9 be c6 f8 c5 be
       -0.4200968 -0.38593492 -0.39310786 -0.38666362
000300 1b 96 bd be 69 25 ae be 5b e4 ce be ac fb 47 be
       -0.37028584 -0.34012917 -0.40408596 -0.19529599
000310 23 e1 6b be c3 6b 37 be d4 9f a0 be dc c7 24 be
       -0.23035102 -0.17912202 -0.3137194 -0.16091865
