models/checkpoints/checkpoint.pth (torch_old, 84990 bytes, 8 tensors)

fc0.weight f4 [100, 4]
0	0x3dc96d0f	0.098352544
1	0xbbfb132f	-0.007662199
2	0xbec115bc	-0.37711895
3	0xbe262a5a	-0.16227093
4	0xbde69ac4	-0.11259988
5	0x3e884869	0.26617745
6	0xbd4e5e95	-0.05038317
7	0x3e5f7d5d	0.21825166
8	0xbcae919e	-0.02130967
9	0x3c04b19d	0.008098987
10	0xbd8c5f32	-0.068540946
11	0xbd1e9830	-0.038719356
12	0xbe598dba	-0.2124547
13	0xbe4d18fb	-0.2002906
14	0xbe4f5912	-0.20248821
15	0xbdaa6745	-0.08320478
16	0x3cc504a0	0.024050057
17	0xbc556838	-0.013025336
18	0xbeae0890	-0.33990908
19	0xbdf34469	-0.118782826
20	0x3e21672a	0.1576201
21	0x3ec85194	0.3912474
22	0xbe07b1ce	-0.13251421
23	0x3eaa08f4	0.33209956
24	0x3dc13d54	0.094355255
25	0xbe0d55df	-0.13802288
26	0x3ebc24f7	0.36746952
27	0xbeafa96b	-0.34308943
28	0xbd934799	-0.071913905
29	0x3cdd673f	0.02702677
30	0xbe091651	-0.1338742
31	0x3e4e90f3	0.20172481
32	0xbe1bd547	-0.15218078
33	0xbe46c7fa	-0.19412223
34	0x3dbcb148	0.09213501
35	0xbe25b3a7	-0.16181813
36	0xbdce031c	-0.10059187
37	0x3eac2920	0.33625126
38	0x3e7239ec	0.23654908
39	0x3e69413a	0.22778788
40	0x3c699d14	0.014258642
41	0xbe69d661	-0.22835685
42	0x3e83565e	0.2565183
43	0xbe9abb83	-0.30221185
44	0xbdc4b0f2	-0.09604062
45	0xbe16e12d	-0.14734335
46	0x3d55f877	0.052238908
47	0xbd8c1125	-0.068392076
48	0xbcc21a50	-0.023694187
49	0x3e00430b	0.12525575
50	0x3e2121cf	0.15735553
51	0x3e7d7454	0.24751407
52	0x3dc506a7	0.096204095
53	0xbe34c197	-0.17651974
54	0x3e8ec97b	0.27888092
55	0xbe0d240c	-0.13783282
56	0xbae71b50	-0.0017632041
57	0xbeb05ea0	-0.34447193
58	0xbf444e8e	-0.76682365
59	0xbeb4c452	-0.3530603
60	0x3d2694f2	0.04066939
61	0x3e3b7c8b	0.18309228
62	0x3e95e752	0.29278046
63	0x3e2d938a	0.16950813
64	0xbd304a63	-0.04303969
65	0x3cd8ec57	0.026479883
66	0x3e76ad14	0.24089462
67	0x3e075bb4	0.13218576
68	0x3dbb7959	0.091540046
69	0x3e2b337f	0.16718863
70	0xbe9107b0	-0.28326178
71	0x3d9a8554	0.075449616
72	0x3ca3bcf3	0.019987559
73	0x3e7ccb73	0.24686985
74	0x3ec89207	0.3917391
75	0x3e621842	0.22079566
76	0x3e2edd07	0.17076503
77	0xbee27121	-0.44226936
78	0x3ce1f4ba	0.027582515
79	0xbea9c972	-0.33161503
80	0xbd2276cc	-0.039664075
81	0x3d0625a0	0.032750726
82	0x3e12c057	0.14331184
83	0xbd3df5bc	-0.04637693
84	0x3d27ecbf	0.040997263
85	0xbe09425c	-0.1340422
86	0xbd2e7191	-0.042588774
87	0xbe3b2467	-0.18275605
88	0x3d17a203	0.03701974
89	0xbd4f7cb5	-0.05065604
90	0x3d8455d9	0.06461687
91	0xbca25b0f	-0.01981881
92	0x3e2c1591	0.16805102
93	0xbe13d46c	-0.14436501
94	0xbe817eb9	-0.25291994
95	0xbe2c1889	-0.16806234
96	0x3e6e1217	0.23249088
97	0xbdc6c27e	-0.09705065
98	0xbe34750b	-0.17622773
99	0xbdf4063f	-0.11915254
100	0x3e3dc3f2	0.18531778
101	0x3e282a47	0.16422378
102	0xbe6be951	-0.23038222
103	0xbd77ac3e	-0.060466997
104	0xbea911d9	-0.3302143
105	0xbdca89aa	-0.098895386
106	0xbf082292	-0.5317775
107	0xbdf1d3bf	-0.118079655
108	0xbe5c7fd4	-0.21533138
109	0x3e2ade93	0.16686468
110	0x3c9a5a30	0.018841833
111	0x3e01b55b	0.12666838
112	0x3b72c6d0	0.003704477
113	0x3bf7706b	0.007551243
114	0x3e0dcf84	0.13848692
115	0xbd33401f	-0.043762323
116	0x3d6a06fe	0.057135575
117	0x3ce2c73f	0.027682899
118	0x3dceca42	0.10097171
119	0x3d09cba9	0.03364149
120	0x3e3b7562	0.18306497
121	0x3cc17659	0.023616003
122	0xbdd26418	-0.102729976
123	0x3e4d0fe6	0.20025596
124	0xbe62b7d1	-0.22140433
125	0xbea9b0b9	-0.3314264
126	0xbdd0ff50	-0.10204947
127	0xbe7ff7d8	-0.24996889
128	0x3cc02943	0.023457175
129	0xbe8c5671	-0.274097
130	0xbe2fc3ab	-0.17164485
131	0xbd4262d9	-0.04745755
132	0xbe1a40ad	-0.15063734
133	0xbd136100	-0.03598118
134	0x3ec7fc83	0.3905984
135	0xbdc83743	-0.09776165
136	0x3d6cf14f	0.057847317
137	0x3cd9b00a	0.0265732
138	0x3d45d768	0.04830113
139	0x3e4b9b26	0.19883403
140	0x3dedb7af	0.116073005
141	0x3e3b3ecf	0.18285678
142	0x3f471a1b	0.7777421
143	0x3e559b6e	0.20860073
144	0xbe41b48a	-0.18916526
145	0xbe18bb6d	-0.14915247
146	0x3e2f0563	0.17091899
147	0xbde7b902	-0.11314584
148	0xbe689a81	-0.22715189
149	0xbeb4a9de	-0.35285848
150	0xbef74d37	-0.48301098
151	0xbe81586d	-0.25262776
152	0xbdd21d9d	-0.102595545
153	0xbd37e535	-0.044896323
154	0x3e947b47	0.29000303
155	0xbe5366fe	-0.20644757
156	0x3ed3c9c0	0.4136486
157	0xbec6ebde	-0.38851827
158	0xbe02a114	-0.12756759
159	0xbe803174	-0.2503773
160	0x3d13ff42	0.036132105
161	0xbdf3689e	-0.118851885
162	0xbe7a5bda	-0.24449101
163	0xbe92d48c	-0.28677785
164	0xbd3850a3	-0.044998776
165	0x3d208f76	0.039199315
166	0xbe612f0c	-0.21990603
167	0x3e255b79	0.16148175
168	0xbe8a8679	-0.2705572
169	0x3dcfaee4	0.101407796
170	0x3e80ee83	0.2518197
171	0x3de83402	0.11338045
172	0x3ea8241b	0.32840046
173	0x3e4f4976	0.20242867
174	0xbe8ff25f	-0.28114602
175	0x3e043a4f	0.12912868
176	0xbe50a6b0	-0.20376086
177	0xbe3ed08e	-0.18634245
178	0x3e6e4151	0.23267104
179	0xbe98c8ce	-0.29840702
180	0x3e342745	0.17593105
181	0xbd809e64	-0.062802106
182	0x3eb471c7	0.35243055
183	0x3d724313	0.059146
184	0x3cc6f688	0.024287477
185	0x3d8a3438	0.06748241
186	0xbd861926	-0.065477654
187	0xbd4241ba	-0.047425963
188	0xbe8c100f	-0.27356002
189	0x3e85a325	0.26101032
190	0x3ef3fb0e	0.47652477
191	0x3e87fa56	0.2655818
192	0xbea58c63	-0.3233367
193	0xbe08eb70	-0.13371062
194	0xbeb397ed	-0.35076848
195	0xbe11927f	-0.1421604
196	0xbe5aecb5	-0.21379359
197	0x3e302b79	0.17204084
198	0xbe700ab6	-0.23441586
199	0x3d5af2b3	0.053454112
200	0xbce85093	-0.028358733
201	0x3d16fd1c	0.036862478
202	0xbe52da3a	-0.2059106
203	0xbe371108	-0.1787759
204	0xbe434176	-0.1906794
205	0x3e9cfe8f	0.30662963
206	0xbdff2d68	-0.124598324
207	0x3e9ff2f0	0.31240034
208	0x3e5afd0a	0.21385589
209	0x3aac0399	0.0013123631
210	0x3d56612f	0.052338775
211	0xbd76c713	-0.060248446
212	0x3e13d907	0.14438258
213	0xbd85bc11	-0.065300114
214	0x3d86bc15	0.065788426
215	0xbcedf7b2	-0.029048774
216	0xbeb1c47f	-0.34720227
217	0xbea44643	-0.32084855
218	0xbdefd1d8	-0.117099464
219	0xbe371174	-0.17877752
220	0x3d108a94	0.03528841
221	0x3e8b92bf	0.27260396
222	0x3e49e0b1	0.19714619
223	0x3dc110aa	0.094270065
224	0xbe194e9f	-0.14971398
225	0x3db5fba0	0.08885884
226	0xbe6fc463	-0.2341476
227	0x3c5a063b	0.0133071495
228	0xbe071155	-0.13190205
229	0x3da9b543	0.08286526
230	0xbd990911	-0.074724324
231	0x3e2c3acd	0.16819306
232	0xbc993a53	-0.018704569
233	0x3e36b249	0.17841448
234	0x3eb0fba9	0.34567
235	0xbda32afa	-0.079671815
236	0x3ded3d37	0.115839414
237	0xbdc8b2e5	-0.097997464
238	0xbe0c2a52	-0.13688019
239	0x3cab9d01	0.020948889
240	0x3c971cf0	0.018446416
241	0x3e8aec07	0.271332
242	0xbdf5795d	-0.11986039
243	0x3d1e6105	0.038666744
244	0x3ea8b3fe	0.32949823
245	0xbeedfa76	-0.4648015
246	0xbdd75515	-0.10514275
247	0xbeb26432	-0.34842068
248	0x3de216a3	0.11039474
249	0xbd14655f	-0.036229488
250	0xbe35935c	-0.17731994
251	0xbcd5e88c	-0.026111864
252	0x3eacb31f	0.3373041
253	0xbe44eb42	-0.19230369
254	0xbe2d09cc	-0.16898268
255	0xbe0d3226	-0.13788661

fc0.bias f4 [100]
0	0x3ebb08cf	0.36530158
1	0xbdd9a02e	-0.10626255
2	0xbe28c061	-0.16479637
3	0x3ef332b5	0.47499624
4	0x3eb31ff8	0.34985328
5	0xbed18aa3	-0.40926084
6	0x3f14ad16	0.5807661
7	0x3ee1d126	0.4410488
8	0xbec2383a	-0.37933522
9	0x3ea1623d	0.31520262
10	0xbee14f33	-0.44005737
11	0xbe34d25d	-0.17658372
12	0x3ef47c53	0.47751102
13	0x3df897d0	0.12138331
14	0xbe3677e2	-0.17819169
15	0xbd23d986	-0.04000237
16	0xbe913f5b	-0.2836865
17	0x3e15d224	0.14630944
18	0x3d936e70	0.07198799
19	0x3f0639ea	0.5243212
20	0x3deb4c56	0.11489169
21	0xbeb3dd7a	-0.3512991
22	0x3d373748	0.044730455
23	0x3ecb05c5	0.3965284
24	0x3e8ed849	0.27899387
25	0xbf26b1c7	-0.65115017
26	0x3c9bd180	0.019020796
27	0xbec9f860	-0.39447308
28	0xbe27a4de	-0.16371486
29	0x3e8d725c	0.27626312
30	0xbed1776a	-0.40911418
31	0x3e929f45	0.28637138
32	0x3ee97e99	0.456044
33	0x3e3e075d	0.18557496
34	0xbefe4c17	-0.49667427
35	0xbdea546f	-0.11441886
36	0x3e273b77	0.16331278
37	0xbed1e0da	-0.4099186
38	0x3ebc4b10	0.36776018
39	0xbeeb5b3b	-0.4596804
40	0xbf1ef825	-0.6209739
41	0xbf059f0b	-0.52195805
42	0xbeaeec34	-0.34164584
43	0x3ec58b03	0.3858262
44	0xbf005c64	-0.50140977
45	0x3ef6db5b	0.4821423
46	0xbec1b814	-0.37835753
47	0x3e340d14	0.17583114
48	0x3db03c68	0.086052716
49	0xbf08dcf2	-0.53462136
50	0x3efb8c86	0.49130648
51	0x3e922859	0.28546408
52	0x3f05a50d	0.5220497
53	0x3e954e36	0.29161233
54	0xbea69a89	-0.32539776
55	0x3eedb4b6	0.46426934
56	0x3de35cc7	0.1110168
57	0x3e9059b8	0.2819345
58	0xbf21941c	-0.6311662
59	0xbe722200	-0.23645782
60	0xbf225fa9	-0.63427216
61	0xbcc234b3	-0.02370677
62	0x3e0d2335	0.13782962
63	0xbef35b2d	-0.475305
64	0x3e8e74a7	0.27823374
65	0x3ea43700	0.32073212
66	0x3e1af16c	0.15131158
67	0xbf05cfa1	-0.5226994
68	0xbdd35a1a	-0.1031992
69	0xbe74d399	-0.23908843
70	0x3e8d57db	0.2760609
71	0x3f14869a	0.58017886
72	0x3eb7a543	0.35868272
73	0x3d9a428e	0.075322255
74	0x3e4b2c6b	0.19841163
75	0xbf066727	-0.5250115
76	0xbf1fd116	-0.62428415
77	0x3ea8237a	0.32839566
78	0xbedff53b	-0.43741783
79	0x3e936d8b	0.28794512
80	0xbeb4b7f8	-0.35296607
81	0xbec345a2	-0.38139063
82	0xbe88913d	-0.26673308
83	0x3e88af0b	0.26696047
84	0xbe1fc3c3	-0.15602021
85	0x3ed7a22e	0.4211592
86	0x3ec5c615	0.38627687
87	0x3ea658ef	0.32489726
88	0x3e3b9aeb	0.18320815
89	0x3e00a63c	0.12563413
90	0xbd9f8978	-0.07789892
91	0x3d5150c3	0.05110241
92	0x3eaf9e43	0.34300432
93	0xbe9f29dc	-0.31086624
94	0x3efb589c	0.4909104
95	0xbe43ba9f	-0.19114159
96	0xbee822da	-0.4533909
97	0xbeb2e1f2	-0.34938008
98	0x3efd9066	0.4952423
99	0x3f065e9b	0.52488106

fc1.weight f4 [100, 100]
0	0xbdbb0e64	-0.09133604
1	0x3d212d8b	0.039350074
2	0xbb1064d1	-0.0022032748
3	0x3d1ce16d	0.03830092
4	0x3d97d54d	0.07413731
5	0x3d5ed67a	0.05440376
6	0x3cd0266e	0.02540895
7	0x3c8690fa	0.016426552
8	0xbd437b1e	-0.047724836
9	0x3c304477	0.010758511
10	0xbdb28320	-0.08716416
11	0x3c000c10	0.007815376
12	0xbd541e46	-0.051786683
13	0xbe52ae64	-0.20574337
14	0xbd6d8da2	-0.0579964
15	0xbd0892bf	-0.033343073
16	0xbec10379	-0.37697962
17	0xbf06fb18	-0.5272689
18	0x3d0aa127	0.033845093
19	0xbca3bf4b	-0.019988677
20	0xbd90977d	-0.07060144
21	0xbcc59494	-0.0241187
22	0xb8d8a844	-0.000103310245
23	0xbd9f5d21	-0.07781435
24	0xbdbc1c56	-0.09185092
25	0xbd92882b	-0.07154878
26	0xbdc09305	-0.09403042
27	0xbd1acd50	-0.037793458
28	0x3d88e567	0.0668438
29	0xbd8a2d48	-0.06746918
30	0xbb038662	-0.0020069112
31	0x3daedd95	0.08538357
32	0xbdc48c35	-0.09597055
33	0xbda7a1de	-0.081851706
34	0xbe0386ef	-0.12844442
35	0xbe1a87a4	-0.15090805
36	0xbd6626e5	-0.056189436
37	0xbdeb5dd7	-0.11492508
38	0xbd782110	-0.060578406
39	0x3c9ac5ac	0.018893085
40	0xbd560320	-0.052249074
41	0x3cb58538	0.02215825
42	0xbd483f3c	-0.04888843
43	0xbd9fec14	-0.078087
44	0xbdfe3f83	-0.12414458
45	0x3d829cd5	0.063775696
46	0xbda89ccc	-0.08233032
47	0xbcdb0612	-0.026736293
48	0xbcdffd40	-0.027342439
49	0x3dc8f8b7	0.098130636
50	0xbdca1d74	-0.09868899
51	0xbdfd0574	-0.12354556
52	0x3db90b13	0.09035315
53	0xbd9e3211	-0.07724393
54	0x3d059710	0.032614768
55	0xbcaab506	-0.020838272
56	0xbda5c0cd	-0.080934145
57	0xbd49f2bf	-0.049303766
58	0x3d5b1b14	0.05349262
59	0xbd95a6e2	-0.07307221
60	0xbdf834bf	-0.121194355
61	0xbe5c91d9	-0.21540011
62	0xbd3a7fa7	-0.045531895
63	0x3d4e1e12	0.050321646
64	0xbdb05507	-0.08609968
65	0x3d8a5e78	0.067563
66	0xbd208346	-0.039187692
67	0xbcac806c	-0.02105733
68	0x3e3fa76f	0.18716215
69	0x3c3be21e	0.011467485
70	0x3d816db0	0.06319749
71	0x3d33d062	0.0438999
72	0xbd533d99	-0.051572416
73	0xbe2d4b69	-0.16923298
74	0xbc6ecfd1	-0.0145759145
75	0x3d874a42	0.066059604
76	0xbe0c164c	-0.1368038
77	0xbdc93098	-0.09823722
78	0xbe357578	-0.17720592
79	0x3da08d9c	0.0783951
80	0xbce93668	-0.028468326
81	0xbd4e746a	-0.05040399
82	0xbd9d2ca5	-0.07674531
83	0x3bee4147	0.0072709653
84	0xbda34ca0	-0.079735994
85	0xbd96bf2d	-0.07360683
86	0xb984da12	-0.00025339477
87	0x3c428d10	0.011874452
88	0x3d6515da	0.055929042
89	0xbf1fc31f	-0.62407106
90	0xbddec65b	-0.10877677
91	0xbeb0d1c4	-0.34535038
92	0xbdee505e	-0.116364226
93	0x3da06fd0	0.078338265
94	0x3ca65e6b	0.020308694
95	0x3d23caac	0.039988205
96	0x3cfc3d48	0.03079094
97	0x3da01e84	0.078183204
98	0x3d90efca	0.07076986
99	0x3d92ec07	0.07173925
100	0x3c83db0b	0.016095659
101	0xbcaee3b5	-0.021348814
102	0x3ca43c30	0.02004823
103	0x3e254a29	0.16141571
104	0x3d702f7f	0.058639046
105	0xbba07b44	-0.004897507
106	0x3e12ba1d	0.14328809
107	0x3c521f15	0.012824793
108	0xbd20934e	-0.03920298
109	0x3d98ce2f	0.074612014
110	0xbda81912	-0.08207907
111	0xbdc9d429	-0.098549195
112	0x3e112a6b	0.14176337
113	0x3d5fb4ef	0.05461591
114	0xbd820da5	-0.06350259
115	0xbd440340	-0.047854662
116	0x3e3e8772	0.18606356
117	0x3d420a9e	0.047373407
118	0x3d9dde87	0.07708459
119	0x3dc689fd	0.09694288
120	0xbbf3f1ad	-0.0074445815
121	0x3dd6e5d3	0.10493054
122	0x3cb8cf57	0.022559805
123	0x3c47d1e8	0.012196042
124	0x3d9824e4	0.07428911
125	0xbcd1983d	-0.025585288
126	0x3d96088e	0.073258504
127	0x3ceeecbe	0.029165622
128	0xbd0cc5b8	-0.034368247
129	0x3d9ac276	0.07556622
130	0x3e41dce6	0.18931922
131	0x3ddd6d8d	0.10811911
132	0x3dc39ae3	0.09551027
133	0x3dd53563	0.10410573
134	0x3c9676aa	0.01836713
135	0xbcc669e8	-0.024220422
136	0x3cb7bdc6	0.022429358
137	0xbe0f618d	-0.14002056
138	0x3ca49088	0.02008845
139	0xbcd7f651	-0.02636257
140	0xbdb1fb81	-0.08690549
141	0x3d2b0572	0.04175324
142	0x3d849d71	0.06475342
143	0x3dbdf80b	0.09275826
144	0x3d6348d4	0.055489376
145	0x3e300e36	0.17192921
146	0xbd9c117f	-0.076205246
147	0x3e147f95	0.14501794
148	0x3c8c4e2d	0.01712712
149	0xbdbe6813	-0.09297194
150	0x3e1ba76c	0.15200585
151	0x3d006ea4	0.031355515
152	0x3e34f388	0.17671025
153	0x3c1eb67f	0.009687065
154	0xbd972b30	-0.07381284
155	0x3d41cb56	0.047313057
156	0x3dc835e8	0.09775907
157	0x3e11dd44	0.14244562
158	0xbde25f19	-0.11053295
159	0x3d122701	0.03568173
160	0x3c2735d9	0.010205709
161	0xbd6febe0	-0.058574557
162	0x3e17bc43	0.1481791
163	0xbc210b73	-0.00982939
164	0x3dd002c6	0.10156779
165	0x3e238d6a	0.15971914
166	0x3d4e0fca	0.050308026
167	0x3d3314cf	0.043721016
168	0x3d076fff	0.033065792
169	0x3b277274	0.0025550397
170	0xbd0ae84d	-0.033912946
171	0x3da5c6b3	0.080945395
172	0x3d7ac542	0.061223276
173	0x3db8635b	0.090033256
174	0x3dfc62f7	0.123235635
175	0x3dddf9e1	0.10838676
176	0x3d80752d	0.062723495
177	0x3db41c3b	0.08794447
178	0x3e1d7cb0	0.15379596
179	0x3d50ccd0	0.050976574
180	0x3db388d9	0.08766336
181	0x3c638b9f	0.013888269
182	0x3ca9da04	0.02073384
183	0x3da619a5	0.0811036
184	0xbdccef48	-0.10006577
185	0x3e0135d5	0.12618192
186	0x3d884ec8	0.06655651
187	0xbc4e598d	-0.012594593
188	0x3dd3f7b5	0.10349981
189	0xbaf2b9e3	-0.0018518533
190	0x3ca206ec	0.019778691
191	0x3ca858cd	0.020550156
192	0x3df9833a	0.121832326
193	0x3d1f8351	0.038943592
194	0x3dc805d1	0.097667344
195	0xbd0da1a9	-0.034578
196	0x3d6af0c2	0.05735851
197	0xbe0476d4	-0.12935954
198	0x3da68b87	0.081320815
199	0x3db97bf8	0.09056848
200	0x3cbd152c	0.023081385
201	0x3cb1e36f	0.021714894
202	0xbcba97a2	-0.022777382
203	0x3da6628b	0.08124264
204	0x3c045550	0.008076981
205	0x3c041eef	0.008064016
206	0x3d8a636f	0.06757247
207	0x3e0711a3	0.13190322
208	0x3b084d03	0.0020797856
209	0x3e013ec1	0.12621595
210	0xbd60655c	-0.054784164
211	0xbd60d878	-0.05489394
212	0xbd295508	-0.041340858
213	0xbd34a6c4	-0.044104353
214	0x3de43892	0.111436024
215	0x3d0c5aa8	0.034266144
216	0xbd590243	-0.052980673
217	0x3cfa4f0d	0.030555272
218	0x3d7ab50b	0.061207812
219	0x3e124995	0.14285882
220	0x3dca31ad	0.09872756
221	0xbd4241cc	-0.04742603
222	0xbbca0f69	-0.006166388
223	0x3c7e35aa	0.015515724
224	0x3c7344ef	0.014847978
225	0x3c996403	0.018724447
226	0x3dd51b47	0.10405593
227	0x3d6ca342	0.057772882
228	0x3cd30899	0.025760936
229	0x3bd27f86	0.0064238934
230	0x3ce0d827	0.02744682
231	0x3e1f9d44	0.15587336
232	0x3cfdcabc	0.03098046
233	0x3df7465d	0.120739676
234	0x3c44b115	0.01200511
235	0x3da29c17	0.07939928
236	0x3d17653f	0.03696179
237	0xbbea570a	-0.007151489
238	0x3d9a5384	0.075354606
239	0xbc6ba97d	-0.014383671
240	0xbe13c0d8	-0.14429033
241	0x3d86bad1	0.06578601
242	0xbc13ffef	-0.009033187
243	0x3cd3c922	0.025852744
244	0xbd8a14b6	-0.067422315
245	0x3e07c4e0	0.13258696
246	0x3c6d591e	0.014486579
247	0xbaad0352	-0.0013199842
248	0x3d8fded3	0.07024922
249	0x3b43e021	0.002988823
250	0xbc3776de	-0.011197774
251	0x3d86160d	0.065471746
252	0x3e0a05a6	0.13478717
253	0x3e09bd80	0.13451195
254	0xbc295766	-0.010335779
255	0x3dabc01b	0.083862506

fc1.bias f4 [100]
0	0x3d83afb3	0.06429996
1	0xbc101c29	-0.008795776
2	0x3dbec516	0.09314935
3	0x3e1d25c2	0.15346435
4	0xbcecfd19	-0.02892928
5	0xbdc1bb8b	-0.09459599
6	0xbde49ea1	-0.111630686
7	0x3d872c63	0.06600263
8	0x3d2f8a53	0.042856526
9	0x3d76f811	0.06029517
10	0x3d828961	0.06373859
11	0xbda6f0aa	-0.08151372
12	0xbbbc3bf5	-0.005744452
13	0xbdcd3a39	-0.10020871
14	0x3bbc88ed	0.0057536275
15	0x3dcc0e80	0.09963703
16	0xbd3dd6e0	-0.0463475
17	0xbbea36dc	-0.007147653
18	0xbd093357	-0.033496227
19	0xbdb19ef0	-0.08672893
20	0x3dc4cebf	0.09609746
21	0x3d199314	0.03749378
22	0x3df7abef	0.120933406
23	0x3b3408b3	0.0027471005
24	0xbd3ddd71	-0.04635376
25	0xbd453473	-0.048145723
26	0x3decc648	0.11561257
27	0x3daf936c	0.0857304
28	0xbcf45bbe	-0.029828902
29	0x3da7b885	0.08189491
30	0x3e2cd93a	0.1687974
31	0x3e177c01	0.14793397
32	0x3ca09fff	0.019607542
33	0x3e06e764	0.13174206
34	0xbda85a64	-0.08220366
35	0x3d3f0505	0.046635646
36	0x3d8b2641	0.06794406
37	0xbcc0cad1	-0.02353421
38	0xbc251a6c	-0.0100771
39	0x3d8d6fe3	0.06906106
40	0xbd9e370b	-0.07725342
41	0xbcc59147	-0.024117125
42	0xbc901714	-0.01758913
43	0xbd1c4534	-0.038151935
44	0xbd994d84	-0.07485488
45	0xbd78d2e9	-0.060748015
46	0xbd6096e2	-0.054831393
47	0x3d3efa31	0.04662532
48	0x3d0d41ac	0.034486458
49	0xbdde63c4	-0.108588725
50	0xbdda7e05	-0.106685676
51	0x3e1a3de3	0.1506267
52	0xbdc84425	-0.097786225
53	0x3e3e9bd0	0.18614125
54	0x3daf8420	0.08570123
55	0xbd0fc517	-0.03510007
56	0x3dbeec00	0.09322357
57	0xbdcaabc4	-0.09896043
58	0x3cb60cc5	0.022222886
59	0x3e075cf1	0.13219048
60	0x3d15130b	0.036395114
61	0xbd065a81	-0.032801155
62	0xbcd43685	-0.025904903
63	0x3d91f59d	0.07126925
64	0xbdb7056f	-0.08936583
65	0x3d5e19cb	0.054223817
66	0x3d669b03	0.056300174
67	0x3df680a7	0.12036257
68	0xbd8a8592	-0.06763758
69	0x3d416dea	0.047223963
70	0x3d742e69	0.059614573
71	0x3bc2ce5c	0.00594501
72	0x3deb92bf	0.11502599
73	0x3ddf6f4e	0.109099016
74	0x3e261b9d	0.16221471
75	0xbd6bb0a6	-0.057541512
76	0xbc99ca58	-0.018773243
77	0x3e3101b9	0.17285813
78	0x3b077e6f	0.0020674726
79	0x3d6d15c5	0.05788209
80	0x3e287e38	0.16454399
81	0xbc6ea2c5	-0.0145651745
82	0xbde8a731	-0.11360014
83	0xbdc7a37c	-0.09747979
84	0x3d2a0d6b	0.041516703
85	0x3d3504ba	0.04419396
86	0xbdca7fb2	-0.09887637
87	0x3e0a3faa	0.13500848
88	0x3d369ae9	0.044581328
89	0x3d88556c	0.06656918
90	0xbb1c4c04	-0.002384902
91	0xbde8560c	-0.11344537
92	0x3d6d60e1	0.05795372
93	0xbd85c7c3	-0.06532242
94	0xbd38ec41	-0.045147184
95	0x3d613458	0.05498156
96	0xbcb1001e	-0.021606501
97	0xbd2187fd	-0.03943633
98	0x3e128506	0.14308557
99	0x3d39f57c	0.045400128

l_action0.weight f4 [51, 100]
0	0xba06fd5c	-0.0005149448
1	0xbe0f557d	-0.13997455
2	0xbdc5491a	-0.09633084
3	0xbe592902	-0.2120705
4	0xbd9bcb71	-0.07607163
5	0x3dcb7761	0.09934879
6	0xbd858f95	-0.06521527
7	0xbd56755e	-0.052358024
8	0xbd01bbad	-0.031673122
9	0x3e0dc470	0.13844466
10	0x3d86f16c	0.06589016
11	0x3dc08bde	0.094016775
12	0xbcdcc2e5	-0.026948402
13	0x3d7aa946	0.061196588
14	0xbd0b3f8b	-0.033996146
15	0xbe74875c	-0.2387976
16	0x3d334fd5	0.043777306
17	0x3cde2117	0.027115388
18	0x3c8065c8	0.015673533
19	0xbcb90088	-0.022583261
20	0x3d1b92c3	0.03798176
21	0xbdac838f	-0.0842353
22	0xbd494b29	-0.049143944
23	0x38457f4a	4.7087007e-05
24	0x3d878cae	0.066186294
25	0x3b8f9019	0.0043811915
26	0xbcb1bafa	-0.021695603
27	0xbe4aa3e2	-0.19789079
28	0xbbe5a41a	-0.007008088
29	0x3d9ea60f	0.07746517
30	0xbe22e7f7	-0.159088
31	0xbde93505	-0.11387066
32	0x3cc030bf	0.023460744
33	0xbc8c5e29	-0.017134743
34	0x3d85c257	0.06531208
35	0xbe323d56	-0.1740621
36	0xbe0893fa	-0.13337699
37	0xbddfb0d4	-0.10922399
38	0xbc77a4df	-0.015114992
39	0xbe298833	-0.16555862
40	0x3d074254	0.03302224
41	0x3cbba739	0.022906886
42	0x3ccdffa2	0.02514631
43	0xbcf49900	-0.029858112
44	0xbc13ab72	-0.009013044
45	0xb9bae300	-0.00035645813
46	0xbda3d7f5	-0.08000175
47	0xbdcc70d9	-0.099824615
48	0xbe2538c4	-0.16134936
49	0x3daea616	0.08527772
50	0x3d308477	0.04309508
51	0xbd4e714c	-0.050401017
52	0x3deee234	0.116642386
53	0xbccd31a2	-0.02504808
54	0xbdb907e7	-0.090347104
55	0x3db99e5f	0.0906341
56	0xbe038d2b	-0.1284682
57	0x3e69292d	0.22769614
58	0x3bafd492	0.0053659165
59	0xbe09d8f6	-0.1346167
60	0xb85e5d4f	-5.3015825e-05
61	0xbdf74539	-0.1207375
62	0x3d92ed50	0.0717417
63	0xbe3217ce	-0.17391893
64	0x3db7bfd1	0.08972133
65	0x3d0fc0ff	0.035096165
66	0xbd581e62	-0.05276335
67	0xbd2ad553	-0.041707348
68	0xbc8216f4	-0.015880086
69	0xbd9247b0	-0.071425796
70	0xbdf0df07	-0.11761289
71	0xbda49dc4	-0.08037904
72	0xbdedb468	-0.116066754
73	0xbdfe2bb6	-0.12410681
74	0xbd0b7e59	-0.03405604
75	0xbdf098fe	-0.11747931
76	0xbda3cb7e	-0.079977974
77	0xbdc417e4	-0.09574869
78	0xbd6dafe5	-0.058029074
79	0x3bd104e3	0.0063787564
80	0xbe1c62c0	-0.15272045
81	0xbe11c99b	-0.14237063
82	0x3cccad8e	0.024985101
83	0xbd09d8ae	-0.033653907
84	0xbd6fa948	-0.05851105
85	0xbd14b1c1	-0.03630233
86	0xbb156047	-0.0022792981
87	0xbd6624da	-0.05618749
88	0xbd9e5b96	-0.077323124
89	0xbdef0e1b	-0.11672612
90	0xbda893e4	-0.08231333
91	0x3bf27e69	0.007400323
92	0xbdf03ad8	-0.117299736
93	0x3d200f6e	0.039077215
94	0xbdf2ac5f	-0.118492834
95	0x3cf942bb	0.030427327
96	0xbd691ce4	-0.056912318
97	0x3d5f42d6	0.0545071
98	0xbdcc8a3b	-0.09987303
99	0xbe060fb6	-0.13091931
100	0x3db20750	0.08692801
101	0xbd0aec03	-0.033916485
102	0xbc749978	-0.014929168
103	0xbd34a164	-0.044099227
104	0xbdb24bd8	-0.08705872
105	0x3d71fc5a	0.05907855
106	0xbd3952f6	-0.045245133
107	0x3d2c9b48	0.042140275
108	0x3d0b276a	0.033973135
109	0x3e21c584	0.15798002
110	0x3d5f5279	0.05452201
111	0x3ca1cd4e	0.019751217
112	0xbbc9e133	-0.006160879
113	0x3cfc6f47	0.03081478
114	0xb727a3c1	-9.992103e-06
115	0x3cdf7c25	0.027280876
116	0x3d3919b6	0.045190535
117	0x3d1186f2	0.035529085
118	0xbdb97a22	-0.09056498
119	0xbdbc3e50	-0.09191573
120	0xbd51ad81	-0.051190857
121	0x3d4bb199	0.049729917
122	0x3d1d687c	0.038429722
123	0xbdb340ba	-0.0875258
124	0x3ceb179a	0.028697778
125	0x3ddeeba1	0.108847864
126	0x3d0e10d1	0.034684006
127	0xbb2bfb13	-0.0026242181
128	0xbd3b485b	-0.0457233
129	0x3d7c8706	0.061652206
130	0x3d6ef5c4	0.05833985
131	0xbc347230	-0.011013553
132	0xbc8fb6aa	-0.017543156
133	0xbd5a8274	-0.053347066
134	0xbc222412	-0.009896295
135	0xbda5dc08	-0.08098608
136	0xbd91fc85	-0.071282424
137	0x3db33fba	0.08752389
138	0x3cdcfb9f	0.026975451
139	0x3c812088	0.015762582
140	0xbd25f979	-0.04052112
141	0x3cd93fb1	0.026519628
142	0x3d8eb969	0.06968958
143	0x3d6057ea	0.05477134
144	0xbbe2ea13	-0.0069248765
145	0xbd3c8fc7	-0.046035554
146	0x3d201456	0.039081894
147	0xbd6fe6d5	-0.058569748
148	0xbd4b34ef	-0.04961103
149	0x3d8d9c95	0.06914631
150	0xbd2f57dd	-0.042808402
151	0xbc60518d	-0.013691318
152	0x3e019dc9	0.12657847
153	0xbd864311	-0.06555761
154	0xbd644967	-0.055734064
155	0x3e1078be	0.1410856
156	0xbe2220d7	-0.1583284
157	0x3df28e5d	0.1184356
158	0xbd03dcfc	-0.03219317
159	0xbddc5359	-0.10758085
160	0x3d2ac27d	0.041689385
161	0x3d0dff32	0.0346672
162	0x3da626b4	0.08112851
163	0xbd4d9783	-0.05019332
164	0x3d1f8ecb	0.038954537
165	0x3d704e4c	0.05866842
166	0xbd45b07f	-0.048264023
167	0xbd85bad4	-0.06529775
168	0x3afaab40	0.0019124523
169	0xbde983b0	-0.114020705
170	0x3d822360	0.063544035
171	0x3c286c7f	0.010279774
172	0xbe000d0f	-0.12504981
173	0xbcd2c31c	-0.025727801
174	0xbd9c6eae	-0.07638298
175	0xbcb0a097	-0.02156095
176	0xbbdebac4	-0.0067971665
177	0x3c32b800	0.010908127
178	0x3d375017	0.044754114
179	0xbd1781fd	-0.0369892
180	0x3cc79d65	0.024367044
181	0x3d4a807c	0.04943894
182	0xbd9302be	-0.071782574
183	0xbd673fd4	-0.056457356
184	0xbbe7c757	-0.0070733237
185	0xbd9cc410	-0.076545835
186	0x3d967de8	0.073482335
187	0x3d67c63c	0.056585535
188	0xbd7178e7	-0.058953192
189	0xbc8a9633	-0.016917324
190	0xbbbd11e2	-0.005769954
191	0x3d2bada4	0.041913643
192	0xbe2d8a06	-0.16947183
193	0x3d0d1a46	0.034448884
194	0xbdb08ae5	-0.08620242
195	0xbdf67c97	-0.120354824
196	0x3dbc67c4	0.09199479
197	0x3d703bc2	0.05865074
198	0xbe030a9a	-0.12797013
199	0x3d618d6c	0.05506651
200	0x3d7cec96	0.061749063
201	0x3d80f67b	0.062970124
202	0x3b1f894a	0.0024343305
203	0xba6b18e0	-0.0008968245
204	0x3d02fa07	0.031976726
205	0xbc93a0b4	-0.018020965
206	0x3a8efd4a	0.0010909226
207	0xbd603668	-0.054739386
208	0x3d81796e	0.06321989
209	0x3d90e6b0	0.0707525
210	0x3cb1f7fc	0.021724693
211	0xbdb5526c	-0.08853611
212	0xbcd62c79	-0.026144253
213	0xbca6dd25	-0.020369122
214	0x3cae4d30	0.02127704
215	0xbd6d4572	-0.057927556
216	0x3d149649	0.036276136
217	0x3c8844db	0.016634395
218	0xbd3d577d	-0.046226013
219	0x3c3bd8e8	0.011465289
220	0xbd05254e	-0.03250628
221	0xbd564124	-0.052308217
222	0x3ad50849	0.001625308
223	0x3d922a74	0.071370035
224	0x3c76a6c1	0.015054406
225	0xbd9f5aa4	-0.0778096
226	0x3d862b32	0.065512076
227	0x3c4955df	0.01228854
228	0xbdaefe5a	-0.085446075
229	0x3d0734be	0.033009283
230	0xbd576b38	-0.052592486
231	0x3db3abfd	0.087730385
232	0x3d0737d8	0.03301224
233	0x3ca8abee	0.020589795
234	0xbd69b36a	-0.05705587
235	0x3d67e56e	0.056615286
236	0x3c7205a7	0.014771855
237	0x3c54feaa	0.01300017
238	0x3d3faa5f	0.046793338
239	0xbdaaf014	-0.083465725
240	0xbd6a1fa9	-0.0571591
241	0xbdd1f2f0	-0.10251415
242	0xbcaf3206	-0.021386158
243	0x3d34f512	0.04417903
244	0x3d623cea	0.055233873
245	0x3cd2697c	0.025685064
246	0x3c310529	0.010804453
247	0xbbb0478c	-0.005379623
248	0x3cdb72e1	0.026788177
249	0xbd820fb3	-0.06350651
250	0xbd764871	-0.06012768
251	0xbcb89da2	-0.022536103
252	0xbc2eaee3	-0.010661813
253	0x3da58395	0.08081738
254	0x3c7cd86d	0.015432459
255	0x3cb47169	0.022026734

l_action0.bias f4 [51]
0	0xbe3aadef	-0.18230413
1	0xbcf428da	-0.029804636
2	0x3da6d25f	0.08145594
3	0x3d5c49e9	0.053781424
4	0xbcbc0f5b	-0.02295654
5	0xbe01ffcb	-0.12695234
6	0x3df85d84	0.12127212
7	0xbb6db109	-0.0036268851
8	0x3e193ca4	0.14964539
9	0xbc1b7bcd	-0.009489966
10	0xbd1725f4	-0.03690143
11	0x3def2fbf	0.11679029
12	0xbc6013c0	-0.013676584
13	0xbd8b4a60	-0.06801295
14	0x3d5e971e	0.054343335
15	0xbdc63ef5	-0.09679977
16	0xbd573b98	-0.052547067
17	0xbe1751f6	-0.1477736
18	0xbe1f4baa	-0.15556207
19	0xbe09be6f	-0.13451551
20	0xbe41b1a9	-0.18915428
21	0xbe9f0873	-0.31061134
22	0xbe737e04	-0.2377854
23	0xbe5c956a	-0.21541372
24	0xbe90bf92	-0.28271157
25	0xbeb24f8c	-0.34826314
26	0xbe46cded	-0.19414492
27	0xbe78f3b5	-0.24311717
28	0xbea7fffb	-0.32812485
29	0xbe560a58	-0.20902383
30	0xbe841850	-0.257998
31	0xbea3b370	-0.31972837
32	0xbe6d5bc2	-0.23179534
33	0xbea007d8	-0.31255984
34	0xbe8f5642	-0.27995497
35	0xbe89825c	-0.2685727
36	0xbe5e8f80	-0.21734428
37	0xbe425bb8	-0.189803
38	0xbe40fe59	-0.18847026
39	0xbe0998a0	-0.13437128
40	0xbe055b1e	-0.1302304
41	0xbd2a0f9b	-0.04151879
42	0xbe509841	-0.2037058
43	0x3c349a9a	0.011023188
44	0xbe04e8d2	-0.12979439
45	0xbe67ccd5	-0.22636731
46	0xbe0dc438	-0.13844383
47	0xbdf3f064	-0.11911085
48	0xbdcac104	-0.09900096
49	0xbaae1423	-0.0013281148
50	0xbd4a32d5	-0.049364883

l_action1.weight f4 [51, 100]
0	0x3d241b8c	0.040065333
1	0xbd836f9c	-0.06417772
2	0xbd4a5953	-0.049401592
3	0xbe039a85	-0.12851913
4	0xbd9ad569	-0.07560236
5	0x3d3bd69e	0.04585897
6	0xbdb0cadf	-0.086324446
7	0xbdbd0b23	-0.0923064
8	0xbdc846b0	-0.097791076
9	0x3e013623	0.12618308
10	0xbdd88109	-0.105714865
11	0xbb5aec67	-0.0033405067
12	0xbcc7dfdd	-0.024398739
13	0xbe190ad0	-0.14945531
14	0x3bd5be8b	0.0065229586
15	0xbe5240b1	-0.2053249
16	0xbcc1c403	-0.023653036
17	0xbca97c58	-0.020689175
18	0xbada9eac	-0.0016679368
19	0xbd6ea8c7	-0.058266427
20	0x3d5a0ab2	0.053232856
21	0xbd46990b	-0.048485797
22	0xbe18d827	-0.14926206
23	0xbe04109a	-0.12896958
24	0x3ddf90ef	0.10916316
25	0x3d4330f4	0.047654107
26	0xbe07f295	-0.13276131
27	0xbe8162a7	-0.25270578
28	0xbe1a5793	-0.1507247
29	0xbdbd6c33	-0.09249153
30	0xbd2a35de	-0.041555278
31	0xbdee5369	-0.11637003
32	0x3d9d3932	0.07676925
33	0xbd4d8fed	-0.050186086
34	0x3d67901f	0.05653393
35	0xbe3b9695	-0.18319161
36	0xbe0f542f	-0.13996957
37	0x3dae8307	0.08521085
38	0x3cde7bd3	0.027158653
39	0xbdf98596	-0.121836826
40	0x3da80944	0.08204892
41	0x3cd8f0d7	0.026482029
42	0xbdf91091	-0.12161363
43	0xba6abefe	-0.00089548517
44	0xbd3d3a53	-0.0461982
45	0x3cb632ea	0.022241075
46	0xbddd23c6	-0.10797839
47	0x3ca05f17	0.019576592
48	0xbdbc1f11	-0.09185613
49	0xbdd680b3	-0.10473766
50	0x3d65a47b	0.056065064
51	0xbe192d6c	-0.14958733
52	0x3e5166cd	0.20449372
53	0xbd2e0740	-0.042487383
54	0xbdf941f4	-0.12170783
55	0x3c3edd32	0.011649417
56	0xbda433d3	-0.08017697
57	0x3e29f4a5	0.1659723
58	0xbdb44ae8	-0.0880335
59	0xbe3df4cd	-0.18550415
60	0x3e007283	0.12543683
61	0xbd6ef1d6	-0.0583361
62	0x3da48359	0.08032865
63	0xbe2ad78c	-0.16683787
64	0xbcbbab0f	-0.022908716
65	0xbd41f19b	-0.047349554
66	0xbe4690ed	-0.19391222
67	0xbc68ea05	-0.014215951
68	0x3d84d145	0.064852275
69	0xbe2ce6c2	-0.16884902
70	0xbdc64896	-0.096818134
71	0x3d819e7b	0.06329056
72	0xbd0e360a	-0.034719504
73	0xbd690077	-0.05688521
74	0xbe075442	-0.13215736
75	0xbdd2af02	-0.10287286
76	0x3d4ab31a	0.04948721
77	0xbe16a2e6	-0.14710578
78	0xbcd56e20	-0.026053488
79	0xbd4747a2	-0.0486523
80	0xbe06a4d6	-0.13148817
81	0xbd93e7f9	-0.0722198
82	0x3d48e9ee	0.049051218
83	0x3cdbe9e3	0.026844924
84	0xbd986180	-0.07440472
85	0xbde449f3	-0.11146917
86	0x3d5b5a6c	0.05355303
87	0xbdf54f31	-0.11977995
88	0xbe0e3e8d	-0.13891049
89	0xbc87433a	-0.016511548
90	0xbd9af750	-0.07566702
91	0x3da48b64	0.08034399
92	0xbde9394a	-0.1138788
93	0x3d99a023	0.07501247
94	0xbd28968b	-0.041159194
95	0xbe02bd12	-0.12767437
96	0x3dbc9a6b	0.092091404
97	0x3d23fc4e	0.04003554
98	0xbce1f669	-0.027583318
99	0xbd68b02e	-0.056808643
100	0x3b60c961	0.0034299719
101	0x3a012281	0.0004926101
102	0xbd81f979	-0.06346411
103	0x3ca0d69f	0.01963359
104	0x3c982295	0.018571177
105	0x3c824e94	0.01590661
106	0x3dbe3d17	0.09288996
107	0xbd9ed97e	-0.07756327
108	0xbda22c2e	-0.07918583
109	0x3de401e9	0.11133177
110	0x3ccef0ee	0.025261369
111	0x3dd93086	0.10604958
112	0xbd1f4c3e	-0.03889107
113	0xbd5e0181	-0.054200653
114	0x3b446b1a	0.0029971064
115	0xbda9a566	-0.082835004
116	0x3db2a4ca	0.08722837
117	0x3ca03e17	0.019560857
118	0xbca8e6ce	-0.020617869
119	0xbd5c0b6d	-0.053721834
120	0x3d5408de	0.05176627
121	0xbd8eea25	-0.06978253
122	0xbc66ddb1	-0.014090941
123	0x3d315b6e	0.043300085
124	0x3cab885b	0.020939043
125	0xbc1e9322	-0.009678634
126	0x3d44ff29	0.048094902
127	0xbdb52158	-0.088442504
128	0xbd41d483	-0.047321808
129	0x3c8dd528	0.017313555
130	0xbe0d20c8	-0.13782036
131	0x3d60072e	0.054694347
132	0xbd8b2a3f	-0.06795167
133	0x3d10aca2	0.035320885
134	0xbd37b89a	-0.044853784
135	0x3d3bf828	0.045890957
136	0xbd9e0552	-0.077158585
137	0xbda5e09a	-0.0809948
138	0xbd103e21	-0.0352155
139	0xbdfb6343	-0.12274792
140	0xbd3150ee	-0.04329007
141	0xbd5c2c9c	-0.05375348
142	0xbd3b8125	-0.04577746
143	0xbcbc919f	-0.023018656
144	0x3d4d54a2	0.05012954
145	0xbd286a59	-0.041117046
146	0xbd57b994	-0.052667215
147	0xbc259d65	-0.010108327
148	0xbc84d3ee	-0.016214337
149	0xbd33cb95	-0.043895323
150	0xbdc89f53	-0.09796014
151	0x3d5dd537	0.054158416
152	0x3d720543	0.05908705
153	0x3aecfe2f	0.0018081124
154	0xbd213bd9	-0.039363716
155	0xbc9730e7	-0.018455936
156	0xbdc3013b	-0.09521719
157	0x3dbdbd94	0.09264675
158	0xbdb872d0	-0.09006274
159	0x3c0facb7	0.008769206
160	0x3bade6d0	0.005307056
161	0xbdaf9896	-0.08574025
162	0x3c909e7c	0.017653696
163	0x3d278f38	0.04090807
164	0xbd026118	-0.031830877
165	0xbd868906	-0.06569104
166	0xbd989368	-0.074499905
167	0x3d3b575a	0.0457376
168	0x3d82caf0	0.063863635
169	0xbdbdd37a	-0.092688516
170	0xbd1f8272	-0.03894276
171	0x3d2773b2	0.04088182
172	0xbe054230	-0.1301353
173	0xbd8c19bc	-0.06840846
174	0x3ca3c37f	0.01999068
175	0xbcb56666	-0.022143554
176	0x3c96aa1d	0.018391663
177	0x3c172a48	0.009226389
178	0xbbbd0bb3	-0.005769217
179	0xbdfb0269	-0.12256319
180	0xbdfb98b4	-0.12284985
181	0xbdce28cf	-0.10066377
182	0xbd57f2e0	-0.052721858
183	0x3b97409b	0.004615856
184	0x3ce303cb	0.02771177
185	0x3c9ea191	0.01936415
186	0x3d878ecf	0.066190355
187	0xbbb9a4f1	-0.0056654145
188	0xbbab1f1e	-0.0052222153
189	0xbda87ce5	-0.08226947
190	0xbcdc02e5	-0.026856849
191	0x3d6e4de8	0.058179766
192	0xbda88dff	-0.082302086
193	0xbda9674d	-0.08271656
194	0xbd75af2d	-0.059981514
195	0x3d34dc1e	0.044155233
196	0x3d92c86d	0.071671344
197	0xbd51e1d7	-0.05124077
198	0xbc227ffa	-0.009918207
199	0xbd078bd1	-0.033092324
200	0x3cde1560	0.027109802
201	0xbbebf8d9	-0.007201296
202	0xbd285b2c	-0.041102573
203	0x3dcdb2df	0.100438826
204	0xbd93e020	-0.07220483
205	0x3d22c3fa	0.03973768
206	0x3cb2aeb4	0.02181182
207	0x3b90aa61	0.004414842
208	0xbcbcb71d	-0.023036534
209	0x3de16886	0.110062644
210	0x3da78bf6	0.08180992
211	0xbd9406dd	-0.072278716
212	0x3df12315	0.117742695
213	0x3cef7ac3	0.029233342
214	0xbb5d2003	-0.0033741004
215	0xbbc45959	-0.0059920964
216	0xbddcfe30	-0.1079067
217	0x3d6528a0	0.055946946
218	0x3bc13c1f	0.0058970596
219	0xbdc38dd5	-0.09548537
220	0xbd5e907c	-0.05433701
221	0x3d76a3b4	0.060214713
222	0xbc99f1a9	-0.01879199
223	0x3d9a8e71	0.075467
224	0x3c9da078	0.019241557
225	0xbd9e6a4b	-0.077351175
226	0xbcd78c5c	-0.026312046
227	0x3d2c0c3e	0.042003863
228	0xbda44d9e	-0.08022617
229	0x3dbe82b9	0.09302277
230	0xbd4cdcc0	-0.05001521
231	0xbb8eb380	-0.004354894
232	0x3c5c32fa	0.013439888
233	0x3cd036f6	0.025416832
234	0xbd8873ca	-0.0666271
235	0x3c1c961a	0.009557271
236	0xbdde0ca6	-0.10842256
237	0x3c5d9019	0.013523125
238	0xbdc10a42	-0.09425785
239	0xbc957fb6	-0.018249374
240	0xbd257236	-0.040392123
241	0x3daf26fd	0.08552358
242	0x3c1e705c	0.009670343
243	0xbd1dfe0d	-0.03857236
244	0x3c9113f4	0.01770971
245	0xbdc77e01	-0.0974083
246	0xbcb36802	-0.02190018
247	0xbd3f23f1	-0.046665136
248	0x3b571140	0.0032816678
249	0xbcda73ac	-0.026666485
250	0x3d5484f7	0.051884618
251	0x3c6d6893	0.0144902645
252	0x3d22daa3	0.03975929
253	0x3da53f22	0.08068682
254	0x3c7ef7c2	0.015562
255	0xbc67d045	-0.014148776

l_action1.bias f4 [51]
0	0xbd79f114	-0.061020926
1	0xbd949e08	-0.072567046
2	0xbdaba41a	-0.08380909
3	0x3d5fed69	0.05466977
4	0xbd162ecc	-0.036665723
5	0x3d653dd7	0.05596718
6	0x3dfac3d0	0.122443795
7	0x3db1d324	0.0868285
8	0xbb379181	-0.002801031
9	0x3dcfe110	0.10150349
10	0xbc731331	-0.014836119
11	0x3d27ebc3	0.040996324
12	0x3da1b7f4	0.078964144
13	0x3cb6f876	0.022335272
14	0xbdb4d2b8	-0.08829254
15	0xbd582339	-0.052767966
16	0xbe233c23	-0.15940909
17	0xbdf14d47	-0.117823176
18	0xbe68012a	-0.22656694
19	0xbe30f3da	-0.17280522
20	0xbe2f447d	-0.1711597
21	0xbea27c39	-0.317354
22	0xbeafdd32	-0.34348446
23	0xbe6003da	-0.21876469
24	0xbe844834	-0.25836337
25	0xbe8eefe2	-0.2791739
26	0xbe449f08	-0.1920129
27	0xbe879818	-0.26483226
28	0xbe3962d8	-0.18104112
29	0xbea2fd79	-0.3183401
30	0xbe82a21d	-0.25514308
31	0xbe43ae91	-0.1910956
32	0xbe89e1b6	-0.26930016
33	0xbe103e0c	-0.14086169
34	0xbe32c2f8	-0.17457187
35	0xbe860b4e	-0.261805
36	0xbdfd1cb3	-0.123589896
37	0xbe8529a3	-0.2600833
38	0xbe25d1cf	-0.16193317
39	0xbe8d3257	-0.2757747
40	0xbe21e767	-0.15810929
41	0xbdf923f3	-0.1216506
42	0xbdd7650d	-0.10517321
43	0xbdfd9572	-0.1238202
44	0xbe32c25f	-0.17456959
45	0xbe1dd5d5	-0.15413602
46	0xbd6cb639	-0.05779097
47	0xbdcba992	-0.09944452
48	0xbcc2d3bd	-0.023782605
49	0xbdb0b90b	-0.08629044
50	0xbe4e0d9c	-0.20122379
