models/checkpoints/checkpoint.pth (torch_old, 9405 bytes, 10 tensors)

fc0.weight f4 [24, 4]
0.24622634 -0.022138184 0.106430106 0.03010496 0.46940976 0.3353328 0.72873193 0.25464413
-0.034744497 0.020665243 2.3157368 0.14807759 -0.4847344 -0.2263507 -0.879978 -0.14190078
0.2473409 -0.08368874 0.4960393 0.04515727 -0.11918921 0.23103137 1.0534619 0.19242908
0.23808041 -0.32264033 1.5182111 -0.19518307 0.20081706 0.042842746 1.5243615 0.11733294
0.7590181 0.3393782 0.43403834 0.2002404 -0.17093533 0.13655606 1.4853073 0.027520549
0.19164155 -0.06143866 -1.2604657 -0.20360388 -0.46329418 0.15321326 1.5868343 0.27038607
0.4135588 -0.2788866 -0.24012399 -0.14994022 0.39671642 -0.07816445 -1.1095426 -0.12280501
-0.15820237 0.06638095 1.062539 0.1222331 -0.1916036 0.24044992 1.0021334 0.22260423
-0.22739513 -0.53343314 -0.07435652 -0.34248298 -0.075997666 0.12917244 -1.6978513 -0.0005600789
-0.75773805 0.47659224 0.48109555 0.38002422 0.43880343 -0.3135071 -0.11676765 0.0016869743
-0.07711996 -0.21107721 -1.9716846 -0.5229081 -0.05929608 0.24683832 1.1481878 0.063132636
0.5160097 -0.15260074 -1.1173782 -0.44277784 -0.45247713 0.36717868 0.87999314 0.26227057
00000000: c222 7c3e 235b b5bc 07f8 d93d ad9e f63c
00000010: 7a56 f03e beb0 ab3e 2d8e 3a3f b760 823e
00000020: 3f50 0ebd 284a a93c 0835 1440 a7a1 173e
00000030: 1b2f f8be 7ac8 67be 3d46 61bf 704e 11be
00000040: ef46 7d3e 0165 abbd ddf8 fd3e d4f6 383d
00000050: 7919 f4bd 7d93 6c3e d7d7 863f 210c 453e
00000060: 5acb 733e 1d31 a5be be54 c23f 12de 47be
00000070: fda2 4d3e e07b 2f3d 471e c33f 414c f03d
00000080: 034f 423f fbc2 ad3e 463a de3e d20b 4d3e
00000090: ac09 2fbe 5ad5 0b3e 8d1e be3f c672 e13c
000000a0: af3d 443e 1ba7 7bbd f156 a1bf 897d 50be
000000b0: e534 edbe f0e3 1c3e 631d cb3f 0b70 8a3e
000000c0: fbbd d33e 39ca 8ebe 10e3 75be ee89 19be
000000d0: 6a1e cb3e af14 a0bd 7e05 8ebf 3181 fbbd
000000e0: cdff 21be bcf2 873d 4701 883f 5955 fa3d
000000f0: bc33 44be 8138 763e e845 803f 5df2 633e
00000100: 45da 68be 138f 08bf 3b48 98bd ee59 afbe
00000110: aaa4 9bbd c845 043e 3153 d9bf 42d2 12ba
00000120: 1ffb 41bf e603 f43e 2852 f63e 8992 c23e
00000130: d8aa e03e 0184 a0be e123 efbd 771d dd3a
00000140: 12f1 9dbd a024 58be 2960 fcbf 4edd 05bf
00000150: 72e0 72bd 2fc3 7c3e d1f7 923f af4b 813d
00000160: 3619 043f 5e43 1cbe 4006 8fbf c7b3 e2be
00000170: 15ab e7be d8fe bb3e 3b47 613f 5448 863e

fc0.bias f4 [24]
0.56444955 -0.8290185 -0.36720228 -0.14987607 0.15005358 0.54775625 0.35256526 0.16949944
-0.28522018 0.42795643 -0.014570114 -0.3203076 0.6267459 -0.20883836 -0.63840145 -0.5968745
-0.42619726 -0.08778306 -0.36196402 0.45879036 -0.008508575 0.32464764 -0.33203137 -0.45352602
00000000: c47f 103f 8e3a 54bf f001 bcbe 1d79 19be
00000010: a5a7 193e c139 0c3f 6f83 b43e 4391 2d3e
00000020: 6108 92be 1b1d db3e 7db7 6ebc 5cff a3be
00000030: 6b72 203f b9d9 55be 476e 23bf c4cc 18bf
00000040: 8736 dabe 9bc7 b3bd 5953 b9be 92e6 ea3e
00000050: 8d67 0bbc 3738 a63e 0400 aabe 9034 e8be

fc1.weight f4 [24, 24]
-0.09626185 -0.6118757 -1.4857793 0.10266564 -0.23794298 0.20445792 -0.11863189 -0.31103528
0.046474006 0.05055084 0.24317713 -0.6920433 0.00483766 -0.16399518 -0.20625919 -0.4636381
-0.29978558 -0.20379512 0.10867198 -0.032066725 -0.28032854 0.12727839 -0.1991211 -0.21740842
0.20673446 -0.6327992 -1.4695224 0.08374038 -0.07611577 -0.04315322 0.08028855 -0.27278933
-0.29195815 0.31729418 0.02057406 -0.6025868 0.18284318 -0.29049027 -0.19707133 -0.5922716
-0.3273317 -0.2542365 -0.06109255 0.0073227594 -0.06676157 0.06306581 -0.0790189 -0.22167239
0.0068551064 -0.18950689 -1.0668757 0.0070210425 -0.102559604 -0.011381977 0.0070338696 -0.107931904
-0.15543833 0.078202605 -0.07926275 0.043264423 -0.13147189 -0.19895221 -0.081712544 -0.57575816
-0.40634257 -0.24334589 -0.14014187 -0.33545133 -0.12763159 0.023778897 -0.30450174 0.007934643
-0.070369594 -0.14884634 -0.09805842 0.3862562 -0.5214099 -0.46767625 -1.1614615 -0.5967746
-0.15573598 -1.836641 0.43803212 -0.052098077 0.16102578 0.2670644 -0.9615667 -0.25090194
-0.7598372 0.53420997 0.16145012 -0.36567807 0.5520584 -0.32955295 0.4378125 0.030810421
0.053688537 0.064659 -0.06705182 0.089718595 -0.1398647 -0.27933133 -0.013610361 -0.14404239
-0.10972754 -0.27470136 -0.24835274 -0.077383906 -0.19959298 0.068392545 -0.2103768 0.13434212
0.10659476 -0.029061735 0.00030606985 -0.022367781 -0.043647867 -0.22510913 -0.14439832 -0.079401486
0.024732824 -1.1615922 -1.7418267 -0.21076836 0.080059245 0.12440477 -0.27361917 -0.0018458588
-0.33951205 0.16362767 -0.2856531 -0.1915189 0.10318602 -0.029022476 0.014808148 -0.58517927
0.016449282 -0.060787182 0.114820726 0.01239448 0.028793916 0.017278953 0.04695978 -0.11111764
-0.20633276 -0.1030059 -0.011062007 -0.21166563 0.03191536 0.09150443 0.09723952 -0.20449749
-0.015445128 -0.043041 0.039911635 -0.17860863 0.092573285 0.026514217 -0.15631068 -0.0053155567
-0.017319951 -0.045459718 -0.13554375 0.00029244847 0.06050399 0.047704972 -0.13559657 0.038206555
-0.06903705 -0.16843212 -1.5687106 -0.002254786 0.086712085 0.13302504 0.0033518397 -0.39325753
-0.0011125639 -0.14701846 0.0557916 -0.5897177 0.27639273 -0.07347887 0.0231464 -0.35473058
0.07073443 0.0052792532 -0.014755817 0.21454975 0.06394268 -0.18535616 0.007732753 -0.27056998
-0.11194397 -0.2732783 -0.60055614 -0.20860174 -0.10089906 0.10199874 -0.021599159 -0.05639143
-0.035302263 0.14307904 -0.33208704 -0.54576725 -0.22894976 -0.010276837 -0.467801 -0.11402386
-0.8162314 -0.16005807 0.075884566 -0.39899817 -0.3813708 -0.054581735 -0.0045657707 -0.023586806
0.123671405 -0.48846284 -1.4627757 -0.1648091 0.23349006 0.0912945 -0.10638838 -0.43647626
-0.079605214 -0.040362865 -0.053023383 -0.4734123 0.17094772 0.08834991 -0.6128898 -0.4056611
0.012974101 -0.37622878 -0.11626984 0.1548544 -0.28363982 0.028109755 -0.035612565 0.34428334
-0.28061718 0.051123053 -0.8271992 0.67120415 -0.33309418 -0.24156702 0.06330553 -0.71957046
0.17944796 -1.2419438 0.17216155 -0.07679649 -0.50069916 -0.0027370271 0.5813488 0.3565135
00000000: ef24 c5bd e3a3 1cbf 042e bebf 5d42 d23d
00000010: 53a7 73be 6b5d 513e 47f5 f2bd 0440 9fbe
00000020: 875b 3e3d 660e 4f3d 6d03 793e c029 31bf
00000030: 3c85 9e3b 5aee 27be 9c35 53be f961 edbe
00000040: 7f7d 99be abaf 50be 6a8f de3d 6658 03bd
00000050: 3987 8fbe 4455 023e 67e6 4bbe 50a0 5ebe
00000060: 33b2 533e 21ff 21bf 4f19 bcbf 1480 ab3d
00000070: 96e2 9bbd 6ec1 30bd 536e a43d 0bab 8bbe
00000080: 8a7b 95be 6274 a23e ee8a a83c 2143 1abf
00000090: 3e3b 3b3e 24bb 94be 11cd 49be 1d9f 17bf
000000a0: 0598 a7be 492b 82be 2f3c 7abd c2f3 ef3b
000000b0: 4aba 88bd a628 813d a9d4 a1bd 16fe 62be
000000c0: cda0 e03b 180e 42be 628f 88bf c610 e63b
000000d0: c50a d2bd 797b 3abc 607c e63b 670b ddbd
000000e0: 3a2b 1fbe b028 a03d 8254 a2bd 0936 313d
000000f0: 91a0 06be 21ba 4bbe e858 a7bd e364 13bf
00000100: 220c d0be aa2f 79be 5a81 0fbe 47c0 abbe
00000110: dbb1 02be f6cb c23c a7e7 9bbe 4e00 023c
00000120: ef1d 90bd 2d6b 18be dad2 c8bd 5fc3 c53e
00000130: 1f7b 05bf 4373 efbe c5aa 94bf 38c6 18bf
00000140: 4179 1fbe 0d17 ebbf bf45 e03e cb64 55bd
00000150: f1e3 243e aabc 883e 3c29 76bf 3876 80be
00000160: b184 42bf fcc1 083f 2e53 253e 283a bbbe
00000170: b353 0d3f 2abb a8be f628 e03e 2366 fc3c
00000180: 83e8 5b3d f06b 843d 7752 89bd 62be b73d
00000190: b138 0fbe 8404 8fbe fefd 5ebc d97f 13be
000001a0: d5b8 e0bd a8a5 8cbe 2e50 7ebe 747b 9ebd
000001b0: 1a62 4cbe 6411 8c3d 046d 57be fb90 093e
000001c0: 5b4e da3d e012 eebc 0078 a039 a33c b7bc
000001d0: 1bc8 32bd 0283 66be 27dd 13be 3f9d a2bd
000001e0: 7e9c ca3c 0eaf 94bf 2df4 debf a9d3 57be
000001f0: 1af6 a33d eec7 fe3d d017 8cbe bef0 f1ba
00000200: 86d4 adbe 038e 273e 2041 92be 881d 44be
00000210: 3153 d33d 8bc0 edbc e09d 723c 4fce 15bf
00000220: a5c0 863c fbfb 78bd 2127 eb3d 3812 4b3c
00000230: 38e1 eb3c 978c 8d3c e658 403d a591 e3bd
00000240: e548 53be c2f4 d2bd 6c3d 35bc e0be 58be
00000250: aeb9 023d ad66 bb3d 8325 c73d ca67 51be
00000260: 900d 7dbc c24b 30bd 627a 233d 2ee5 36be
00000270: 1097 bd3d 5834 d93c e80f 20be 1f2e aebb
00000280: 92e2 8dbc f833 3abd fbcb 0abe c553 9939
00000290: 08d3 773d 4a66 433d d4d9 0abe 7a7e 1c3d
000002a0: 4c63 8dbd 7879 2cbe 82cb c8bf 08c5 13bb
000002b0: 1b96 b13d b737 083e 8aaa 5b3b 0d59 c9be
000002c0: 73d3 91ba 028c 16be bc85 643d bdf7 16bf
000002d0: 5983 8d3e 177c 96bd 859d bd3c 3f9f b5be
000002e0: 36dd 903d 96fd ac3b 62c2 71bc eeb2 5b3e
000002f0: 61f4 823d 01ce 3dbe 0963 fd3b 2688 8abe
00000300: e142 e5bd 22eb 8bbe 0cbe 19bf b29b 55be
00000310: 2ba4 cebd b7e4 d03d b8f0 b0bc b3fa 66bd
00000320: 1b99 10bd 5083 123e 5007 aabe 67b7 0bbf
00000330: ce71 6abe 2e60 28bc 9d83 efbe 5785 e9bd
00000340: 8bf4 50bf 43e6 23be 5e69 9b3d 7d49 ccbe
00000350: 0943 c3be 1991 5fbd 769c 95bb 1e39 c1bc
00000360: 6f47 fd3d cd17 fabe 3c3c bbbf b7c3 28be
00000370: 0518 6f3e 9cf8 ba3d 27e2 d9bd d179 dfbe
00000380: 0f08 a3bd 8853 25bd 0c2f 59bd 1963 f2be
00000390: eb0c 2f3e ccf0 b43d 59e6 1cbf d0b2 cfbe
000003a0: 5391 543c 0fa1 c0be e21e eebd 2792 1e3e
000003b0: 3d39 91be 6e46 e63c 7bde 11bd e845 b03e
000003c0: 0ead 8fbe 6866 513d 54c3 53bf 09d4 2b3f
000003d0: 528b aabe 585d 77be 54a6 813d c535 38bf
000003e0: 35c1 373e 04f8 9ebf 1e4b 303e 7a47 9dbd
000003f0: d22d 00bf b25f 33bb 46d3 143f f088 b63e

fc1.bias f4 [24]
0.34670997 0.51017994 -0.017014522 -0.020962598 -0.12009768 0.120630756 -0.22942795 0.39537427
-0.08786489 0.17995603 -0.13625298 0.4484408 0.3808409 0.4341521 0.6065306 0.47368956
-0.10282802 -0.19737351 -0.0901387 0.047901258 0.41259542 0.074787 0.3732983 -0.13725862
00000000: f883 b13e 279b 023f 0a62 8bbc c1b9 abbc
00000010: c6f5 f5bd 420d f73d 29ef 6abe 7f6e ca3e
00000020: 82f2 b3bd 6546 383e e785 0bbe 089a e53e
00000030: 94fd c23e 2f49 de3e 9745 1b3f 7087 f23e
00000040: 7f97 d2bd 481c 4abe a49a b8bd 1c34 443d
00000050: b53f d33e ed29 993d f420 bf3e 868d 0cbe

fc2.weight f4 [24, 24]
-0.05175815 0.112666264 0.10111765 -0.017961703 -0.046207875 -0.11524213 0.12009737 -0.12951156
-0.2638788 0.15995423 -0.16045548 -0.12476041 -0.07405528 -0.035137165 0.021122672 0.011166613
0.1438992 -0.1755029 -0.08675738 -0.084600314 -0.006270918 -0.05897595 -0.19979951 -0.16280124
0.060854822 0.06919085 -0.21401729 -0.0341825 0.00070376694 -0.06945454 0.034669876 0.087642156
-0.041375145 -0.04975866 -0.153254 -0.2273895 -0.17450249 -0.013565903 0.090797365 -0.2295494
0.17045404 -0.036219086 0.09537119 0.16850397 0.051457413 0.1387141 -0.1765133 -0.12858514
-0.06669805 0.28455278 0.065012224 -2.1283937 -0.10439147 0.0829609 -0.13546957 -0.06739378
-0.14072184 0.17690429 -0.21807414 0.21206486 -0.07735169 0.051381774 0.3346011 0.07900775
0.02580562 -0.5836268 -0.094636574 -0.08855541 -0.04557347 -0.08395828 -0.064282246 0.17446625
-0.6638759 -0.0809282 0.014996465 1.9109479 -0.054995634 -0.02240015 -0.12295062 -0.075787544
-0.39624798 -0.44634518 0.34404877 0.35456482 -0.24945554 -0.2063827 0.02712143 -0.04068155
-0.19482927 0.71544796 0.14332414 0.042988244 0.1821345 -0.06263431 0.19848447 -0.18308356
0.03224152 0.31154144 0.039027516 -2.1876523 -0.009656657 0.19504607 0.17308846 0.13513918
0.13080798 -0.08102248 -0.05594925 -0.14291476 0.24503233 0.0995127 0.29801095 0.3203445
0.050720904 -0.45639187 -0.17364913 -0.08596659 0.3144884 -0.09367572 -0.09764151 -0.12131588
-0.10371399 -0.009547528 -0.05170844 -1.8938799 0.09567322 0.1673205 -0.060477145 0.24227017
0.038309366 0.1644913 0.04766717 -0.08089751 0.18912736 0.17786099 0.07133231 -0.041147873
0.10315195 -0.17787994 0.10189475 0.20696011 0.14544174 0.05970814 0.17341045 0.12575758
-0.08292029 0.33560202 0.13413818 -1.736004 -0.0029560234 0.13281886 0.0489058 0.35432756
0.15874277 0.13576171 -0.1278085 -0.06630072 0.37914905 0.16349699 0.44098878 0.15932351
-0.104123935 -0.24676052 0.16287112 -0.026212307 0.36153242 -0.12177809 0.06806751 -0.073070325
0.077280715 0.33701548 -0.24283825 -1.841588 0.07365091 -0.08259015 -0.09045132 0.22680092
0.13252789 0.06456587 -0.08432874 -0.029031487 0.34114832 0.3260907 0.4139012 0.35068348
-0.026399251 -0.2236071 0.069388896 0.0049780947 0.12893277 -0.092784755 0.031857967 0.0618733
-0.005593644 0.15276028 0.16127801 0.07191399 0.121492356 -0.36006743 0.02036208 -0.7065468
-0.3088737 -0.7733179 -0.5597858 0.5719147 -0.7853704 0.28181618 -0.1860797 -0.2992462
0.14701748 -0.2564498 -0.15040033 0.0031437874 -0.63094354 0.14042965 -0.60701996 -0.12317046
0.26144224 0.06630972 0.13806662 -0.21695119 -0.07725249 -0.15577357 0.09755847 -0.8746738
-0.09183035 -0.34238398 0.1313993 0.32769376 -0.43485358 0.26679188 0.028268663 -0.16116711
0.09260559 -0.2893109 -0.0108015835 -0.02839896 -0.3291444 0.115225196 -0.40786338 -0.091892645
-0.044733107 -0.21106775 -0.07678595 0.07958767 0.16582122 -0.30593213 -0.006108761 0.17113443
0.16779557 -0.11917483 0.060132056 -0.108601406 -0.21073061 -0.74118215 -0.21919371 -0.36219075
00000000: 5b00 54bd 92bd e63d c516 cf3d 6c24 93bc
00000010: 7844 3dbd 1104 ecbd 9cf5 f53d ae9e 04be
00000020: 1f1b 87be 0bcb 233e 714e 24be 6382 ffbd
00000030: 4baa 97bd fdeb 0fbd 7409 ad3c 2bf4 363c
00000040: 505a 133e 08b7 33be daad b1bd ee42 adbd
00000050: 467c cdbb c490 71bd 3e98 4cbe 5eb5 26be
00000060: e842 793d efb3 8d3d 5927 5bbe f302 0cbd
00000070: 007d 383a 2f3e 8ebd 0002 0e3d bb7d b33d
00000080: fc78 29bd bdcf 4bbd 9eee 1cbe cbd8 68be
00000090: c8b0 32be 8543 5ebc f8f3 b93d ff0e 6bbe
000000a0: 818b 2e3e 775a 14bd f851 c33d 4e8c 2c3e
000000b0: 02c5 523d 120b 0e3e e7bf 34be d3ab 03be
000000c0: fd98 88bd e7b0 913e 2125 853d 9a37 08c0
000000d0: 32cb d5bd 68e7 a93d 89b8 0abe c005 8abd
000000e0: 6319 10be 6626 353e d44e 5fbe 8827 593e
000000f0: 906a 9ebd b275 523d d650 ab3e d1ce a13d
00000100: 4f66 d33c 9168 15bf d2d0 c1bd 8a5c b5bd
00000110: 3fab 3abd 52f2 abbd 69a6 83bd 48a7 323e
00000120: c5f3 29bf afbd a5bd bcb3 753c f199 f43f
00000130: 1a43 61bd 8580 b7bc 89cd fbbd 8036 9bbd
00000140: 04e1 cabe 5b87 e4be 2927 b03e 8589 b53e
00000150: 4671 7fbe fd55 53be c32d de3c b2a1 26bd
00000160: 5381 47be 9927 373f 90c3 123e 7114 303d
00000170: 7781 3a3e 6b46 80bd 833f 4b3e 427a 3bbe
00000180: af0f 043d 5c82 9f3e 51db 1f3d 7f02 0cc0
00000190: f536 1ebc 28ba 473e 1a3e 313e ed61 0a3e
000001a0: 87f2 053e 1def a5bd 0a2b 65bd 3f58 12be
000001b0: c1e9 7a3e 51cd cb3d e494 983e 3204 a43e
000001c0: b9c0 4f3d 32ac e9be 14d1 31be 400f b0bd
000001d0: a004 a13e 0ed9 bfbd 46f8 c7bd 7674 f8bd
000001e0: 0068 d4bd 3c6d 1cbc 3bcc 53bd a86a f2bf
000001f0: 52f0 c33d 1156 2b3e e2b6 77bd ac15 783e
00000200: 48ea 1c3d 6870 283e a73e 433d 98ad a5bd
00000210: 9aaa 413e 3121 363e ad16 923d ac8a 28bd
00000220: 5441 d33d 2926 36be 32ae d03d 5aed 533e
00000230: aeee 143e 8690 743d 8292 313e 98c6 003e
00000240: 1dd2 a9bd 07d4 ab3e 855b 093e 6135 debf
00000250: d8b9 41bb ab01 083e 7351 483d 6c6a b53e
00000260: 778d 223e 1e05 0b3e 3be0 02be acc8 87bd
00000270: d31f c23e c16b 273e 48c9 e13e b425 233e
00000280: ee3e d5bd caae 7cbe b0c7 263e 31bb d6bc
00000290: c71a b93e cb66 f9bd fb66 8b3d e5a5 95bd
000002a0: 5a45 9e3d 4b8d ac3e 97aa 78be 28b9 ebbf
000002b0: 4ad6 963d 0625 a9bd 8b3e b9bd 803e 683e
000002c0: 64b5 073e 1c3b 843d 8cb4 acbd 71d3 edbc
000002d0: feaa ae3e 5cf5 a63e dcea d33e c98c b33e
000002e0: 3e43 d8bc 42f9 64be c41b 8e3d 491f a33b
000002f0: f406 043e ef05 bebd 807d 023d db6e 7d3d
00000300: e34a b7bb 316d 1c3e 1026 253e a447 933d
00000310: fcd0 f83d c25a b8be 60ce a63c 40e0 34bf
00000320: b224 9ebe 29f8 45bf 1f4e 0fbf 0069 123f
00000330: 090e 49bf 364a 903e ad8b 3ebe cc36 99be
00000340: c08b 163e 634d 83be 8b02 1abe 0008 4e3b
00000350: 8485 21bf cacc 0f3e a965 1bbf cb40 fcbd
00000360: c2db 853e 64cd 873d 5661 0d3e 7428 5ebe
00000370: 8e36 9ebd 1b83 1fbe bccc c73d 9fea 5fbf
00000380: 8d11 bcbd f44c afbe 8a8d 063e 7ac7 a73e
00000390: 21a5 debe f298 883e af93 e73c fe08 25be
000003a0: 00a8 bd3d 8f20 94be 20f9 30bc f0a4 e8bc
000003b0: 9d85 a8be 30fb eb3d 78d3 d0be 3632 bcbd
000003c0: 103a 37bd 2522 58be f441 9dbd dcfe a23d
000003d0: 0acd 293e 23a3 9cbe 002c c8bb dd3d 2f3e
000003e0: 9ad2 2b3e ef11 f4bd 084d 763d 6a6a debd
000003f0: c4c9 57be 1dbe 3dbf 5174 60be 1171 b9be

fc2.bias f4 [24]
-0.18263713 -0.04610882 0.361317 -0.0035896609 0.27071187 0.58927846 0.34374323 0.35792452
0.20368227 -0.020352721 -0.24221161 0.5148103 -0.19913925 0.6425414 0.039144676 0.39373326
0.0534734 0.45243514 0.330657 0.53724515 0.53081185 0.4739092 -0.17733113 0.41499144
00000000: 3a05 3bbe 9adc 3cbd 8bfe b83e 8440 6bbb
00000010: bf9a 8a3e f4da 163f 1dff af3e e241 b73e
00000020: 1692 503e c0ba a6bc 5206 78be 9cca 033f
00000030: 29eb 4bbe 987d 243f 2b56 203d 6897 c93e
00000040: ed06 5b3d 94a5 e73e e04b a93e e688 093f
00000050: 49e3 073f 3aa4 f23e 4b96 35be c279 d43e

fc3.weight f4 [24, 24]
0.122476995 -0.14938307 0.16668911 -1.3859142 0.08412391 0.02606823 0.27635327 0.38937405
-0.760667 -0.36141714 -0.4329681 0.5807589 -0.24602018 0.20344628 0.13938431 -0.9051463
-1.3578131 -1.5561719 0.37075877 0.27377895 0.63252056 0.35114217 -0.1680042 0.028597334
-0.023006149 0.039444823 0.4706358 -1.7451938 0.32792726 0.26845023 0.28172547 0.24588266
-0.56676006 0.01064559 -0.3390935 0.5815527 -0.5548666 0.5010698 0.042264484 -0.8410241
-1.8478031 -1.3838359 0.22731441 0.28982183 0.5609177 0.40545267 0.021074886 0.24587736
-0.13712147 0.18071768 -0.11296173 -0.08469745 -0.01358968 -0.026415229 -0.116967924 -0.042777866
-0.031827554 0.090937555 0.10165456 -0.17713594 0.15298226 -0.09839519 -0.12712315 -0.019560352
-0.12085062 0.056259036 -0.08981245 0.015294164 -0.16281323 0.14083087 0.17828101 0.17770612
-0.024010818 -0.10186751 0.29381096 -1.0041198 0.19211426 0.21696866 -0.13948181 0.23217003
-0.6888908 -0.32105163 -0.43316662 0.48336583 -0.16277377 0.28202772 0.056322116 -1.0342922
-1.4188621 -1.4327403 0.20481072 0.25520664 0.38800952 0.41620716 0.15546465 -0.00790706
-0.07620132 -0.15751994 0.015209698 0.18287818 -0.8017086 -0.19175035 -0.58049667 -0.41056773
0.89341253 0.3250224 -0.07464742 0.03123767 0.32001594 -0.18735136 -0.05863136 0.6880136
0.35273218 0.72474855 0.19015256 0.09270293 -0.25151727 -0.0020593586 0.027744066 0.017255452
-0.1804223 -0.09439072 0.11560258 -0.09987539 -0.101538174 -0.14150079 0.12280525 0.039712135
0.11949372 -0.024950415 0.036671773 -0.1812189 0.050316185 -0.19348472 -0.031034186 -0.014619708
-0.1675002 -0.080204755 0.19272876 -0.19994543 -0.081839606 -0.15714717 0.13024962 -0.043258194
0.114817895 -0.08805149 0.45733386 -1.2860961 0.42211494 0.3130981 0.43218502 0.34011865
-0.9221902 -0.5128092 -0.14364485 0.25851238 -0.53734565 0.188875 -0.15597057 -1.1522236
-1.3050731 -1.7626497 0.15999341 0.5304103 0.2822324 -0.05296554 0.1518336 0.39676356
-0.17022428 0.000636667 -0.24525107 0.60012555 -0.06949041 -0.00039430152 0.1403859 -0.28068346
-0.4505171 -0.24245866 0.12648955 0.43499967 0.040800832 -0.5284358 -0.04167597 0.13687895
0.46424466 0.48795035 -0.22817431 -0.07116338 -0.0036920127 0.31011704 -0.15891162 0.014271589
0.17084312 0.15614332 -0.70370215 0.85914683 0.046291895 -0.21137132 -0.122078724 -0.05915996
-0.23217256 -0.28078634 0.15169547 -0.09188626 0.25270224 -0.16924435 0.052964773 0.39418873
0.23176862 0.5836985 -0.169847 -0.23609264 -0.40076885 -0.16614346 -0.10842369 -0.29747948
-0.058016274 0.14911099 0.2810104 -1.0012633 0.5533418 0.39726147 0.41011798 0.49423862
-0.902389 -0.52101314 -0.33324757 0.07118116 -0.5785989 0.35834765 -0.13163014 -1.2148997
-0.90231603 -1.7394502 0.13596724 0.4845337 0.4447831 -0.09156716 -0.027065057 0.47432137
-0.1389046 -0.058491364 -0.5054265 1.530266 -0.24167466 0.31104818 0.18476892 0.08532161
-0.002581153 0.25374192 0.25866172 -0.88314897 -0.09455866 0.099360295 0.009188846 -0.32469705
00000000: 38d5 fa3d e0f7 18be 8db0 2a3e a365 b1bf
00000010: 2849 ac3d 0a8d d53c 2d7e 8d3e 095c c73e
00000020: 13bb 42bf ab0b b9be ffad ddbe 9eac 143f
00000030: b7ec 7bbe 3954 503e c3ba 0e3e abb7 67bf
00000040: d2cc adbf a430 c7bf 18d4 bd3e c12c 8c3e
00000050: deec 213f e8c8 b33e 4b09 2cbe f544 ea3c
00000060: 6477 bcbc e590 213d 2df7 f03e 8362 dfbf
00000070: 15e6 a73e 4f72 893e 523e 903e aac8 7b3e
00000080: 3017 11bf d76a 2e3c aa9d adbe a3e0 143f
00000090: bd0b 0ebf 1c46 003f 861d 2d3d 5b4d 57bf
000000a0: d084 ecbf 8921 b1bf 1cc5 683e 8763 943e
000000b0: 4d98 0f3f 7e97 cf3e 3da5 ac3c 46c7 7b3e
000000c0: 9269 0cbe 0e0e 393e 7b58 e7bd db75 adbd
000000d0: 40a7 5ebc c064 d8bc e18c efbd d837 2fbd
000000e0: 9c5d 02bd 783d ba3d 4430 d03d 2063 35be
000000f0: 62a7 1c3e 6b83 c9bd 922c 02be 083d a0bc
00000100: 8880 f7bd e06f 663d 97ef b7bd 6094 7a3c
00000110: 83b8 26be f835 103e 4c8f 363e 98f8 353e
00000120: 56b2 c4bc ea9f d0bd 646e 963e ff86 80bf
00000130: 9ab9 443e 082d 5e3e 52d4 0ebe fbbd 6d3e
00000140: 265b 30bf e160 a4be 04c8 ddbe ba7b f73e
00000150: 2bae 26be f065 903e 05b2 663d b063 84bf
00000160: 469d b5bf 0964 b7bf e7b9 513e 72aa 823e
00000170: 2fa9 c63e 1b19 d53e 2032 1f3e 9d8c 01bc
00000180: 700f 9cbd e84c 21be 1932 793c 6b44 3b3e
00000190: c63c 4dbf 345a 44be 6e9b 14bf ef35 d2be
000001a0: afb6 643f 5669 a63e bfe0 98bd 24e6 ff3c
000001b0: 21d9 a33e 09d9 3fbe 7027 70bd a921 303f
000001c0: 5099 b43e 1f89 393f 5ab7 423e 09db bd3d
000001d0: dfc6 80be 4ef6 06bb 8647 e33c 4e5b 8d3c
000001e0: a0c0 38be ec4f c1bd 0cc1 ec3d 788b ccbd
000001f0: 3ff3 cfbd 95e5 10be 5281 fb3d 31a9 223d
00000200: 20b9 f43d d064 ccbc 2435 163d 7391 39be
00000210: 5818 4e3d dc20 46be 683b febc 8087 6fbc
00000220: 2c85 2bbe 6442 a4bd b05a 453e 7fbe 4cbe
00000230: 869b a7bd 30eb 20be 2860 053e 812f 31bd
00000240: a525 eb3d 5754 b4bd aa27 ea3e cc9e a4bf
00000250: 731f d83e 654e a03e 5b47 dd3e 0824 ae3e
00000260: a814 6cbf 7747 03bf a317 13be bc5b 843e
00000270: 7c8f 09bf 7368 413e c0b6 1fbe 107c 93bf
00000280: a30c a7bf 819e e1bf 50d5 233e f8c8 073f
00000290: c480 903e 65f2 58bd 447a 1b3e 9824 cb3e
000002a0: 464f 2ebe 00e6 263a 1923 7bbe d4a1 193f
000002b0: fd50 8ebd 41ba ceb9 52c1 0f3e beb5 8fbe
000002c0: 2daa e6be 1547 78be 7a86 013e 47b8 de3e
000002d0: c61e 273d 9247 07bf 6cb4 2abd ff29 0c3e
000002e0: 7ab1 ed3e a1d4 f93e 87a6 69be 1bbe 91bd
000002f0: b2f5 71bb a9c7 9e3e bab9 22be 62d3 693c
00000300: 80f1 2e3e 09e4 1f3e d325 34bf 0cf1 5b3f
00000310: 929c 3d3d b971 58be 6904 fabd b751 72bd
00000320: a5be 6dbe 3ac3 8fbe 0f56 1b3e dd2e bcbd
00000330: 3062 813e 644e 2dbe 97f1 583d 1bd3 c93e
00000340: c154 6d3e 446d 153f 5fec 2dbe 45c2 71be
00000350: 9331 cdbe 8321 2abe 3d0d debd 3b4f 98be
00000360: 79a2 6dbd 8db0 183e 98e0 8f3e 6529 80bf
00000370: cfa7 0d3f db65 cb3e fcfa d13e d80c fd3e
00000380: f702 67bf 1e61 05bf 6d9f aabe 6ec7 913d
00000390: 0f1f 14bf 5879 b73e 0dca 06be d581 9bbf
000003a0: 2ffe 66bf 4ea6 debf ff3a 0b3e cd14 f83e
000003b0: 9cba e33e 9087 bbbd 8ab7 ddbc 40da f23e
000003c0: 023d 0ebe a494 6fbd a263 01bf c2df c33f
000003d0: 9079 77be b541 9f3e 1034 3d3e 19bd ae3d
000003e0: 9028 29bb 76ea 813e 4f6f 843e 0d16 62bf
000003f0: f9a7 c1bd 697d cb3d d08c 163c b13e a6be

fc3.bias f4 [24]
0.6654397 0.6396981 -0.15294608 0.620162 0.07175228 -0.03608942 0.56753945 0.4397316
0.2460973 0.6586289 0.2393593 0.5747221 0.6654926 0.28101888 -0.06680977 0.3885823
0.64335686 0.6913778 -0.094482385 0.049346145 -0.26841474 0.6517976 -0.1625509 0.6147262
00000000: 425a 2a3f 41c3 233f e69d 1cbe f0c2 1e3f
00000010: dcf2 923d 80d2 13bd 444a 113f 8024 e13e
00000020: ee00 7c3e e79b 283f 9b1a 753e fd20 133f
00000030: b95d 2a3f b5e1 8f3e 90d3 88bd 42f4 c63e
00000040: 09b3 243f 23fe 303f fb7f c1bd 2f1f 4a3d
00000050: a86d 89be 35dc 263f be73 26be b25e 1d3f

fc4.weight f4 [2, 24]
0.34405437 0.38472578 -0.008022457 0.26030692 -1.140403 -0.15595874 0.4631835 0.50763875
0.76634943 0.5207479 -0.96575165 0.42118934 -0.26403096 0.16879186 -0.013177976 0.93507504
0.2741318 0.4702732 0.08267772 -0.10964358 -0.12778664 0.14290844 -0.06204294 0.43011642
0.5648068 0.5368516 -0.101798326 0.44015807 -0.4730724 0.08970085 0.25246838 0.5432396
-0.019610174 0.23431978 -1.2532252 0.71500534 0.39627174 -1.0194948 0.035338223 0.6311318
0.49469307 0.242637 0.028802738 0.07339988 0.03003098 0.25228307 -0.10011551 0.37328112
00000000: e527 b03e c7fa c43e a070 03bc f346 853e
00000010: baf8 91bf a6b3 1fbe 6326 ed3e 9df4 013f
00000020: 7a2f 443f bc4f 053f 803b 77bf 21a6 d73e
00000030: 112f 87be c6d7 2c3e 70e8 57bc 1461 6f3f
00000040: 015b 8c3e a6c7 f03e f052 a93d d08c e0bd
00000050: 80da 02be 9756 123e bd20 7ebd 3838 dc3e
00000060: 2e97 103f 1b6f 093f a47b d0bd 665c e13e
00000070: 8c36 f2be 14b5 b73d 8943 813e c011 0b3f
00000080: 84a5 a0bc 86f1 6f3e af69 a0bf 970a 373f
00000090: 21e4 ca3e ce7e 82bf d0be 103d db91 213f
000000a0: 6948 fd3e d575 783e b8f3 eb3c ad52 963d
000000b0: 8803 f63c 3f2b 813e 5c09 cdbd b41e bf3e

fc4.bias f4 [2]
0.3797995 0.6947564
00000000: 1475 c23e 8edb 313f
